weights/decoder_weights_05232023a.pth (torch, 177671 bytes, 9 tensors)

decoder_lin.0.weight f4 [128, 4]
00000000: a3c1 df3e 0ae6 bb3a 20ce 89be bc64 f63d
00000010: 394f 0d3f 0774 883d 182f 05bf b47a 0b3f
00000020: 64eb f3bd b138 b93e 231a 00bf 135f 6a3e
00000030: 3639 033f 1f27 e93e 7dc3 43bd 6b03 923e
00000040: 392a 243e 4ac4 b93e 853b 43be 3cf3 f1be
00000050: a7dc 90bd 15b3 9c3d 5e10 ff3c 4677 86be
00000060: 479c adbe 93ce 313e 2262 e63e 5994 ce3e
00000070: cf45 11be b899 023d f4a7 29be 9fbe f3be
00000080: 764a 933c 6493 bd3a 15ac 7a3e e9a4 53be
00000090: 5956 36bf 7389 0ebf 256c 3bbd 6dd7 0b3f
000000a0: b6c0 f13e 53f0 e23d 7140 773e 565d 003f
000000b0: 8cec 46be 693a 13be ffcd 993d 9072 b3be
000000c0: 8206 753e 9be2 d33d 8cf3 a5bd 27b8 38be
000000d0: f951 093e 70f3 59bd b7af d1be 66a3 c2be
000000e0: 2545 393d 2ff4 49be 3f02 e2be 42d9 75bd
000000f0: 6535 123f 6e28 87be 7e13 58be efeb f03e
00000100: 66ba 1f3e f15b 1a3e 5d65 80bd 54c5 61be
00000110: 87b0 7a3e 46bb 5abe c6ba c4bc 391f 82be
00000120: 3817 693e 082b ccbe e250 0cbe e1e8 1fbe
00000130: f3c6 853e 5c5b eabd 0970 483e 16b7 06be
00000140: db0b 06bf b0b8 2cbf 2c3f 9e3e 632e 013f
00000150: b808 743d aae6 1fbf 380c ec3e 13b8 1c3f
00000160: 3e02 07be 3e34 ebbe dbc0 4ebf 65d0 553c
00000170: efff 8cbe 60d4 00be 4c7c 9b3e 59ee 69be
00000180: 2bd0 d0be 3316 46bf 3a6b 2a3f 3a6d f23c
00000190: a4c4 633e 7442 96bc 2e34 c7be 63e1 9d3e
000001a0: 527a 853e 7429 b7bd 2135 08bf 9838 bdbd
000001b0: f718 03be e91f 0a3f 6a9d abbe 02b4 84bd
000001c0: 4ed6 d83d e83c 2c3f df22 593e bffb a13e
000001d0: 1e01 4ebe 37f2 813e 431e 86bd 31f2 d4be
000001e0: c3be 723e 1956 a0be 6afd 083e e9a9 c3be
000001f0: 0ba3 86bd 9d77 c4be 3581 8ebe 481a 413f
00000200: 612d f73c 3b66 d63d 5294 afbe d4d8 a6be
00000210: bace d23e b1e1 153f ed49 fcbe 4ae6 083f
00000220: 6fd4 183e 2fd8 623e 2c24 df3e 0b47 9cbe
00000230: be7d c83e 5595 e33e e9d7 1abf aec1 823d
00000240: 7364 74be 88b6 50bf 6bff e53d 33a6 28bd
00000250: d305 8a3e fdbe 07be 0f59 8cbe fc84 d5be
00000260: 5f0b 173e 2055 39bd ea34 b13d 956c 85be
00000270: bb3f 08bf 9a79 0c3e 9dfd d8bd 4560 053f
00000280: c402 31be a9b4 8abe 2e77 c23e f6f0 5dbe
00000290: dae3 fd3e f573 0e3f 8a3b b63d ec13 033f
000002a0: 799b a03b ce09 9bbe 4d35 98be 8b31 a3be
000002b0: 90c5 bf3d de7c 053f b741 a9bd 0222 523e
000002c0: f0ba a0be c981 113f e0aa 96be 716d 2b3e
000002d0: e045 65be 56be 19bf a8a8 83bd 0419 1f3f
000002e0: a89e 96bd 7181 443d 9dd6 1abf 390a f9bd
000002f0: e513 0e3e 8d08 ddbe 278f 1e3f 80c8 ed3e
00000300: 146b b6be 6ddf 1d3e f346 0a3e 5d1b 55be
00000310: 6966 ccbe ad73 55be 5fa7 71bd 0968 3e3f
00000320: dd2d f73e 9370 48be 71ca 703e 5250 263e
00000330: b197 a63e 9e82 bf3e ede1 51bd 546b 3f3c
00000340: 6695 2bbe aed3 f63e 60ea d43e be94 3e3d
00000350: e995 bc3e 0b8b 28be 9b2d 34be 0863 00be
00000360: 6816 d3bb f344 9d3e cf44 b0bd 3083 a9bd
00000370: 4b85 8cbe 012d 283e 31fe c43e ae09 55be
00000380: 296b 3abf 0a5b ec3e f754 8b3e 10ee 323e
00000390: 253f fb3b 5fe0 1d3f 7fd3 e7be e08c fb3e
000003a0: c85a 89be 5732 6dbf 0d80 0ebe a34f 553e
000003b0: 707e df3e 534f d8be d9ec bbbd cee1 a8be
000003c0: ad91 45be a554 983e 6ee0 9ebe d4d3 463f
000003d0: 8ff0 36be 01b1 ab3e ba86 66be ce7f 87be
000003e0: 8f4f bd3e 75fc 1c3e 7571 703e b51a 01be
000003f0: 8a5c f93e 3590 5b3e b927 85be 9940 ab3d
0.4370242 0.0014335525 -0.26915073 0.12030932 0.5519901 0.066627555 -0.52024984 0.54484105
-0.119101316 0.36176065 -0.5003988 0.2288783 0.5125917 0.4553766 -0.047793854 0.28518233
0.16031732 0.3628257 -0.19065674 -0.47255886 -0.07073336 0.07651345 0.031135734 -0.26262873
-0.33908293 0.17363958 0.44996744 0.40347555 -0.14186786 0.03188488 -0.16567975 -0.4760637
0.017979842 0.0014463481 0.24479707 -0.20668377 -0.71225506 -0.5567848 -0.04575743 0.5462559
0.4721734 0.110809945 0.24145676 0.5014242 -0.19426173 -0.1437775 0.07509994 -0.35048342
0.23928264 0.10345956 -0.081030935 -0.18038999 0.13410176 -0.053210676 -0.40954372 -0.38015288
0.045231957 -0.19722055 -0.4414234 -0.060021646 0.57112724 -0.26398033 -0.21101186 0.47055003
0.15598449 0.15074135 -0.062693335 -0.22047931 0.24481402 -0.21360502 -0.024014842 -0.25414446
0.22762764 -0.3987658 -0.1370273 -0.1561618 0.2612835 -0.11443207 0.19573988 -0.13155779
-0.5236184 -0.6746931 0.3090757 0.50461406 0.059578627 -0.6246134 0.46103072 0.61218375
-0.13184449 -0.45938295 -0.80763024 0.013050173 -0.27539012 -0.12581015 0.30368268 -0.22844829
-0.4078382 -0.77377623 0.66569865 0.029593099 0.22242981 -0.018342234 -0.38906997 0.3083602
0.26069885 -0.089434534 -0.5320607 -0.0923931 -0.12802492 0.5395494 -0.33518535 -0.06479646
0.105877504 0.67280436 0.21204709 0.3163738 -0.20117614 0.25380108 -0.06548741 -0.41591027
0.23705582 -0.31315687 0.1337792 -0.3821557 -0.06574067 -0.38372508 -0.27832952 0.75430727
0.030173006 0.10468718 -0.34292847 -0.32587302 0.41173345 0.585475 -0.4927515 0.53476393
0.14924787 0.2215278 0.43582284 -0.3052295 0.39158434 0.4444987 -0.604857 0.06384598
-0.23866443 -0.8152852 0.11230358 -0.041174125 0.2695757 -0.1325645 -0.27411696 -0.41703022
0.14750431 -0.045247197 0.08652671 -0.26059404 -0.53222245 0.13718262 -0.10595248 0.5210002
-0.17286211 -0.27090958 0.37981552 -0.2167395 0.495879 0.55645686 0.08898075 0.51202273
0.0049013463 -0.30280918 -0.29728165 -0.31873736 0.09363854 0.5214366 -0.08264487 0.20520785
-0.31392622 0.5683866 -0.29427242 0.16740967 -0.22389936 -0.60056055 -0.06428653 0.62147546
-0.0735448 0.047975007 -0.60483724 -0.12160153 0.13874777 -0.43170586 0.61937183 0.46442032
-0.3562857 0.15417261 0.13503627 -0.2081122 -0.39921883 -0.20844908 -0.05899751 0.74377495
0.48277178 -0.19574194 0.23514725 0.16241577 0.32537606 0.3740434 -0.05124085 0.011683304
-0.1675621 0.48208374 0.41585064 0.04652857 0.36833122 -0.1645929 -0.17595522 -0.12537777
-0.00644188 0.30716667 -0.08606874 -0.08276975 -0.27445444 0.16423418 0.38475183 -0.20804474
-0.72819763 0.46163207 0.2721326 0.17473626 0.0076674395 0.6167049 -0.45278546 0.49130917
-0.26827073 -0.9265494 -0.13916035 0.2083116 0.43651152 -0.4224802 -0.091760345 -0.32984775
-0.19293852 0.2975208 -0.310306 0.77666974 -0.17865203 0.3353348 -0.22512332 -0.26464695
0.3697476 0.1533068 0.2348078 -0.12607844 0.48703414 0.2144173 -0.26006868 0.083619304

decoder_lin.0.bias f4 [128]
00000000: 89dd 683f 0afa a0bc 1cb0 b83f 6fb5 18bf
00000010: 3b23 b1bc c618 a73e 321f 033f 0083 77bf
00000020: 6568 2a3f 0a4a fabe d89a b63f 9ab4 81be
00000030: 7229 423f 1c2e fe3e 9fa9 623f 0b70 cb3e
00000040: 2ae7 e83e 8929 783e a206 493e d9c6 88bf
00000050: 000f 033f c8b0 cfbe 4a81 8bbe 5feb 033e
00000060: 35b7 b0bd cdbf 843f 706b 2c3e 3ccb 9cbf
00000070: ddfa 88bf c7cf ddbf a372 8ebf 1937 e0be
00000080: 692a 8e3e 31cd c2bf c495 bfbe 860f 663e
00000090: afd1 293f 6492 de3e cfd4 de3c 04ff a93f
000000a0: bd52 913f 6790 63bd c03f 1f3e e9f3 403f
000000b0: d88e cc3e 9156 0d3f 0d3d b8be 9121 e4be
000000c0: 9716 733f 0568 383f e7c0 4a3e d5e7 21bc
000000d0: 068d b93f 8aec 183f 9be0 4f3e 09ab 5d3e
000000e0: 2120 f43e 2f02 093e 382e d3be e3b8 d5bf
000000f0: 8bb3 053f 325b 923e 5bc2 b5bf 8497 9d3f
00000100: c13b 6f3f a448 bd3f 07c2 603f 984f 77bf
00000110: c327 28bf 02b6 993f b4a3 523e b327 e03d
00000120: 617d 1fbf 444e 21bf 9076 0e3e 6de9 543f
00000130: d966 c3bd 021e 193f cd3f 533d 8f36 80bf
00000140: 21c0 9fbf e4d2 083f 7991 82bf 3a3a 94be
00000150: 5394 ef3d ca0d 1bbf 02da 8b3f 2bdc 6b3f
00000160: fee5 78bf 0e44 28bf a5a5 c53e f06d 9e3e
00000170: 1fe6 8fbf 67a4 993e c4ac 293f 7a78 a3be
00000180: 50f6 083f 0543 493f 8886 8f3f 1171 103f
00000190: 19b8 883f c8b2 083f 197e c43e 640f 953f
000001a0: 2c5e b0be 9e3e ebbf a852 7f3e d423 82bf
000001b0: ee29 78be 5a1c 863d 7f62 33bf a822 3c3f
000001c0: 925c 32bd 1823 743f bb5e 683e 0bce db3e
000001d0: abab f43f cc20 a63f 374f 52bf 7e78 713f
000001e0: c4e4 ef3d baa5 a9bf 629d c43e 7cbb 8ebf
000001f0: 01cb f9be fa3b 9cbe 2803 a43f 86cf a8bf
0.90963036 -0.019650478 1.4428744 -0.59651846 -0.021623245 0.32636088 0.51219475 -0.96684265
0.66565543 -0.48884612 1.4266005 -0.253331 0.7584449 0.49644554 0.8854007 0.3973392
0.45488864 0.24234594 0.19631436 -1.0685683 0.51194763 -0.4056456 -0.27247077 0.12882756
-0.08628694 1.0371033 0.16837859 -1.2249522 -1.0701557 -1.7329034 -1.1128734 -0.43792036
0.2776673 -1.521887 -0.3741895 0.22466859 0.66335577 0.43471062 0.027201084 1.328095
1.1353375 -0.055557635 0.15551662 0.7537218 0.3995273 0.55210215 -0.35984078 -0.4455686
0.94956344 0.7203372 0.19800149 -0.009881933 1.4496162 0.5973593 0.20300524 0.21647276
0.47680762 0.13379739 -0.412462 -1.6697048 0.52227086 0.28585202 -1.4199938 1.2311864
0.9345055 1.4787793 0.8779606 -0.96605825 -0.6568567 1.2008669 0.2057026 0.10945072
-0.6230069 -0.6301005 0.13912416 0.8316868 -0.09541101 0.59811413 0.051574517 -1.001665
-1.2480508 0.53446794 -1.0200645 -0.28950673 0.116982125 -0.60567915 1.0925906 0.92132825
-0.9722594 -0.65728843 0.3860294 0.3094325 -1.1242102 0.30008242 0.66279244 -0.31927854
0.53500843 0.7861789 1.1212931 0.56422526 1.0681182 0.533978 0.38377455 1.1645322
-0.34446847 -1.8378484 0.24933875 -1.0167184 -0.24234745 0.065483764 -0.7007217 0.7349038
-0.043545313 0.9536605 0.22692387 0.42930636 1.9114889 1.2978759 -0.8215212 0.9432448
0.117135555 -1.3253701 0.38401324 -1.1150966 -0.48787692 -0.30514508 1.2813463 -1.3188331

decoder_lin.2.weight f4 [288, 128]
00000000: 96a2 81bd fae3 0d3e b342 ddbd 57fd 5cbd
00000010: 51f6 e1be 5902 cebe c072 0abe ddf5 0dbe
00000020: 174b c8be e80c 6a3e 554a e03d 4f69 38bf
00000030: 56eb 2abd 7a4c e7be b9f2 a7bb 2317 c23c
00000040: 04f9 61bd 08b2 66be b017 c13d 6fcf 99bd
00000050: 0597 693e 3b48 64bd d8b1 023f a138 5dbe
00000060: 956a bbbc 02d6 cd3d 3e64 113c 4f5a 37bb
00000070: 82a9 173e 5015 9abe a4ab 62bf aa55 8fbc
00000080: 4f22 22bf cf9c 083e 65a1 d0bd 7788 31bd
00000090: f7b9 b33d a9d7 afbe fe0c 4bbf e537 2dbd
000000a0: 71ae 5cbe 393a b83d e970 4abd 5d12 633d
000000b0: d9e0 7b3d 4e44 8b3d 848c 6d3e ceb1 9dbd
000000c0: a27b be3d 69c8 3cbe 4fed 323d 3759 4dbd
000000d0: 2a24 683e 8bd8 ab3b 4777 023d 401c 193e
000000e0: 7d9b 3c3e 3fd7 a2bd 2d2f b13e 3510 833d
000000f0: bd9c 07bb e3de e7be 2a23 c3bc d3eb 40bc
00000100: a899 923d 67cb 343c 259f 40bf 1e2d 31bc
00000110: 54e7 92be ab26 1c3d 088b 02be 2899 dcbd
00000120: bc66 37be 3b2e 903c 7f6a 7d3c 58ee 043d
00000130: 67eb b3bb 1c6a db3b c981 b03d b2f4 5cbd
00000140: 43f2 07be d894 e43c f268 97ba 6c22 cd3d
00000150: 48d1 95be 2fd7 96be dbd3 823c c5cd e3bc
00000160: eae7 b5be c487 3f3d abce 6bbd 3b72 d63e
00000170: 5bda 7fbd 16fe 26bd 6dcc c2be 2948 2b3e
00000180: 3807 13bf 7d0e 773d 4303 b0bb 6bc3 203d
00000190: 30e8 78be e0dd d73d 7d4d 413e 4fba cbbd
000001a0: 5fa6 f43d ec6e 89bd 8b0b 0abc 4f75 96be
000001b0: 749d 143e 2d37 8e3e ecb9 a73d 194a 9dbc
000001c0: e229 c33c 06ea 073d 4441 55be 50e8 353d
000001d0: 2e8b 983d 8fac 683e 466d 183e 819a 7e3d
000001e0: bf46 70be 2f8f aebe 0486 47be 7e6d cf3d
000001f0: c815 be3d 9548 453d 2937 dc3d 0eef 80bd
00000200: 12b8 78be cfb7 2b3e 6edc a8bd 0cd9 373d
00000210: bf6c d83d c9bf b73d 8ab6 483e 000c 2a3d
00000220: d0b6 9f3d 3b24 3abd 6b32 9ebc 217b 0a3e
00000230: 02bf 963d e1ac 6c3e 1fd6 313c 7d03 e8bd
00000240: c820 bebc 3a52 0f3e 60c5 233d 2f9b 4ebb
00000250: e77e 8e3d b87f 07bd 3ed2 973d e207 d6bc
00000260: 0935 03be 4cfd 15bf a32d 01be 4bff a5bd
00000270: 2587 56bb aa10 073e ee1a 693d 2118 3b3e
00000280: 6593 a73d ca92 823e 20d4 0fbd c62a 65bd
00000290: da1d 2dbd 640c 0f3e d82e 073e 586b 09be
000002a0: e9a8 c53d 4abf fb3d b0ad 5f3e 5c5b 14be
000002b0: 972a 80be 201a 1e3d 9ad2 ba3b b1bb 33bb
000002c0: 0597 35be 5294 033e 1d72 bbbd 58a1 e4bd
000002d0: 7f3d c53d 1f97 3d3d e7bc dc3d fabc 4cbd
000002e0: 09e1 8dbb fd1a a43d 4abb 223e 5856 aa3d
000002f0: dc5b 9cbd 2e08 f8bc 4a34 b7bc e92c 84be
00000300: 99ee 9d3d 7067 a8b7 6234 443e 47ae 943c
00000310: 60c2 883e a627 86bd a6ac 2cbe dadb 443e
00000320: b220 1b3e e30a 4c3e 29a3 173e 6a71 9e3d
00000330: acb0 9d3c bf9d 193d 01e7 72bc 5610 573e
00000340: ccce ee3d 001c 98bb 7ee2 e13e 21c3 913d
00000350: 5309 de3d c3e5 04bf 7005 3abd 8326 25be
00000360: 1864 6ebc 98fe 083e 6307 c93d a362 1bbd
00000370: 16ff 393e 088f 393d c1e2 143c 6fab 923b
00000380: 3cc1 0cbc a83f 843e 4006 6cbd b663 aabc
00000390: 4b72 01bd b3a3 d33d 1135 a93b 1ba6 283e
000003a0: 18f7 c1be aad7 a13d 1d35 0abe a2e9 4dbc
000003b0: 5270 3abe 7f13 493e cda9 043e ee4b 573d
000003c0: 151e 0dbe 1954 d83d 35e2 463b 8257 23be
000003d0: bf66 7ebd b94a 4a3e f239 7a3d 3eb5 03be
000003e0: c41f 72bd 87b5 f7bb 473e aebc 200b 1e3f
000003f0: 09a9 b23d 5643 163e 0a12 e7bd aa7b 92bb
-0.06329839 0.13856497 -0.108037375 -0.05395254 -0.44133237 -0.40236166 -0.13520336 -0.1386332
-0.3911979 0.22856486 0.10951678 -0.7203569 -0.04172834 -0.45175534 -0.0051253703 0.023692673
-0.05516912 -0.22528851 0.09428346 -0.07510268 0.22811516 -0.055732947 0.5105262 -0.21603633
-0.02287797 0.100505844 0.008873997 -0.0027977412 0.14810756 -0.30094385 -0.8854315 -0.017496902
-0.633336 0.13341068 -0.101870336 -0.043343034 0.08775704 -0.34344223 -0.793167 -0.042289633
-0.21550919 0.0899548 -0.049424086 0.055437434 0.06149373 0.068001375 0.23198134 -0.07699929
0.09300925 -0.18435825 0.043683346 -0.05013391 0.22670045 0.00524432 0.031852033 0.14952183
0.18418689 -0.07951211 0.34606305 0.063995756 -0.0020692789 -0.45287237 -0.023820478 -0.011774975
0.07158214 0.011034823 -0.75242835 -0.010813979 -0.28692114 0.038122814 -0.12748349 -0.107714
-0.17910284 0.01760017 0.015467285 0.032453865 -0.0054907086 0.006695999 0.086185046 -0.053944297
-0.1327601 0.027903005 -0.0011551662 0.10016331 -0.2926123 -0.29461047 0.015970161 -0.02780808
-0.355285 0.046760336 -0.05757014 0.41884026 -0.0624641 -0.04076966 -0.3804659 0.16726746
-0.5743289 0.06031655 -0.0053714826 0.039248865 -0.24307323 0.10540366 0.18877216 -0.09947645
0.11945795 -0.0671061 -0.008425604 -0.29386374 0.14513189 0.2777647 0.08189759 -0.019200372
0.023823682 0.033182167 -0.20825678 0.044411004 0.074484214 0.22722076 0.14885435 0.062159065
-0.23464487 -0.34093615 -0.19484717 0.10128306 0.09281498 0.048164923 0.107527085 -0.06295596
-0.24288967 0.16769336 -0.082451686 0.044884726 0.10567617 0.08972127 0.19600883 0.04151535
0.077985406 -0.04544471 -0.01931115 0.13523532 0.073606506 0.23112823 0.010854273 -0.1132879
-0.02320899 0.1399621 0.039983153 -0.0031525602 0.069577985 -0.033080786 0.074131474 -0.026126806
-0.128132 -0.58589625 -0.12615065 -0.08105334 -0.003273436 0.1318995 0.056910448 0.18270923
0.0818241 0.25502616 -0.035114408 -0.055948995 -0.042264797 0.1396957 0.13201463 -0.13419855
0.09651358 0.12292345 0.218436 -0.14487976 -0.25032493 0.038599133 0.005701375 -0.0027425105
-0.1773339 0.12849548 -0.09152625 -0.111635864 0.0963087 0.0462867 0.10778218 -0.04998491
-0.004329805 0.0801296 0.15891758 0.0831725 -0.07634708 -0.030277338 -0.0223638 -0.25815514
0.077115245 -2.0075327e-05 0.19160607 0.018149508 0.26710796 -0.06550531 -0.16862735 0.19224492
0.15149191 0.19926028 0.14808334 0.07736476 0.019249283 0.037503954 -0.014825583 0.21002325
0.11660537 -0.0046420097 0.44118112 0.07117296 0.10841622 -0.5191309 -0.04541534 -0.16127972
-0.014550231 0.1337837 0.09815862 -0.037935864 0.18163714 0.04530242 0.0090872655 0.004476003
-0.008590993 0.25829816 -0.057623148 -0.020799499 -0.03160314 0.103339575 0.0051637967 0.16469614
-0.3788383 0.07902463 -0.13496824 -0.012567909 -0.1820691 0.19636343 0.12955399 0.052562647
-0.13781007 0.10562915 0.0030347232 -0.1595135 -0.062109705 0.19755067 0.061090417 -0.12862107
-0.059112325 -0.0075594815 -0.02126993 0.61735725 0.08723647 0.14674124 -0.112827376 -0.0044703083

decoder_lin.2.bias f4 [288]
00000000: 325f 4f3e aacb c3be e284 4fbc 3318 893e
00000010: a9e0 fd3e 5315 853d 8846 33be 4968 143b
00000020: 7eb0 a1bd 2011 0a3f dffd 143f dceb b13e
00000030: 977b 62bc 4873 9a3d f41c 27be 62a5 b4bd
00000040: 8217 5dbd d055 82bd 0bb0 573e 4f64 c5bd
00000050: dca9 223d 9300 5d3e 661f 843d c9a3 67bc
00000060: e495 b03e 3810 b4bd c07e 2fbd f5e1 ef3d
00000070: a950 9dbf 1c9c 3e3d 5735 f23d 4b71 bb3e
00000080: afe7 543c e872 be3e a18a a8bd d06d 1a3c
00000090: 7f4d a33f 330d c23e 407d 093f 4cd4 34bd
000000a0: 0b8d 7c3d bd19 77bc 8bb3 0cbe 6837 65bf
000000b0: 8ea7 7c3c a3d8 023e 6637 963e f809 333e
000000c0: 06b0 d3bd 1a83 103e de45 763e 3eb6 8dbd
000000d0: d2f4 a0bd 46c1 a83d 2382 c8bd 3bbb 9e3d
000000e0: ed6d 5f3e 8670 083f 0e49 ba3c ba46 e4bd
000000f0: d66c 233e 806f cdbc 8a6a 4e3e ccd6 8e3e
00000100: 8db2 c03d a2a4 853d 9f7c 61be 9598 433c
00000110: 1c3a 993c 0845 363d 4b12 87bd c64f 8fbc
00000120: a105 bebe be27 993d 6a9c e4bd c90b 4f3f
00000130: e611 563e ea34 0cbf e2b9 5e3e 0701 a9bd
00000140: 0ba2 7b3d 55b6 de3d 8f37 623d 0e33 92bd
00000150: de46 05bd d6ee a2bd 4532 cdbd cdc0 013f
00000160: 9576 c73e 7fda ed3d 45f9 e1bd 33a0 d23c
00000170: 1aa8 e8bc 4835 793e 4749 353f b85b 21bf
00000180: 8513 cfbc e474 a1bd 225d c73c fc73 b8be
00000190: 93c3 98bc f6a9 cc3e e096 e63c d034 423d
000001a0: 899d 143d 91d6 f13d ebad b0be 8bdb 11bf
000001b0: 45ff 463e 96f7 e4bd 70e1 3f3e 0692 443e
000001c0: 1988 863d e83c c23d 2d8d 0e3e 75b3 f8bd
000001d0: 03ce 28bd 3d46 fa3c 1ec7 e4bc df2f d73e
000001e0: 1080 c2bc dfdb aa3e d3e4 a8bd 3aec 743d
000001f0: 0734 563d 6ea8 8bbc 0cb7 58bd b03c 40be
00000200: a20f d83e face 9d3e aad7 bbbe 02a0 7e3d
00000210: 84ab 193d d3e4 afbd 7fb1 dfbc 8513 603e
00000220: 8c8a 3dbe 0c52 acbe 7ae1 28bd ffd5 9bbd
00000230: ff0c ec3c 8314 6b3e a669 64be 79ec 6bbd
00000240: 5966 563d e124 273e 5252 f83e 6ebf a83b
00000250: 10ee 893d 334b 553d 6c3d 953e 0be1 3abe
00000260: 3c22 993e 8783 fbbd 263e ccbd 9bb1 8ebd
00000270: c484 e3bd 3dec 84bd 47a7 0dbf 1bf8 973e
00000280: b3dd aa3c f01c e23c 6a2a 64bc 699c 433f
00000290: f237 403e 4703 c43d c3b6 683d eadd 163e
000002a0: 8617 993c ada6 8b3d 7930 913d 7796 fabb
000002b0: 301a 41bd d706 fdbe a9d3 9e3e 6ce0 103d
000002c0: 2193 553e 0116 80be f688 4bbe 794b e2bd
000002d0: 75f7 2e3c 5335 27bd 400a 72bd 3c73 db3c
000002e0: d6ec 9fbd 4d6c 29bd bb18 6abe 4a3d 4d3f
000002f0: 6a57 d9bc a2b7 bf3c 7351 99bc e535 88bd
00000300: 7bc9 663f 00d2 0abe 3dac dabd 9bc4 a43e
00000310: d6f8 c83e 07d3 bb3e 00da 053c 3b5f 75bd
00000320: ae58 893e ad6d 6abd 04b0 5f3c ae9a 173f
00000330: 5b5b c43e 5d35 6a3d 00a3 223f b73c eb3d
00000340: 7cbf 9e3e e92e a0bc 7b42 e2bd 3ec6 693d
00000350: 088a e0be 3af3 adbd 6909 d43e fa6f c2be
00000360: 81ef a23d 23fb 233f 1bdd b93e 94b6 8bbd
00000370: 5505 883e 5cf7 3d3e 84b1 f13d 8427 c0bd
00000380: 0564 dc3c 1753 1b3e 7738 763e 16a6 323d
00000390: 7f8d 6ebf 7a80 273f 2339 23bf b15b 8fbd
000003a0: 6ca1 89bc 3561 adbd 8483 fe3e d1f4 f9bc
000003b0: b214 be3e 9570 77b9 229d 15bf 9242 523d
000003c0: 783c 493d f0e5 103c 1960 393f d6dd de3d
000003d0: ba52 94be 1f57 00bf eb91 ac3d bac1 95be
000003e0: 756c a6bd 85fb 303c fea8 e43e 068e aa3e
000003f0: 0a55 8ebd 5d8e e33d b9c0 a2bd 4318 6fbe
0.20251158 -0.3824132 -0.012665959 0.26776275 0.49585465 0.06498208 -0.17507374 0.0022645167
-0.07894991 0.5393238 0.58199877 0.3475026 -0.013823411 0.075415194 -0.16319638 -0.08820607
-0.053977497 -0.06364024 0.21063249 -0.09638273 0.03971277 0.2158225 0.06451301 -0.0141381705
0.34489357 -0.08792156 -0.042845488 0.1171302 -1.229024 0.046535596 0.1182658 0.36609873
0.012994691 0.37197042 -0.08229566 0.009425595 1.2758025 0.37900695 0.5370674 -0.044147775
0.061657947 -0.01508182 -0.13740365 -0.8953767 0.0154208075 0.12777953 0.2933914 0.17484272
-0.10336308 0.14112511 0.2405009 -0.069195256 -0.07859196 0.08239989 -0.097904466 0.07750555
0.21819277 0.532967 0.022739913 -0.111463025 0.15959486 -0.025077581 0.20157829 0.27898252
0.09409056 0.06525542 -0.22020195 0.011938234 0.018704467 0.044499427 -0.06595286 -0.017494094
-0.3711367 0.07478283 -0.11162646 0.8087736 0.20905265 -0.5476824 0.21750596 -0.08252149
0.061433833 0.10874621 0.055228766 -0.07138644 -0.032538287 -0.079557106 -0.10019354 0.50684816
0.38957658 0.116139404 -0.110338725 0.025711155 -0.02840047 0.24336731 0.7081494 -0.63030577
-0.025277862 -0.07883623 0.024336401 -0.3602599 -0.018647945 0.3997342 0.028148115 0.047413647
0.03628305 0.118085034 -0.3450769 -0.5697562 0.19433315 -0.11180036 0.18738341 0.19196329
0.06568927 0.09484273 0.13921042 -0.12143604 -0.041212093 0.03055107 -0.027926978 0.4202871
-0.023742706 0.33370873 -0.0824677 0.059795596 0.05229571 -0.017048087 -0.052908942 -0.1877315
0.42199427 0.30821973 -0.36687976 0.062164314 0.037517086 -0.08588567 -0.027306316 0.21882446
-0.18509883 -0.33656347 -0.041230656 -0.07609176 0.02881479 0.22957043 -0.22305927 -0.057598565
0.0523437 0.16322662 0.48500305 0.0051497733 0.0673486 0.05207367 0.29148424 -0.1824991
0.2990893 -0.12280946 -0.099727914 -0.06967469 -0.111093074 -0.064903714 -0.5533337 0.29681477
0.020857668 0.02760169 -0.013926128 0.7641054 0.18771341 0.095709376 0.05681492 0.14733091
0.018687975 0.068189 0.070893236 -0.0076473313 -0.047144115 -0.4941928 0.3102086 0.035370275
0.20856906 -0.25016788 -0.19876465 -0.110495515 0.010679116 -0.04082234 -0.059091806 0.026788346
-0.07808845 -0.04136305 -0.22860996 0.80171645 -0.02653094 0.023402993 -0.018715596 -0.066509046
0.90151185 -0.13556671 -0.10677383 0.32181248 0.39252347 0.3668444 0.008169651 -0.059905272
0.2682547 -0.0572335 0.013652805 0.592204 0.3835095 0.057179797 0.6352997 0.1148619
0.31005466 -0.019553619 -0.110478364 0.057073824 -0.4385531 -0.084936574 0.4141343 -0.37976056
0.07955838 0.6405508 0.36301503 -0.068219334 0.26566568 0.18551391 0.118014365 -0.09382537
0.026903162 0.15168415 0.24044977 0.043615423 -0.93184656 0.65430415 -0.6375906 -0.069999106
-0.016800605 -0.084658064 0.49709713 -0.030512245 0.37125164 -0.00023597696 -0.5844289 0.051333018
0.049129933 0.008843884 0.7241226 0.108821556 -0.28969365 -0.50132936 0.08426269 -0.29249364
-0.08126155 0.010802154 0.4466018 0.3331148 -0.06949814 0.11111138 -0.07946915 -0.23349099

decoder_conv.0.weight f4 [32, 16, 3, 3]
00000000: e8b1 b0be 6bf3 693d f7b3 82bd 0fcd 753d
00000010: 9a38 a23d 17b1 dd3b 71f3 4b3e 4c10 b4bd
00000020: 4099 c1bc 6d39 093e ab05 b1bc 2403 aabb
00000030: 8b83 b03c 8cdd 203e 79b9 153d 3ef3 4a3e
00000040: 05c0 50be 6138 1abe 00f4 9ebd bab9 bc3d
00000050: 21de b2bd 0a00 b73e e9a1 b73d c72c cabd
00000060: c632 863e 52fb 83be aa6f 61bd 5a0d 943d
00000070: 0137 ecbd 1880 a63c 7ce8 e03b e559 ce3c
00000080: 248b 67bd ff4a 56be 3c92 bbbd ede0 ecbd
00000090: b330 db3e 53b9 3a3e e026 aebe ab17 113e
000000a0: ec44 34bc 2d04 3d3d d247 7fbc d2e5 94be
000000b0: 806b f8bc a0e0 2d3e 0624 87be 7868 21bd
000000c0: ebf8 33be 8d64 70bd 49bf 1fbb 608f db3d
000000d0: 6e02 7cbd 6d3a 54be 9a84 123d b1c7 2c3d
000000e0: f441 1c3d c806 4cbe 1467 573d 143f afbd
000000f0: 5f1f 4ebe 85fa 643e 83e3 bebd 92c0 ac3b
00000100: f7b4 56be 6adb 1d3e 45f3 c53e d269 6fbe
00000110: a0bd fb3d 7ce3 893c d2c0 3fbe 3ff0 48bc
00000120: f5a9 00be 6aba 3a3c 1649 16bc 23f3 933d
00000130: 7dd1 963e 3374 a43d d25e 033e 692b 8a3e
00000140: dd50 bfbd 6d30 a5be ac41 023d 551a 2bbe
00000150: 5a30 b83d b5ce 1b3d a0e6 313e 8568 8f3e
00000160: 3d1a 8dbc c34a 22bb 8289 52ba 7c26 a0bd
00000170: 3426 053c 045a a63e 81d7 b9bd b60a 16be
00000180: 2428 173c 01cc bebd 06fa cebd b6e8 4a3d
00000190: 193d 87bd 4245 573d f890 b1bd 74bb 93be
000001a0: 248d 31be b33a 753d 5fe5 0bbc cb4c eb3a
000001b0: 3c95 02be d3ad 84bd d3dc 45be 90d2 043e
000001c0: ebc7 593d 43a0 97bd 2d69 8a3c a49f 31bd
000001d0: e566 fe3c 4c8e a73b 6fbd 433d d5ef 94bd
000001e0: b413 3c3e 28ce 353d f1d3 7c3d 011e 193e
000001f0: 3327 40be 01ea c2bd fe6d 863e 75ba 403e
00000200: 6a42 f73d 517b f63c 4c5f 17be 7301 f839
00000210: 46bd 28be 6120 e5bd 9be2 7c3c 9c3e ee3c
00000220: aade 3d3b e11e 3bbe 3c98 d6bd 64ad edbc
00000230: 358d 4c3d 8206 fc3d 5630 3dbe 3790 d3bd
00000240: 6326 b3bb 84e3 553e aa90 ed3d 21bf 76bd
00000250: 6db6 8d3e bae8 1e3e fc40 a5bd c01c af3d
00000260: 6069 a43d de7c 8dbd 75b4 5f3e d8ba e23d
00000270: 2098 2dbd 38b0 a5bd 6c23 bf3a 5d1b 883d
00000280: e288 5bbd f921 cfbd 76ef e8bc 69eb bb3d
00000290: adab 3d3f bbc4 f2bd 82de ab3d 4342 773d
000002a0: b4c1 1d3c 54eb 9abd a82d 70be 33b7 98be
000002b0: 69e0 57be 08fb b73d 7090 38bd 9d59 02be
000002c0: b919 143e 1960 abbd de04 ac3c f5ac 36bd
000002d0: 4a02 0ebd b770 453e b024 193e 4a3d febd
000002e0: 6ff9 093e f514 433e e249 90be b5eb 113c
000002f0: 9613 a3bd db0e 0dbd de19 7f3e 7d86 8d3e
00000300: ea70 d33c 7749 e53c 5c60 043e 9272 67bd
00000310: 01b2 24be cfc4 a73c 3486 873d e36b 923e
00000320: 4f0e b53e 1f40 4b3d 9a4b 303d 0bc6 bfbd
00000330: ff07 81bd f8d2 63bd 1bef 47bd f1e5 69bc
00000340: f72c 363e b608 303e 81da 0abe 8ebe f13d
00000350: 1c50 953d c60d cfbc 52e0 863d 036d 383d
00000360: d011 58bd 874d 0cbe a9c2 71be 55f6 87bd
00000370: f814 bcbe 963e 663e 1823 5abb a5ac 82bd
00000380: 54b0 1ebd 552d 37bd 3d6a 613d c3d9 04bd
00000390: b39c 5cbd fdc2 b9bd e179 a03d 1eb3 b3bd
000003a0: a183 073e d821 9c3d b556 0a3e 8326 223e
000003b0: 251d b53d 26e3 663b f9fd 1d3d efe8 e53b
000003c0: 9930 aabc f9d4 bfbd 14b1 b9bd c12a d63b
000003d0: b458 833d ed20 823d 608d 99bd 4945 babd
000003e0: 180c a43d e699 02bd 9afd d8bd 47b1 3d3d
000003f0: 9194 8dbd 73ea 9b3e d5d3 a23e b033 b8bd
-0.34510732 0.057116907 -0.06381982 0.060010012 0.07920952 0.0067654955 0.19917084 -0.08792171
-0.023632646 0.13400812 -0.021609148 -0.0051883627 0.0215471 0.15709513 0.036553834 0.19819352
-0.2038575 -0.1506057 -0.07761383 0.09215112 -0.08733774 0.35742217 0.08966429 -0.09871822
0.26210612 -0.2577768 -0.05503813 0.07229109 -0.11533929 0.020324752 0.006863652 0.02518935
-0.05652918 -0.20927046 -0.09158751 -0.11566339 0.42810592 0.18234758 -0.34014034 0.14169185
-0.01100276 0.04614656 -0.015581088 -0.2908159 -0.030324697 0.16980219 -0.2639467 -0.03940627
-0.17575423 -0.058689643 -0.002437549 0.10720706 -0.061525755 -0.20725413 0.03577099 0.042182628
0.038148835 -0.19924462 0.052588537 -0.08556953 -0.20129155 0.2236119 -0.09320738 0.0052719796
-0.2096747 0.15415731 0.38662162 -0.23380211 0.122920275 0.016832106 -0.18725899 -0.01226431
-0.12564833 0.011396984 -0.0091726985 0.07224109 0.29456702 0.08029976 0.1282914 0.26986244
-0.09341595 -0.32263508 0.03180091 -0.16709264 0.08993597 0.038038928 0.17373133 0.2800943
-0.017224425 -0.00247638 -0.00080313545 -0.0781984 0.008126784 0.3249055 -0.09074307 -0.14652523
0.009225879 -0.093162544 -0.10106282 0.049538337 -0.0660345 0.052556284 -0.08670229 -0.28853953
-0.17338997 0.059870433 -0.008538573 0.0017951963 -0.12752241 -0.06478467 -0.19322519 0.12970948
0.053169172 -0.07403614 0.016895855 -0.043365136 0.031054923 0.0051133987 0.04778808 -0.07272307
0.18366891 0.04438606 0.06172556 0.14952852 -0.18764953 -0.09517289 0.26255792 0.18821128
0.12073214 0.030088099 -0.14782447 0.00047303326 -0.16478452 -0.111878164 0.015434886 0.029082589
0.002897183 -0.18273498 -0.10478255 -0.029013343 0.049939353 0.12305929 -0.1847547 -0.10330241
-0.0054672225 0.20887572 0.11599858 -0.06024087 0.27678242 0.15518466 -0.080690354 0.085504055
0.08027911 -0.06908582 0.21846183 0.11070794 -0.042381406 -0.08090252 0.00145827 0.06645844
-0.05359734 -0.10113902 -0.028434496 0.0917576 0.7409008 -0.118539296 0.08392049 0.060365926
0.009628702 -0.075644165 -0.23454916 -0.2982727 -0.210817 0.08983427 -0.04505962 -0.12729497
0.14462937 -0.083679385 0.020998415 -0.04459854 -0.03467015 0.19281279 0.14955401 -0.12414034
0.13474058 0.19050963 -0.28181368 0.008906295 -0.0796272 -0.034437995 0.24912211 0.2764167
0.025810678 0.027989132 0.12927383 -0.056505747 -0.16083528 0.020479588 0.06617394 0.28597936
0.3536248 0.049621698 0.04304085 -0.093639456 -0.06300353 -0.055621117 -0.048812013 -0.014276014
0.1779059 0.17190823 -0.13559915 0.118039235 0.0729067 -0.025275122 0.065857545 0.045025837
-0.052751362 -0.1370145 -0.23609413 -0.06638781 -0.36734748 0.22484812 -0.0033285078 -0.063805856
-0.03874238 -0.044720966 0.055032957 -0.032434236 -0.053860378 -0.09070394 0.078357466 -0.08774398
0.13233806 0.07623643 0.13509639 0.15835004 0.088434495 0.0035230606 0.038572285 0.0070162932
-0.020775126 -0.09366793 -0.09066978 0.0065358584 0.06413403 0.06353936 -0.07497668 -0.09095246
0.08010119 -0.03188505 -0.10595246 0.046311643 -0.069131024 0.30452308 0.3180224 -0.089942336

decoder_conv.0.bias f4 [16]
00000000: cc74 533e 29b6 303e 0191 8d3d d578 dd3d
00000010: ac66 063f 87ce c1bd 5840 cebd 5ada 2a3e
00000020: 505f c4bd 4d47 2e3f 2575 8c3c 7dfb d53c
00000030: cb1b 80bd fd64 c5bc b60a 433e a248 763f
0.20650023 0.17256989 0.06912423 0.108140625 0.52500415 -0.0946322 -0.10070866 0.16684857
-0.09588492 0.68077546 0.017145703 0.026120896 -0.06255301 -0.024096007 0.19047055 0.9620458

decoder_conv.2.weight f4 [16, 8, 3, 3]
00000000: 28f8 7c3d bc31 b53d 1f92 253e 8ad3 b8bc
00000010: 2c93 1d3d f864 52bd df29 bdbd 0e89 3dbe
00000020: 3d1a e93c 4da5 ca3d 3a8e 1f3e dce9 d13d
00000030: 0398 193d 41f7 333e 3cce 2e3e 0db3 aebb
00000040: 9617 af3a 7203 f6bd eb3a 783e 1696 2f3d
00000050: 3fc4 8e3d b257 bdbe 9ccf 60be c9d4 063e
00000060: 5d7f 60bd f9ce 583e 72e5 283e 317e 993d
00000070: 1024 c9bd 097a 69be ebae ffbd 3ed0 0fbe
00000080: 9285 83bd 531b 81bd d405 103e 7b76 f33d
00000090: 3e2b 2dbd 0125 ddbd 2942 46bd 66ea b53c
000000a0: f12f 48be 9ddf edbd ce52 353e 8b49 583b
000000b0: 35ce 55bd 3cab 933d 542a 893e bd4f 403e
000000c0: a6b2 583e ab12 b63e 9a29 663e 92f2 2d3d
000000d0: 329b d33c 864f bc3a 9100 9dbe 8dba 01be
000000e0: 02f2 c83d 14d8 8fbd 56af cfbd 523c 1b3e
000000f0: c97c c0bd bf22 3abe 6b59 14bb cf4f a13d
00000100: d53d 5b3e 90e8 31bd cdf1 b0bc 4f7d 613d
00000110: d7b4 153c 065d 0ebe 0a81 81bd 760c 833d
00000120: 98d1 1f3b 9045 4e3d f907 543d af5c 173e
00000130: bb6a c63d 280c d03c 97cb 81bd 5ccb 3e3e
00000140: 8862 a33d 53a7 9cbd 3399 6f3e 2570 d13d
00000150: d2a8 603d 66a2 a73e 7bd5 913e 3254 863a
00000160: 0ff6 4a3e ffa7 223e 4b6f d8bd 3868 7bbe
00000170: 45b3 683c d35f 5cbe 45bb b63c ae6b 5c3d
00000180: a8c1 adbd f3a8 b0bd d2e0 33be 4699 6e3d
00000190: e6a1 163e a917 c83d 983d 783b 6f33 0cbe
000001a0: 8f54 fcbd e515 cfbd d42a 14be 45de dabd
000001b0: 28a5 813c 9248 8abc b0cc 08bc 7bf1 d3bd
000001c0: 9d9c dbbd 7239 b63d 4e42 3bbe b239 f0bd
000001d0: 84a6 89bd bd23 e03d 9bdb c03c f1ee cbbd
000001e0: e72f fb3d 8d79 293e 4e7a d63d f035 083e
000001f0: 8a3e c43d 4f63 943c c667 a9bd 09d7 873c
00000200: 95f2 e23c bb2b 3e3c d4b9 d73d 14fa 0d3d
00000210: f618 923b 8f7e 4e3c b84d d53d fb1a 2b3d
00000220: d59b c63d a308 b33d fcb5 7e3e b4a7 953e
00000230: eb66 173d 37f6 503e 9a00 563e e193 c8bc
00000240: 9f77 083e 10cf 7b3e cb85 5a3e 95fc 983d
00000250: ae7f 093e a8b4 e8bd 5bab 053e 1229 ab3d
00000260: 2c6b db3d 91b7 dbbd 0706 e23d 2ea7 f03d
00000270: 68b5 a23d 2535 6c3e a8ae 963e 315b 113d
00000280: dee5 b03e a96b 633e b4ef be3d 41f6 b6be
00000290: 0f27 c43d 95d8 1abe 3cc7 e53d 47fe cc3d
000002a0: 211a 26bd 01c0 9cbe f850 b83c b8ab 003d
000002b0: 9b70 89bd 7b3b 133c c261 e13d 2028 89bd
000002c0: 3d9d 7bbd 70a4 29be 5f77 8fbe 3595 72bd
000002d0: 18ff 63bd c3de 7ebd 9ef7 c3bd 7704 aa3c
000002e0: 1a95 82be 48f9 833c 7249 a2bc 19a5 77be
000002f0: 23e9 febd 0252 a8bb afa6 323d ef4d bebd
00000300: 7265 51bd edd1 fe3c 4b16 a5bd 326b f33c
00000310: db9b 293c 4976 c5bd 8937 8a3d 3eb0 583e
00000320: c7c5 e83d 88a6 3f3e 2c82 143e d26b 8e3e
00000330: c273 6abd 16fc aa3e 54b0 873e 28b7 d53d
00000340: 3184 5b3d 5bf6 c2bc 7ad1 2f3d 9a3d 283e
00000350: a067 cdbc 2af0 9b3e 861b 863e 1f6c 64bd
00000360: 8e7e 00be 7850 aebd 5b11 b73d 0cb3 95bc
00000370: 66f9 b4bd 684c 7bbe b2aa 1fbd e528 c93d
00000380: 6c4a 8c3e f5d4 00be 81a0 02be b0c2 0e3e
00000390: c05e b0bc 64ac 463d d88e b33e 03df 4a3d
000003a0: 7953 2fbe 9451 243e 6f35 11bc 5d9e 323e
000003b0: 5b45 ecbd 5af2 09be dec7 3c3e 73f3 863e
000003c0: d29c 79bd ceda d7be 6b69 dbbe 91b9 ea3d
000003d0: 369c ad3d bf95 593e 0106 643d 6d1e 133e
000003e0: 86ec 2cbe 43d7 e6be d241 45be 577e 36be
000003f0: dd29 fd3d 8990 943e 70e3 18bd b7a3 3e3e
0.061760098 0.08847377 0.16169022 -0.022561807 0.038470432 -0.051365823 -0.09236502 -0.18509313
0.028454894 0.0989481 0.15581599 0.10249683 0.037498485 0.17574789 0.1707086 -0.005331403
0.001335847 -0.12012376 0.24241225 0.042867742 0.06971025 -0.3698097 -0.21954197 0.13167109
-0.054808963 0.21172704 0.16493776 0.07494772 -0.098213315 -0.22800459 -0.12484535 -0.14044282
-0.06421961 -0.0630404 0.14064723 0.11887833 -0.042277567 -0.107980736 -0.04840294 0.022206496
-0.19549538 -0.116149165 0.17707369 0.003300282 -0.052198607 0.07210395 0.26790106 0.18780418
0.21161899 0.35561118 0.22476807 0.04246766 0.025830839 0.0014366962 -0.30664495 -0.1266882
0.09811784 -0.070236355 -0.101408646 0.15159729 -0.09398801 -0.18177317 -0.0022636305 0.078765504
0.21410306 -0.04343468 -0.021599675 0.055051144 0.009137354 -0.13902673 -0.063234404 0.06398861
0.0024386402 0.05035931 0.051765416 0.1478145 0.09688326 0.025396422 -0.0633766 0.18632263
0.07977778 -0.07649102 0.23398285 0.10226468 0.0548485 0.32741088 0.28483185 0.0010248481
0.19820426 0.15884398 -0.105681024 -0.24551475 0.014202897 -0.21520929 0.022306094 0.05381363
-0.084842026 -0.086259745 -0.17566231 0.05825164 0.14710197 0.09770138 0.003787851 -0.13691495
-0.12320816 -0.10111598 -0.14469463 -0.10686926 0.015825823 -0.016880307 -0.008349583 -0.10348793
-0.10723231 0.088976756 -0.18287012 -0.117297545 -0.067212135 0.109443165 0.023542216 -0.09957684
0.12264996 0.16550274 0.104725465 0.13301826 0.09582241 0.01811376 -0.08271746 0.016582029
0.027703563 0.011607106 0.10533491 0.03466232 0.004458542 0.012603416 0.10415214 0.041773777
0.09697691 0.08741882 0.24874109 0.2922951 0.036963385 0.20406424 0.20898667 -0.024484577
0.13326882 0.24590707 0.213401 0.07470051 0.13427612 -0.113625824 0.13053648 0.08357443
0.10713801 -0.10728372 0.11036306 0.11750637 0.07944757 0.23067148 0.29430127 0.035487358
0.34550375 0.22209038 0.093230635 -0.35734752 0.09577762 -0.15121682 0.112196416 0.10009437
-0.040552262 -0.30615237 0.022499546 0.031413764 -0.06710931 0.008986349 0.11004974 -0.06697106
-0.06142925 -0.16566634 -0.2802076 -0.059224326 -0.0556632 -0.06222416 -0.095687136 0.020754082
-0.2550438 0.016110078 -0.019810412 -0.24184074 -0.12446811 -0.005136729 0.043615993 -0.092922084
-0.051122136 0.03110596 -0.08060893 0.0297142 0.0103521 -0.09641702 0.06748874 0.21160981
0.11365848 0.1871587 0.14502782 0.27816635 -0.0572393 0.3339545 0.26501715 0.10435325
0.053592864 -0.023799112 0.04292438 0.16429749 -0.025073826 0.30456668 0.26192874 -0.055767175
-0.12548277 -0.08511442 0.08938857 -0.018273853 -0.088366315 -0.24540865 -0.038981147 0.09822253
0.2740053 -0.12581237 -0.1275654 0.13941455 -0.021529555 0.04850425 0.3506992 0.049529087
-0.17121686 0.16046745 -0.008862837 0.17443223 -0.11536666 -0.13471356 0.18435618 0.26357612
-0.06094057 -0.42159122 -0.42853865 0.11461175 0.084770605 0.2124853 0.05566979 0.14367075
-0.16887102 -0.45086107 -0.1926339 -0.17821632 0.123615004 0.29016522 -0.037326276 0.1861714

decoder_conv.2.bias f4 [8]
00000000: af93 debd eeb1 0fbe 581a 69be e44e 733f
00000010: adad 3c3f 6a38 93bd 6cfa 313e ef5b 213e
-0.10868012 -0.14032719 -0.22763956 0.9504225 0.7370251 -0.071884945 0.17380685 0.15757726

decoder_conv.4.weight f4 [8, 1, 3, 3]
00000000: 08a0 b3bd 0cd3 dabe 5503 aabe 3377 5cbd
00000010: 2a39 1abf 361e debe 4a3c 0ebe 0d21 03bf
00000020: 1cbf a2be 4af1 b7bd a9a1 4ebe 693b d33c
00000030: 9b73 82be c30b 06bf ce44 13bd 0d4d e2bd
00000040: b199 52be ddce 3f3d 84af 99be b353 1abf
00000050: e42a 04bf c541 f5be b5b0 78bf 8870 39bf
00000060: 4eff 97be 300a 05bf 9ff6 b1be a1f8 f93e
00000070: 3f83 4e3f dd88 a93e 5535 503f b089 983f
00000080: a6b4 d33e 1e52 ec3e 7f80 093f d824 053e
00000090: 0fe2 f53e 180f 3a3f 38b4 c23e 82ac 383f
000000a0: d61a 763f 25db f53e 02bd 8a3e 7c28 753e
000000b0: 6008 7f3d 4376 94bd b407 abbe a64a b2be
000000c0: 6736 08bd 0e80 f7be 34c8 03bf f37a 8b3d
000000d0: c26f 8dbc 9a0a b6bd 589f e53d 6c05 b1bb
000000e0: 03e4 66be c24c 503c 2f12 b0be f274 0ebf
000000f0: 63a9 ffbd 3f8c babe 5b81 d6be b367 f43d
00000100: eba4 2b3e dccf 88bd fd77 ffbd 6054 9dbe
00000110: 3faa dfbe 4eef 86be db4f 13bf 1c97 e5be
-0.08770758 -0.4273914 -0.33205667 -0.053824615 -0.60243475 -0.43382424 -0.13890186 -0.51222306
-0.3178643 -0.08981569 -0.20178856 0.025785165 -0.25478825 -0.52361697 -0.03595429 -0.110498525
-0.20566441 0.04682814 -0.3001672 -0.60283965 -0.51627946 -0.4790174 -0.97144634 -0.72437334
-0.2968697 -0.5196867 -0.3475847 0.488225 0.80669016 0.3311223 0.8133138 1.1917019
0.4134876 0.461564 0.53711694 0.13002336 0.48024032 0.7267928 0.3802812 0.72138226
0.961347 0.48018757 0.27097327 0.23941225 0.062263846 -0.07249119 -0.33404315 -0.34822577
-0.033255007 -0.48339885 -0.5147736 0.0681056 -0.017265204 -0.08888741 0.11212033 -0.0054022577
-0.22547917 0.012713613 -0.34388873 -0.55647194 -0.1248348 -0.36435124 -0.41895565 0.119338416
0.1676213 -0.06680271 -0.12474058 -0.30728436 -0.43684575 -0.2635445 -0.57543725 -0.4484185
