weights/decoder_weights_06072023c.pth (torch, 178695 bytes, 9 tensors)

decoder_lin.0.weight f4 [128, 6]
00000000: 2705 44bd 1895 02bf 5471 f43e 40c7 0cbe
00000010: 1ced 833c 39ec c3bd f081 783e 6a6a e53e
00000020: 9538 123f 2dd0 06bf 3fc6 18bf 2092 033f
00000030: 8012 4f3e c6b8 be3e d5b9 e93e 7ff7 e0be
00000040: 3f3a fabe 4a59 df3e 3497 d0be a619 ec3e
00000050: 269e a6be eab8 17bf d935 383e 987a 6b3d
00000060: 03b8 203e 631f 78bc 32e7 e6be d073 b2be
00000070: d864 0dbd c866 813d af16 81be 20ee b3be
00000080: 32e5 043f 9cde fb3e cdd6 aabe ff75 863e
00000090: a73a 593e a3c5 cf3e 5bb7 023f 0a55 edbe
000000a0: 11a1 04bf d065 ec3e d390 a1be 4b72 39be
000000b0: 8107 a83e 2cab ee3d 2be8 cc3b 4c39 463f
000000c0: ec0b 6c3e f4a0 ce3e 4b28 013f 9827 f1be
000000d0: ef22 05bf fd5b ed3e 834a 843e 5555 f53d
000000e0: 6a91 933e 8ec7 b3be 1f3e 02be fb3b 9b3e
000000f0: e428 413e 0b89 c23e 15eb f93e b065 dcbe
00000100: 7711 01bf 45b5 d23e 7fb5 f73c 84ed 9e3e
00000110: 97f1 6ebe 2013 b03e c635 d03c 3cb0 a0be
00000120: 93aa 87be b079 8a3e 6f3c 613e d9e4 a5be
00000130: badf 973e ac41 b8be 5349 debe c325 80be
00000140: 0c7b e6bc e852 e23d 8725 4abd 96d2 383e
00000150: 8d78 333e 9d3c ae3e 76fd dc3e 0af3 ccbe
00000160: 737a f5be f192 c53e c154 acbe 8ea4 23be
00000170: 11cf 033d cf64 d5be c530 cbbe 0b81 64be
00000180: f592 4bbd 9bf8 bcbe 054a a4be 97a7 75be
00000190: 706c 9d3c 7e42 32be 6c22 483d 9c25 bf3d
000001a0: fde8 503e 7f52 ab3e a4b9 2e3e 7b28 51be
000001b0: 8ecb 013d 5d1b abbe 8953 bdbe 0df1 a1be
000001c0: 8806 d8be 2cd1 443d 360c 513e f98f c63e
000001d0: a4d0 fa3e 047c e5be 82a8 03bf faf1 dc3e
000001e0: 251f 193e f2d2 b4bd 3ea5 47be f1d7 963e
000001f0: 4a0a cb3e 4b84 c1bd 95e1 4f3d 76fb ae3e
00000200: bf22 d53e 17d7 abbe ab93 cebe b070 c63e
00000210: 667b d03d 87bf c2bd f9f3 8dbe 19b8 26be
00000220: 8e3d 2c3e 9464 87be c53f 553e fdef bf3e
00000230: 40ba f03e 9db8 e5be b22d 05bf 53ce e43e
00000240: f438 4d3e ecd4 c13e 81cc f53e 8188 e5be
00000250: 70f1 05bf 4fb6 da3e ede3 c4be 226d 593e
00000260: a700 5ebe 5098 f93d d79f 803e 95a1 293f
00000270: dd24 a23e 7d7f 253e d663 78be 3f15 33be
00000280: 1533 7a3e c4d2 e6be 8681 8dbd 97f8 343e
00000290: 6d88 cdbe 438b 993e 55fe 35be 4b11 a9bc
000002a0: 9281 643e fa5c 4c3c 594d efbd 9215 483e
000002b0: efa7 34be 75a6 10be 09a2 eabe fe0c ec3e
000002c0: aa5d b83e 3f58 d33e 5d1b 14bd df84 6a3d
000002d0: e115 26bd c540 0c3e e345 3ebe b016 e93e
000002e0: d78b 2abf f5ac f23e d67f c43d 8f5a a43e
000002f0: 86bb df3e d908 dabe 9edf 0abf 28bc f23d
00000300: de97 8ebe 8a4e 93be 176a 05be b9f9 f83d
00000310: 019c d0be 2f64 883e 47f0 dfbd e47e 99bc
00000320: 530e 8ebe b07e ac3e daf2 81be e06d b53e
00000330: f639 a9bd f56b e8bd b3ed 49bd 81dd 88bc
00000340: 8a80 8dbd 73b2 a8bd 4410 4c3e 803a b73e
00000350: 7748 e33e 0a1f e0be c9ad f9be ccf9 d83e
00000360: dc21 70bd 2fea db3e 733c 023f 10ab 86be
00000370: ece5 eebe 91e9 07bb 1958 053e 20d2 c83e
00000380: c340 f43e 50fd bdbe a033 a3bd c2cf 06be
00000390: aa54 8fbe 2584 333b 5ba0 fdbd 634b 70be
000003a0: 0570 063e 2853 cfbe 5949 933e b600 7c3c
000003b0: 7c34 b4be cf92 853e dd63 893d 623b 7d3b
000003c0: b46f 773e 6c67 e93e 7629 153f 069a 06bf
000003d0: 6edb 1abf 6872 053f 65d9 443e 916e c63e
000003e0: 14d5 fc3e 7db4 e9be a909 06bf f9c9 dd3e
000003f0: f39f 163f 742f af3d 2228 91be 8233 4e3e
-0.047856476 -0.5100875 0.47742712 -0.13747883 0.016104273 -0.0956654 0.24268317 0.4480775
0.5711759 -0.526614 -0.596775 0.51394844 0.20221901 0.37250346 0.4564959 -0.43938825
-0.48872563 0.4362281 -0.4074036 0.46113318 -0.32542533 -0.5926653 0.17989291 0.05748996
0.15695195 -0.015144202 -0.45098263 -0.34853983 -0.03452 0.06318432 -0.2521262 -0.35142612
0.51912224 0.49193275 -0.33367005 0.262619 0.2121378 0.40580472 0.5106103 -0.46353942
-0.5180827 0.46171427 -0.31555805 -0.18110006 0.32818225 0.11653742 0.0062532625 0.7743118
0.23051423 0.40357172 0.5045211 -0.4710052 -0.5200643 0.46359244 0.25838098 0.119791664
0.2882188 -0.35113186 -0.1271901 0.303192 0.18863255 0.3799518 0.48812166 -0.4304633
-0.50417274 0.41153923 0.030237911 0.31040585 -0.23334347 0.3438959 0.025416266 -0.31384456
-0.26497325 0.27045965 0.2199571 -0.3240116 0.29662877 -0.35987604 -0.43415317 -0.2502881
-0.028134845 0.11050969 -0.049352195 0.18049082 0.17526455 0.3403062 0.43162125 -0.40029174
-0.47944984 0.3858867 -0.33658412 -0.15980741 0.032179896 -0.41678473 -0.39685646 -0.22314851
-0.049700696 -0.3690842 -0.32087722 -0.23989712 0.019216746 -0.17408177 0.048860952 0.09333345
0.20401378 0.33461377 0.17063004 -0.20425598 0.031688266 -0.33419314 -0.36977795 -0.3162922
-0.42192483 0.048051044 0.20414814 0.38781717 0.48987305 -0.4482118 -0.51429 0.43153363
0.14953287 -0.08829297 -0.19496629 0.29461625 0.39656287 -0.09449061 0.05075224 0.34176224
0.41628072 -0.33562538 -0.40347037 0.3875785 0.101797864 -0.09509187 -0.277252 -0.16281165
0.16820356 -0.26443923 0.20825107 0.37487784 0.47017097 -0.4486741 -0.5202285 0.44688663
0.20041257 0.3785776 0.48007587 -0.44830707 -0.5232153 0.42717215 -0.38455144 0.21233037
-0.21679936 0.121872544 0.25121948 0.6626218 0.3166875 0.16161914 -0.24256834 -0.17488573
0.24433549 -0.45082676 -0.0690947 0.17672954 -0.40143147 0.2998906 -0.17772801 -0.020638129
0.22315052 0.012473339 -0.11684675 0.19539478 -0.17642187 -0.14125998 -0.45826748 0.46103662
0.3600896 0.41278264 -0.03615891 0.057255622 -0.04054821 0.13696583 -0.18581347 0.45525122
-0.6661963 0.4739758 0.09594695 0.3210034 0.43697757 -0.42584875 -0.5424746 0.11852294
-0.2785024 -0.28770858 -0.13028751 0.12157006 -0.40744022 0.26638934 -0.10934501 -0.018737264
-0.27745304 0.33690405 -0.25380594 0.3543539 -0.08263008 -0.11348716 -0.049298953 -0.016707184
-0.069092825 -0.082371615 0.1992808 0.3578682 0.44391224 -0.4377368 -0.487654 0.4237808
-0.05862604 0.42952105 0.5087349 -0.26302385 -0.4665979 -0.0020738582 0.13021888 0.39222813
0.4770566 -0.37107325 -0.07968831 -0.13165191 -0.2799428 0.0027391997 -0.12384101 -0.23466258
0.1312867 -0.4049313 0.28766897 0.015381029 -0.35196292 0.2608857 0.067085005 0.0038640131
0.24163705 0.45586717 0.5826639 -0.5257877 -0.60491073 0.52127695 0.19223554 0.3875623
0.49381316 -0.45645514 -0.5235849 0.43318155 0.58837813 0.08553973 -0.2835093 0.20136836

decoder_lin.0.bias f4 [128]
00000000: daed 3a3e ed2c 98bf 04f3 a6bf 630e 313e
00000010: 808e 053f 5dd5 b9bc 55c9 b7bf 8722 ff3e
00000020: 4806 5ebf 6159 c83d 019a c9bf d6ab a13e
00000030: 8ebd e7be ff47 0e3d 351a a9bf 4f1d 823e
00000040: 1802 523e e167 943e d166 4e3e 7fd4 a1bf
00000050: 5bb1 2dbf 58b5 1bbf f528 32be 3282 fabf
00000060: fdd4 bdbf 7a3a 123f 5c3d a23e dd40 e23e
00000070: 8395 083e b013 ccbd 08b7 25bf 3e57 dbbe
00000080: a8da 92be 201c fbbe c19a 1abf 4896 ddbf
00000090: 15a1 72be 947d 9d3e 8962 2abe 1722 03bf
000000a0: 5c7e 96bf e0ba 73bf 612a f13c fd46 debe
000000b0: 4b51 b4bf 97c6 13bf c116 59bc e5c5 4cbe
000000c0: 27ed f5be 51d0 96bf f6e3 e7be 6d45 253e
000000d0: 7714 193e b8a2 43bf 06eb cb3e 3d70 e03c
000000e0: dbd8 42bd a976 26bf 1bfb cbbf 8915 663d
000000f0: ff64 493e 8557 4abf 2de8 67be 2a1c a9bf
00000100: d075 85bf cd00 123f c097 90bd 5abc 3fbf
00000110: d643 b7bd caf1 73bf 6f46 ccbe e0d2 8bbe
00000120: aa94 b6bf 53fa c6bf 3e87 d5bf 7c50 973e
00000130: 7ead f13e ce24 43bf 41da ccbf 6f46 b0bd
00000140: 3c93 133f 1d2a c2be 8a83 4a3e b57e 37be
00000150: e4e0 e93e 34ad f03e 4935 9abd 1069 d13e
00000160: 84e2 bc3e 2c6b b7bf ca0a 80bf b166 a73d
00000170: 56a5 eebe 12a0 11bf 3c88 e83e b0fd b4bf
00000180: ac8d 63be 8ef0 e03d 4cab 8dbf 6c7e cebf
00000190: 70c5 3ebe 9a20 ac3e 8759 c9be 5024 263d
000001a0: 8dd4 a23e 0667 8e39 74a9 28bd 7147 74be
000001b0: 5c21 b5bf ad3c 973e 5ed3 a9bf 4a27 90bf
000001c0: cd78 b9be e064 a0bf b0c5 ae3e 91fe e13d
000001d0: c2d2 8ebf 85db f0be 823f e1be 0545 063f
000001e0: 1d75 4a3e cddd c0bf 819a bbbf fed3 f9bd
000001f0: 67c0 9b3d b61c 983e 6941 d4be a79a be3d
0.18254796 -1.188871 -1.3042912 0.17290644 0.5217056 -0.022684747 -1.4358317 0.4983103
-0.86728334 0.09782673 -1.5750123 0.31576413 -0.45261806 0.03473663 -1.3211123 0.25412986
0.20508611 0.28985503 0.20156409 -1.2642974 -0.6784875 -0.60823584 -0.17398436 -1.9570982
-1.4830624 0.5712048 0.31687438 0.44190112 0.13338284 -0.099646926 -0.6473241 -0.42839998
-0.28682446 -0.49044895 -0.60392386 -1.7311487 -0.2369426 0.3075987 -0.1663915 -0.5122389
-1.1757312 -0.95207024 0.029439153 -0.43413535 -1.4087309 -0.577249 -0.013250054 -0.19997366
-0.48032495 -1.1782323 -0.45291108 0.16139765 0.14949213 -0.76420164 0.39827746 0.02739727
-0.04757009 -0.6502481 -1.5936006 0.05617288 0.19667433 -0.79039794 -0.22647162 -1.321172
-1.0426579 0.5703247 -0.07060194 -0.74896777 -0.089484856 -0.95290816 -0.39897487 -0.27309322
-1.4264119 -1.5545143 -1.6681898 0.29553592 0.47202677 -0.76228034 -1.6004106 -0.08607184
0.57646537 -0.37922755 0.1977674 -0.17919429 0.4567939 0.47007143 -0.075296946 0.4090047
0.36891568 -1.4329581 -1.0003293 0.08173884 -0.46610516 -0.5688487 0.4541644 -1.4139919
-0.22222012 0.10983382 -1.1067901 -1.6132331 -0.18630004 0.33618623 -0.39326116 0.040561974
0.31802788 0.0002716111 -0.041177228 -0.23855378 -1.4150805 0.2953848 -1.3267629 -1.126199
-0.36224976 -1.2530785 0.341352 0.11034883 -1.1158068 -0.4704248 -0.43993765 0.52449065
0.19771238 -1.5067688 -1.4656526 -0.121986374 0.07605057 0.29709405 -0.41456154 0.09306841

decoder_lin.2.weight f4 [288, 128]
00000000: de93 f4bc 8346 82be b4ef 18be 1466 c1bc
00000010: cf6e fe3d 822e 583d e5a8 92be 2423 423d
00000020: c51a 51be f3a1 dfbd 6b57 efbd 0b8f d83d
00000030: 6d46 ebbc 1227 5b3d 6f4d 95be 93dd 6c3c
00000040: e7f0 283e 4a60 b2bd 6c36 6d3d 6ed1 57be
00000050: 516e 90bc eeaa 08be 6be6 ae3d 865b 20be
00000060: 92f5 02be 82d1 47be ad1a 3e3d 6f47 9f3d
00000070: f499 f8bd 34fc 0cbe 8730 c7bc 1b4f 5cbe
00000080: ea82 223e 1172 7a3b e54f 0b3e c10f 7bbe
00000090: 0d6b 86be 0c86 323e d200 61bc 3a0e 3abd
000000a0: ebd2 1fbe 3675 1dbe fe21 51bd ab95 533c
000000b0: e835 8abe 072f 05be c3d7 ca3d 630a f5bc
000000c0: 7208 3dbc eb28 75be d095 6c3c 8512 8c3d
000000d0: 58bd e13e 62f0 65be c365 c73d 786b f93d
000000e0: 7d37 1f3e b945 e23d cb78 17be e844 09bd
000000f0: 50d5 323d 7876 a3bc 3d82 94bd 0f45 9bbe
00000100: 75de 44be 31db 4ebd 5458 6c3d 7989 fb3d
00000110: 641c 9dbd 9e57 3ebe f91f 15ba 1f72 f2bb
00000120: efd1 67be 69a6 26be 7528 32be 41a0 313d
00000130: d7c3 a8bd f288 49be ef19 fdbd ac85 103e
00000140: 2842 8abd d5e5 1f3e 2495 28be 61cc d03c
00000150: 32ea e83d d693 19be d35c e03d c6c5 10be
00000160: 710a 683d bc83 73be 6a32 82be ec39 dc3c
00000170: 4cb8 9a3d 5974 4abe 831b b73d a355 4abe
00000180: 4114 333d 6a70 4fbe a377 80be eb24 2dbe
00000190: 2036 8c3c fc59 213e c39b 06be f53b 263d
000001a0: 2312 923d 428c 32bd 6439 ec3d 1b65 92bd
000001b0: f1fb 44be 15d9 70be 1b8e 30be ce79 51be
000001c0: 1993 853d 02f9 26be 4eec 96be 4607 06be
000001d0: 8717 05be 0230 9f3d c5bf 0fbc 31ef 94bd
000001e0: 048f a63d a244 81be 3df9 6ebe f4db 9ebe
000001f0: 7e65 91be e583 b8bc acb2 0a3d eed7 263d
00000200: c8b2 8fbd 8527 643e a912 943e fce5 55bd
00000210: 888a 9bbb 4a23 0fbd be68 523e f634 eb3d
00000220: c424 923e 355f 533e c903 423e 6f38 b83d
00000230: bf87 92bc 1b74 6c3d 58b5 8c3e 18b1 c63b
00000240: 6f3c 72bd 0269 4fbe 73c0 d83b 27cc 2d3e
00000250: a9cd d73b 4aaf 823e 9ac4 ce3c 5174 753e
00000260: 40b4 743e 02ae 553e 0117 f53d 3a1a 26bd
00000270: a4f6 8ebc 0012 513d 498b 0a3e bda1 683e
00000280: ead7 7d3c 7ab2 223d cc06 7d3d 23cc 713e
00000290: ef66 843e 090c 2c3e 3060 8cbd 10dd a4bd
000002a0: f7f5 8e3e 89f3 7a3e 2811 c73d e491 aa3c
000002b0: 8a81 343e 1f49 aa3e 01e8 e63d 204c b63d
000002c0: de47 48be deef 7f3e 62c7 463e 6dac 6fbd
000002d0: 8865 c7bc b622 a9be 5d8b 1c3e 39ec 14be
000002e0: b577 2a3e a89a 803e 74bf 883e 30fb 47be
000002f0: b7e4 053d 2d0b 66bd e63b 1a3e 83c3 1e3e
00000300: 89c7 273e 7afa 5cbe 0e21 01bd fac2 9b3d
00000310: 7485 033d 1e33 543e 37a9 953d 4816 023e
00000320: 799b 2d3e cbd5 4f3e f032 393e 5a7e 573d
00000330: 7cd5 cc3e 7402 9bbe aebd 403e 4bd5 a73d
00000340: a68e 2dbe 44ba 3e3d d53b 663d c73a b4bd
00000350: 22fc 543c e0c0 07be ae86 29be 4e30 0d3d
00000360: 32f6 d7bc 1b96 583e a146 823e 2fa6 9a3d
00000370: 0aa4 9b3d 46df dc3d f419 ab3c 4c3a 4a3e
00000380: 43af 943d b6c2 4bbe 18c4 743e b472 8e3e
00000390: 7a24 d03d dedc 07bb 1882 4d3e 16f5 febd
000003a0: 74e5 04be 38ca 5abd 3164 a7bc 385a 1c3e
000003b0: 6061 933e 305b eebe c42c 6a3e 73ee 6d3e
000003c0: 8663 96be f773 263e 92e0 233e 3b70 a5bd
000003d0: be49 0b3e 470c 08be a45f 303d d79d 1dbd
000003e0: 0d3d bebd 8bb2 4f3e 840e 4d3e d30d b3bd
000003f0: b140 25be b725 3bbd 5a95 97bd 98f7 d23e
-0.029855665 -0.2544442 -0.1493519 -0.023608245 0.12423479 0.05277873 -0.2864448 0.047396794
-0.20420368 -0.10919561 -0.116865955 0.10574158 -0.028720105 0.053504057 -0.2916064 0.014457124
0.16498147 -0.08709772 0.05791323 -0.21075985 -0.017630728 -0.13346455 0.085400425 -0.15659913
-0.1278899 -0.19513515 0.04641216 0.07777297 -0.12138739 -0.13768083 -0.024315132 -0.21514551
0.15870252 0.0038214962 0.13604696 -0.24517728 -0.26253548 0.17433947 -0.013733106 -0.045423724
-0.15607803 -0.15376744 -0.051057808 0.012914102 -0.26994252 -0.13006221 0.099044345 -0.02991218
-0.011537658 -0.2394139 0.014440015 0.0683947 0.4408977 -0.2245498 0.097362064 0.12178701
0.15548511 0.11048455 -0.14792173 -0.03351298 0.043660462 -0.019953951 -0.072514035 -0.30326125
-0.19225486 -0.050502006 0.057701424 0.1228208 -0.07671431 -0.18588111 -0.0005688663 -0.007398858
-0.22638677 -0.16274418 -0.17398246 0.04336572 -0.082404785 -0.19681147 -0.12358462 0.14113492
-0.067508996 0.15615018 -0.16463143 0.02548808 0.11372794 -0.14997801 0.10955205 -0.14137945
0.056650583 -0.23780721 -0.25429088 0.026883088 0.07554683 -0.19770946 0.08940794 -0.1975923
0.043720488 -0.20257726 -0.25091276 -0.16908614 0.017115653 0.15756983 -0.13145356 0.040584523
0.071323656 -0.04359079 0.11534384 -0.071481906 -0.19236733 -0.2352031 -0.17241709 -0.20456621
0.06522197 -0.16305926 -0.2947716 -0.13088712 -0.12997256 0.07772829 -0.008773749 -0.07272185
0.08132747 -0.25247675 -0.23337264 -0.31027186 -0.28397745 -0.02252383 0.0338618 0.04073327
-0.07016522 0.222807 0.28920487 -0.052221283 -0.004746739 -0.034945764 0.20547768 0.11484711
0.28543675 0.20641787 0.18946756 0.08995139 -0.017886994 0.057727914 0.27482104 0.0060635917
-0.059139665 -0.20254901 0.0066147386 0.16972409 0.006585796 0.2552436 0.025240231 0.23970152
0.23896885 0.2086716 0.11967278 -0.040552355 -0.017451592 0.051042557 0.13529696 0.22717948
0.015493372 0.03972099 0.06177406 0.23613028 0.25859782 0.16801466 -0.06854284 -0.08049977
0.2792203 0.24506964 0.09720069 0.02082152 0.1762754 0.33258912 0.1127472 0.089012384
-0.19558665 0.24993846 0.19411996 -0.058514047 -0.024340406 -0.33034295 0.15287538 -0.14543237
0.16647227 0.25117993 0.26708567 -0.19529414 0.032688823 -0.056163 0.15061912 0.1550427
0.1638471 -0.21579924 -0.031525664 0.07605548 0.032109693 0.20722625 0.07307666 0.12703812
0.1695384 0.202964 0.18085837 0.052610733 0.40006626 -0.3027531 0.18822357 0.08194979
-0.16948947 0.046564355 0.056209404 -0.088002734 0.012999566 -0.1325717 -0.16555282 0.034469895
-0.026362512 0.2115101 0.2544451 0.07551228 0.07599647 0.107847735 0.020886399 0.19748801
0.07259991 -0.19898495 0.23902929 0.27821887 0.10163207 -0.0020731012 0.20069158 -0.1244909
-0.12978154 -0.053415507 -0.020433517 0.1526879 0.2878523 -0.46553946 0.22868639 0.23235492
-0.29372805 0.16255175 0.16003636 -0.08078047 0.13602349 -0.13285933 0.04305996 -0.038480606
-0.09288988 0.20282952 0.20025069 -0.08742871 -0.16137959 -0.045690265 -0.074015334 0.41204524

decoder_lin.2.bias f4 [288]
00000000: 3e4d 6c3e 4e3b 65be 8ef7 673d b4ed e83d
00000010: c606 333e d547 eb3c 9c95 e43d f5be 113e
00000020: bab7 903d dc7c 2dbd 5808 2e3e 2aa8 d1bd
00000030: e9dd bdbd 972f 953c 63be 8d3d 0642 4abc
00000040: 22e4 6c3e 1b30 3ebe 1ee5 3d3c b024 4e3e
00000050: 83e1 913b ed08 3fbb 0627 b7bd 71d3 743d
00000060: 6fe9 cdbc 4cdc 083e cf51 173e 6959 2bbe
00000070: a93c 063e 7e52 383d 7ad5 a33d 6272 263d
00000080: 7f6a 183e 1194 ff3d 6ab2 423d f625 6c3e
00000090: 2443 483e bb09 953d 9d50 a5bd a95e a83d
000000a0: fc71 063e 30e2 0b3e a780 263e 57ea 19be
000000b0: 8a28 423e 6b06 9c3d 53f2 bb3d e5d8 ffbb
000000c0: 6cb5 ff3d 38df 06be 720a 9f3d a3f5 00bc
000000d0: 5189 a43d 2153 1d3e a962 f93b 565e 03be
000000e0: 8990 99bd 0c23 093e c8b7 1dbd 2e3a f63d
000000f0: e771 87bd b875 f4bd 27e0 9f3d aaad 27bd
00000100: 89f6 913d 2825 febd 6200 513d f28c df3c
00000110: bd5a 9f3e 7f85 3e3e a900 333e b23d 803e
00000120: 3dc6 4ebd 7b0b e2bc 77c2 d9bd c802 26be
00000130: 8e91 113e 2bf3 4e3e bfaa bcbd 3614 143e
00000140: d983 443e 94d4 b6bc 5508 463d 1e18 173e
00000150: 61ad b13d 1fc5 f43c 0a7d ec3d 6817 f8bd
00000160: a85d 6ebd 7a61 4cbe d986 5c3e 6a5d 5f3c
00000170: b6e9 863d 1841 613d f3a0 2c3e 23ba 313e
00000180: c999 183e 3b29 2cba e517 68bd 302a 32be
00000190: f782 c43d dca2 093e 888d 473d 1bad babe
000001a0: 0816 df3d 384f 303d 19a5 1c3c 70d4 ff3d
000001b0: 1d82 b23c 36f9 db3d 10bc d0bd 6fb4 933d
000001c0: 8c46 1a3e eff0 a83d 755f ac3c 1a80 283d
000001d0: acad e8bd 2bca a83c 0aae e93c fe56 18be
000001e0: b10f 803d a948 eb3d 2b5a 7abc 6d5f f73c
000001f0: 0d08 90bd b674 143e fb40 e3bd 3e15 163e
00000200: 3fdc 4dbe 1787 80be 3a9b a1bd 0d95 81be
00000210: 7fb0 8b3d cce1 223d b2b1 20bd 7522 c43d
00000220: d9f4 073c a9b2 513e 2149 b53c 6a40 4b3e
00000230: f42e f53d e1cf 263d b698 a33d d81c 9abc
00000240: 17cf ccbd 07a3 4f3d 7873 8ebc 2dae 893d
00000250: ece9 08be 04ab b4bd 094a 98bc 4c83 c739
00000260: d3c5 1ebb b722 f43d 0aff 753e 958f d4bd
00000270: 44ab 893d e1c6 163e b82b 143e 4a7b 953d
00000280: f706 363e 34f4 0b3e 8c6d 553e a69a 293d
00000290: 71d4 ec3d 8a48 1c3e 88f8 763d 3d8f ae3d
000002a0: e754 d83d ecbb 983c 1666 933b 92c9 01be
000002b0: 8cf8 eebd 1fc4 c13d 0f4d 273c 31e9 293e
000002c0: 8cda bd3d 4cf8 98bd 41a5 783e afe3 d4bc
000002d0: 565c e83d b743 ff3d 3832 53be 863b 603e
000002e0: e61d cc3a 3dc6 7bbd 93c4 793e 60ea c03c
000002f0: 6f42 473e c832 71bc 8ffd 51be 0a4d 54be
00000300: f353 c63d 5ca4 e03d c030 a53d 264b 063e
00000310: e914 6d3d 36ac 2e3d 6bc5 b7bc 4dbd 673d
00000320: 8dcd 03be 5104 13be 0bc5 a03e e7d3 21be
00000330: 4f4e 323d c826 8bbd 181b 82bd 2429 0d3d
00000340: 0cfa 66be 6fe7 86ba 809b c03d c814 283e
00000350: 186c 26be 1471 5a3a f03e b0bd 2087 9e3d
00000360: a414 eabd 6633 f6bd 7cfd 85bd e134 773c
00000370: 3bd4 d53d 606b 30be f637 c63d 3524 0b3c
00000380: bff9 4dbe 9bae ad3c 49fa c13d 6465 46bd
00000390: d09d 5d3e 20a6 a73d a46e eabd 4a58 183e
000003a0: f059 783d be26 0b3e e4c7 083e 75bf 203e
000003b0: 7e3e 8fbd 7b42 fb3d e967 be3d 7558 003d
000003c0: 8dbf b93d 2335 3bbe 390b c93d 7cf8 943d
000003d0: 7b21 bfbd f034 913e 9a97 b83b f5cc 983d
000003e0: bc87 393d 72ff bc3d bfe4 1f3e 3adc c3bd
000003f0: f42b 20bd 4a8c 0f3d ff14 263e 9563 b63c
0.2307634 -0.22385904 0.05663257 0.11373463 0.17483053 0.028720776 0.11161348 0.14233
0.07066293 -0.042355403 0.1699537 -0.10237153 -0.09270842 0.01821117 0.06921079 -0.012344843
0.23133901 -0.18573038 0.01159027 0.20131183 0.004451932 -0.0029149607 -0.0894299 0.05977196
-0.025135724 0.13365287 0.14777301 -0.16733326 0.13109078 0.045000546 0.07999702 0.040636428
0.14884375 0.12479413 0.04753343 0.23061356 0.19556862 0.072772466 -0.080720164 0.0822118
0.13129419 0.13660502 0.16260014 -0.150308 0.18960777 0.07618412 0.09177079 -0.0078078383
0.12485775 -0.13171089 0.07765664 -0.007871064 0.080340035 0.15363742 0.007610638 -0.12828955
-0.07498271 0.13392276 -0.038505346 0.12022816 -0.06613522 -0.119365156 0.078064255 -0.040937103
0.07127101 -0.12409431 0.051025756 0.027288888 0.31123915 0.18605612 0.1748072 0.2504707
-0.050482024 -0.027593365 -0.10632794 -0.16211998 0.14215681 0.20209949 -0.09212255 0.14460835
0.19190921 -0.022318162 0.04834779 0.14755294 0.086756475 0.02987915 0.11547287 -0.121138394
-0.058194786 -0.1995906 0.21535815 0.0136331115 0.065875456 0.05499372 0.16858272 0.17356162
0.14902414 -0.0006567423 -0.056663413 -0.17398906 0.09595292 0.13441032 0.04871896 -0.36460194
0.10892874 0.0430443 0.009560847 0.12491691 0.021790558 0.107408926 -0.1019212 0.07212149
0.15065974 0.082490794 0.021041611 0.041137792 -0.1136125 0.020604214 0.028525371 -0.14876935
0.06252993 0.11488468 -0.015280287 0.03019687 -0.070327856 0.14497647 -0.110963784 0.14656541
-0.20103548 -0.25103065 -0.07890935 -0.2530903 0.06820773 0.039766118 -0.039231963 0.09576885
0.008298122 0.2047831 0.022129597 0.19848791 0.11971846 0.040725593 0.07988112 -0.018812582
-0.10000437 0.050692584 -0.017389044 0.067226745 -0.13370484 -0.08821681 -0.01858999 0.00038054062
-0.00242268 0.11920684 0.24023071 -0.103789486 0.067221195 0.14724304 0.14469802 0.07298906
0.17776094 0.13667375 0.2084257 0.04140725 0.115639575 0.15262046 0.06029561 0.08523414
0.10563069 0.018644296 0.0044982536 -0.12674549 -0.116685 0.09461235 0.010211243 0.16592862
0.092702 -0.07469234 0.2428179 -0.025987474 0.11345737 0.124640875 -0.20624626 0.21897706
0.0015572875 -0.06146835 0.24391393 0.023549259 0.19458936 -0.01472158 -0.20506881 -0.20732513
0.09683981 0.10968849 0.08065939 0.13114604 0.05788127 0.042644702 -0.022433003 0.056577016
-0.1287138 -0.14357115 0.31400332 -0.1580349 0.043531712 -0.06794506 -0.06352824 0.034463063
-0.22556323 -0.0010292361 0.09404659 0.16414177 -0.16252172 0.000833289 -0.086057544 0.07740617
-0.11429718 -0.12021522 -0.06542489 0.015088291 0.104408704 -0.1722846 0.096786425 0.008492519
-0.20114802 0.021201422 0.09471566 -0.048436537 0.21642232 0.08185983 -0.11446884 0.1487743
0.060632646 0.13588998 0.13357502 0.15698035 -0.06994341 0.122685395 0.09297163 0.03133436
0.090697385 -0.18281989 0.09816594 0.07273957 -0.09332558 0.283607 0.0056333067 0.074609675
0.045295462 0.0922841 0.15614603 -0.09563489 -0.039104417 0.0350459 0.16218947 0.022264281

decoder_conv.0.weight f4 [32, 16, 3, 3]
00000000: b1e9 5c3d c611 4d3d fe86 a2be fccb 8fbd
00000010: a4f2 1b3e a5ca bbbb f803 af3c 048b f63d
00000020: 49b1 e1bd 6f1b ffbb 045d 91b8 f47b 5abc
00000030: 40e5 c0bd b67e 473e 2bad 213e e6d5 8d3d
00000040: 173c ab3c cce0 8bbd 31e5 46be d55e 45bd
00000050: 504b 8bbc 8590 68bc c7c8 353e ba1f a43d
00000060: 43ce 14bd aa65 1d3e 41d3 8e3d db37 913c
00000070: 6aca a3bc 5162 6bbd f2f5 df3c b3d7 2bbe
00000080: 9767 053c b125 a73d 4045 10bd 32b9 003e
00000090: a5a7 69bc aac6 dcbd c324 9f3c 7a21 9b3b
000000a0: c5ce 0ebe 476e 84bd 11e7 d0bd aae5 5cbd
000000b0: f5c3 93bc 31c2 6d3d 8142 dd3c 9f92 33be
000000c0: 0fad e8bd 133c babe e7a9 38be c84d 0ebe
000000d0: edd2 56be 11cd 893d f3fb c93d 5cfd 3d3d
000000e0: 7caa cfbd c0a7 a6bd 8d63 17bd 5b17 a33d
000000f0: cc0c 4e3e aefa 5bbb 0bbc 56bd fdc6 883d
00000100: 63bd cfbd df8b 17be da1a c4bd ef68 64bd
00000110: d249 b7b8 7418 14be a0d7 cabd 186f 88bd
00000120: 7a76 54bd dfb1 a73a c353 1d3e 9d2e 223e
00000130: bcad c43d b7f9 823c 8156 323e 9bf0 493e
00000140: 14b4 123e 17c5 b1bd b042 5abc 6b9d 213e
00000150: de20 4b3d 52f2 1abf 8a35 3bbd 0404 b53c
00000160: 770c 2b3d 73bb 28be 74b3 57bc 3fdf 523d
00000170: df52 d9bd 1e92 fe3b edc3 82bd ee9b 863c
00000180: 75c0 f7bd bc73 253e c2e8 903d db93 803e
00000190: ba54 45bb 71ce 443e 63ae 003e 8a5e a4bc
000001a0: 203d 02be bcb7 383d e2a5 04be f3a3 43be
000001b0: fd27 a33d 6ad6 16be 2e2f 86bc 5f5f 4c3d
000001c0: 1749 41bd 9939 7b3c 39ff 7f3e 294f 353d
000001d0: 4e86 9bbc 3550 0bbd a1f0 5fbe 9478 afbd
000001e0: 2e78 143e 2330 31be ad23 8fbe 97a4 ca3c
000001f0: 39e6 dfbc d801 98bd 826c b2b9 37dc b03d
00000200: 2c05 2b3c 6eb8 11be 6865 9bbe 0aaa 86bc
00000210: 474a 9cbd c586 96bd c182 07be 6a40 96bd
00000220: 5764 073e 44d6 0d3e 59a7 f93d dd5f 85bd
00000230: ea78 8abe 7da6 083d a152 e5bd 9abf 863c
00000240: 041e 7fbe fe1a 563d 3ef2 cd3c c84b 0dbd
00000250: c437 db3c 2a1d 52bc 176c 9c3d 6eb4 283d
00000260: c999 de3b 1d82 dabd bf2a 2abc 76e0 d7bd
00000270: f908 ebbb ba3e 0fbd 674b 1cbd 4713 a9bd
00000280: 304b 85be b68c a1bd 1686 df3d d98b 183e
00000290: d2d6 38bd 1c9c 52bd 3392 b13b 48a2 42be
000002a0: f02d b5bc 36b6 8ebd 1615 04bc 2e78 9abe
000002b0: 3637 2b3c b413 bebb 732f f13c 0018 0bbe
000002c0: 7ef7 3e3d acf9 89bb 9bce 42bc 6d27 babc
000002d0: 43b0 27bc 44df 8ebd 1961 c13d 713d 813d
000002e0: f4ad 06be 981c 6e3d 3457 cb3d 199f 4ebe
000002f0: f8a2 27bd 6549 ffbd db38 dc3d ab52 26be
00000300: eeef 683d d224 433d aa7e 7c3d fe00 0abd
00000310: c6f7 4ebe 6133 7cbc df9b de3d 8025 32bd
00000320: 3747 58be 271c 283d a689 9d3d 0646 39be
00000330: 9b64 273e 1f4f afbd c9e0 3ebe c9f3 a63d
00000340: e631 94b9 23a7 3fbd f3de 3bbd 8178 023e
00000350: 1b67 8d3a bb76 00bd e912 5fbe 7a35 29be
00000360: aea4 1d3e 5a6b 213e aa5f b0bc 9279 193e
00000370: 1057 7d3c 1884 fcbb feb8 353d 1d89 cdbd
00000380: 08d5 ae3c 2918 6fbe 63ab e3bc 555c a1bd
00000390: 7ace f2bd af64 d2bd d158 a53c 9c0e d9bd
000003a0: d589 a6bc 1504 80bd dec6 a3bd edf3 97bd
000003b0: 9bf1 55bc 2872 c9bd ad7c bc3d 1a4d 5dbd
000003c0: cfd3 883d a74f c7bb baa8 8b3a 5a74 a9be
000003d0: 20dd 6c3c f55a a0bd 8bbc 973d f626 23be
000003e0: dfb7 30be 7e97 853d d614 d8bd 83d4 123b
000003f0: 2285 113d dcf1 96bd c570 3ebe 6553 7dbd
0.053933803 0.05006578 -0.31743616 -0.07021329 0.15229279 -0.005730944 0.021364197 0.12038234
-0.110201426 -0.0077852528 -6.931464e-05 -0.013335217 -0.09418726 0.1948193 0.15788715 0.069255635
0.020902677 -0.06829986 -0.19423367 -0.048186142 -0.017003685 -0.014194612 0.17752372 0.08013864
-0.03632952 0.15370813 0.06973887 0.01772683 -0.01999398 -0.05746681 0.027338956 -0.16781501
0.0081423735 0.08161486 -0.035222292 0.12570646 -0.014261161 -0.1078008 0.019426709 0.0047342153
-0.13946064 -0.06466346 -0.102003224 -0.053929962 -0.018037776 0.058046523 0.02700925 -0.175364
-0.11361133 -0.36373958 -0.18033563 -0.13896859 -0.209789 0.067285664 0.098625086 0.0463842
-0.10139939 -0.081374645 -0.036960173 0.07963439 0.20122069 -0.0033566165 -0.052425425 0.06678579
-0.101435445 -0.1479945 -0.09575434 -0.055764135 -8.73987e-05 -0.14462453 -0.099044085 -0.066618145
-0.0518708 0.0012794099 0.15363984 0.15838094 0.0960345 0.015988214 0.17415811 0.1972069
0.14326507 -0.0868017 -0.013321564 0.15782706 0.04959189 -0.60526 -0.045705356 0.022096641
0.041759934 -0.16477756 -0.013165344 0.051482435 -0.106115095 0.0077688834 -0.06385026 0.016431775
-0.12097255 0.1615743 0.07075645 0.25112805 -0.0030110315 0.19219376 0.12566523 -0.020064611
-0.1271863 0.045097098 -0.12953904 -0.1910551 0.079666115 -0.1473023 -0.016379919 0.04989564
-0.047188845 0.015333557 0.24999703 0.044264946 -0.01898494 -0.03401204 -0.21869136 -0.0856792
0.1449897 -0.17303519 -0.27956906 0.024736686 -0.027331458 -0.07422227 -0.0003403165 0.08635753
0.010438245 -0.1423051 -0.30350804 -0.016438503 -0.07631355 -0.07349924 -0.13233472 -0.07336505
0.1322187 0.13851267 0.12190122 -0.06512425 -0.27045375 0.0333619 -0.11197401 0.016448785
-0.24913794 0.052271836 0.025139924 -0.0344961 0.02675999 -0.012824336 0.07637804 0.041187696
0.006793235 -0.106693484 -0.010386168 -0.105408594 -0.0071727005 -0.03497193 -0.038157847 -0.0825563
-0.26033926 -0.078881666 0.10914247 0.14897098 -0.045126744 -0.05141841 0.0054190396 -0.19007218
-0.022116631 -0.06968348 -0.008061668 -0.30169815 0.010450175 -0.0058006886 0.02944157 -0.13583374
0.046622746 -0.0042106714 -0.011890079 -0.022723878 -0.010234895 -0.06976178 0.09442348 0.06310547
-0.13152295 0.058132738 0.09928742 -0.20177878 -0.040926903 -0.12465171 0.10753032 -0.16242473
0.05686944 0.047642536 0.061644234 -0.033692352 -0.20211706 -0.015393109 0.10869574 -0.043492794
-0.21120916 0.041042473 0.0769227 -0.18093118 0.16346972 -0.08560013 -0.18640436 0.08151967
-0.00028265937 -0.046790253 -0.045866918 0.12741281 0.0010788174 -0.03136323 -0.21784557 -0.16524306
0.15394852 0.15763608 -0.021529991 0.14987782 0.015462652 -0.0077061765 0.044365875 -0.10035918
0.021341816 -0.2334906 -0.027791684 -0.07878939 -0.118557885 -0.1027311 0.020183953 -0.1059849
-0.020329395 -0.062507786 -0.07996915 -0.07419572 -0.0130580915 -0.09836227 0.092034675 -0.054028608
0.06681024 -0.0060824933 0.0010655143 -0.33096582 0.014457017 -0.07829849 0.074090086 -0.15932831
-0.17257641 0.065230355 -0.10550849 0.00224045 0.035527356 -0.0737035 -0.18597706 -0.06184711

decoder_conv.0.bias f4 [16]
00000000: 8048 9cbe f14a 2b3e 086b 653e d2d2 2dbe
00000010: 2d70 7dbe 343e a4bc 2a40 9a3d d14b 733d
00000020: e49d 223e 8966 58be 7aa0 1b3d 7d50 5a3e
00000030: eaf2 933e 1cc7 6b3e 7524 bebd c309 f33d
-0.30524063 0.16727807 0.2240411 -0.16974953 -0.24749823 -0.020049192 0.075317696 0.059398476
0.15880543 -0.21132864 0.03799484 0.21319766 0.28896266 0.23025173 -0.092842974 0.11867096

decoder_conv.2.weight f4 [16, 8, 3, 3]
00000000: 3553 143d 6c10 243e 7116 cf3d 24cb 0c3e
00000010: c95b f83d d46f 5abd 4bba f03d 7ad0 353d
00000020: 4636 16be 60e3 f6bd a2be 49be 5b7e 863d
00000030: 3489 82bd 0c12 a8be c73a b63c f8b4 2bbd
00000040: bf53 b5bd e88e a7bd d6b1 c1bd 027f c33d
00000050: 3c56 573e 0b61 56be 8a0a a73d 68ff 8b3e
00000060: d51e b0bb a19b 24be c22a 823e c81d 61be
00000070: 9824 99be 5868 24bd fdce 7ebe 294a 7cbe
00000080: 0a80 e7bd 2c01 2fbe df92 53be a36c 123d
00000090: 0cf1 843d aa02 143e 8090 163e 2c08 0b3e
000000a0: 600c 8a3e 9d94 6a3e 5608 ce3d c390 683e
000000b0: fff7 803d 6275 c63d 5d59 42bd 92dc 79be
000000c0: a540 333e fad9 61bd 5c8e 9dbe 9950 3d3e
000000d0: 7358 633c d85d f2bb f8ff 01be b70c 3bbd
000000e0: 245b 833d 3ddc fabd 5baa e3bb 5dbb 8d3d
000000f0: 8e39 b8bd 3412 19bb bf0d 743d a6ba a93d
00000100: 61a4 383e 1033 4e3e cb15 fa3d 83d2 553e
00000110: 6bc3 303e 3353 56bd 4406 be3d 7fcb e23c
00000120: 5e1b 4abe 1e03 efbe e742 69bd 79ea 43be
00000130: 532c a3be 5561 03be 2a6c 30bd 7f19 bdbd
00000140: 4b83 79bc b25d 4d3e d80d 593e 91b3 24bd
00000150: 3170 ffbc a508 de3d 36d9 29be 7fe4 1e3d
00000160: 460b 58be 1d7f 343d 32c8 92bd 5e6c 7b3b
00000170: e102 75be 39f2 b9bd 9011 02bc e013 9abd
00000180: 0ffc a1bd 6467 a13d a7d0 aabd 6c38 2e3e
00000190: 92d5 533e 31c2 873d 71a5 2c3e 8f76 fd3d
000001a0: efac d43d 3a6d 08bd 68ea 253e 9333 00be
000001b0: e2dc ddbd eaba 70be fdce 2cbd 1689 2dbe
000001c0: 2ee4 cfbe 05a3 27be d36b 63bd ae0d 82bd
000001d0: cb7b 64bd c906 5bbe 0507 4f3c 1e04 153e
000001e0: c4d1 a5be bce5 64bc a791 793e 7c15 18be
000001f0: 830a 193d 97fd 4c3e d5e8 063e 6e8a a33d
00000200: 9ce1 f5bb ffc2 24bc 837b 41bd da62 cebd
00000210: a794 143d 44e6 c6bc 678c b5bd c084 0bbe
00000220: 6286 a7be 6556 4abe 9997 22bc abe7 a6bd
00000230: 638f e8bd 6da9 433d 9610 23bd 388f 96bd
00000240: c2d0 853d 0037 ddba 7a28 003c 3c8e 8ebd
00000250: 7c0d 80bc 5e1a a43d f4e2 b1bd 5100 eb3d
00000260: 8c6f 283e 496d 03be be18 a8bc 357d d9bd
00000270: 3ca7 0c3e ab17 36be 4d47 8ebd eeb0 e03d
00000280: de06 1dbe 802f 083d c96e 813d c697 a13c
00000290: 9a80 7c3d 31d6 fd3c fe3b c53d 9326 083e
000002a0: 9fa0 cdbd 864b 393e 0375 013e 9003 98bd
000002b0: 0e37 67be 3388 b9bd 3691 ddbb b547 18bd
000002c0: e94d 6fbe c3d5 c53e 94d8 d83d fcab 5cbe
000002d0: 552e bc3c 8760 cebc 6f0f a9bc c127 01be
000002e0: b35b ecbd cf1e a83c 3461 05be 107a 0ebe
000002f0: ee96 aabc c21b 693d d661 fb3d 84c3 ca3a
00000300: 9f08 b13d c1a9 f73e 50d0 803e 4164 6a3d
00000310: 69e5 103f 02ae 853e f25a e3bd 844d 62be
00000320: 5fe7 23bd d041 af3d 0ee1 f3bd 3f1a dfbd
00000330: fac1 0c3e 3fa7 2ebe ff9c 37bd 9afb 043d
00000340: 1016 eabc 800c a1b8 0753 c6bd 4001 e7be
00000350: 10b1 09be 0e22 a8bc 04e3 a9be bf6e 99bd
00000360: 155e 04bd e81f d53d e2aa c83c 11c2 993d
00000370: 82b3 283e 8782 dbbc 5f7e 203e f955 713c
00000380: bf33 f9bd 5572 cdbd c6e9 75bd 748d 3c3e
00000390: bafb f6bc 447b a9be 8bc9 61be 5ff0 b0bd
000003a0: b24f 2ebe 709e a4be 1976 ffbd 8d0a 103d
000003b0: 99e4 533e 7a44 efbd 7b7b d53c af49 063e
000003c0: bcd2 41be 1970 ecbd 0372 323e 56ea a6bd
000003d0: 6c65 b9bd aedf a2bd 6a5b 07be bad4 93be
000003e0: af32 28bd 0cfb 1abe 7b6d a7be 7cba cc3d
000003f0: f9c6 b73c f3bd 9e3d 49a7 b93d 46c0 553d
0.036212165 0.1602189 0.10111702 0.13749367 0.12126882 -0.053329304 0.117542826 0.044388272
-0.14669141 -0.12055087 -0.19701627 0.06567069 -0.06373826 -0.3282627 0.022244824 -0.041920632
-0.08853864 -0.08181554 -0.09457748 0.09545709 0.2102899 -0.20935456 0.08156307 0.27343297
-0.005374769 -0.16074993 0.25423247 -0.21984017 -0.2991073 -0.040138572 -0.24883647 -0.24637665
-0.113037184 -0.17090291 -0.20661496 0.035748135 0.064912885 0.14454141 0.1470356 0.13577336
0.26962566 0.22908254 0.10060184 0.22711472 0.062973015 0.09690358 -0.047448505 -0.24400547
0.17505129 -0.05513952 -0.30772674 0.18487777 0.013876068 -0.007396441 -0.126953 -0.045666423
0.06413868 -0.12249038 -0.006947798 0.06920502 -0.08995353 -0.0023356797 0.05958342 0.082875535
0.18031456 0.20136666 0.12211188 0.20881085 0.17262046 -0.05232544 0.09278539 0.027684925
-0.19737002 -0.46682066 -0.05694857 -0.19132413 -0.31869754 -0.12830098 -0.043071903 -0.092333786
-0.015229057 0.20055273 0.21196687 -0.04021031 -0.031181427 0.108414926 -0.16586766 0.03879213
-0.2109805 0.044066537 -0.071670905 0.0038364152 -0.2392688 -0.090794034 -0.007938758 -0.07523322
-0.079094045 0.07881048 -0.083405785 0.1701371 0.2068694 0.06628836 0.16859986 0.12376129
0.10384547 -0.03330729 0.162027 -0.12519674 -0.10833146 -0.23508802 -0.042189587 -0.16946825
-0.40603775 -0.16370781 -0.05552275 -0.063502654 -0.05578212 -0.21389307 0.012635951 0.14552352
-0.323866 -0.013970789 0.24371968 -0.14851946 0.03736354 0.20018612 0.13174756 0.07985388
-0.0075037014 -0.010056256 -0.04723693 -0.10077448 0.03627458 -0.024279721 -0.0886467 -0.13624859
-0.32719713 -0.1975952 -0.009923839 -0.08149656 -0.11355474 0.047769 -0.03981074 -0.073515356
0.06533958 -0.0016877353 0.00782215 -0.06960723 -0.01563143 0.08012842 -0.08685866 0.1147467
0.16448802 -0.12834658 -0.02051961 -0.106195845 0.1373567 -0.17782466 -0.06947193 0.10971247
-0.15334651 0.033248425 0.06319959 0.019725692 0.06164608 0.030985923 0.09630583 0.13295965
-0.10040402 0.18095216 0.12642293 -0.074225545 -0.22579595 -0.09059181 -0.0067616953 -0.03717776
-0.23369564 0.3863965 0.10588184 -0.21549982 0.022971312 -0.025192512 -0.020637242 -0.12612821
-0.11540928 0.020522503 -0.13025361 -0.1391375 -0.020823922 0.056911238 0.1227452 0.0015469645
0.086442225 0.483717 0.2515893 0.057224516 0.5660005 0.2610932 -0.11101331 -0.22099882
-0.040015575 0.085574746 -0.1190816 -0.10893678 0.13745871 -0.17055987 -0.044827458 0.03246651
-0.028574973 -7.6794066e-05 -0.09683805 -0.4511814 -0.1344645 -0.020524051 -0.33181012 -0.07491826
-0.032316286 0.10406476 0.024495546 0.07507718 0.16474727 -0.026795639 0.15673207 0.01472997
-0.12168073 -0.10031573 -0.060037397 0.18413335 -0.03014933 -0.33101857 -0.22049539 -0.08639597
-0.17022589 -0.32152128 -0.12473697 0.035166312 0.20692672 -0.11682983 0.026059857 0.13114046
-0.18928045 -0.115448184 0.17426305 -0.08150165 -0.09052548 -0.0795282 -0.13218465 -0.28873235
-0.04106396 -0.1513483 -0.32700714 0.099965066 0.022433745 0.07751074 0.0906511 0.05218532

decoder_conv.2.bias f4 [8]
00000000: 0524 babe 6706 323d 1564 d8bd 92dd 363e
00000010: f757 87be bbb5 a83d fd9a 62be 66fd 31be
-0.36355606 0.043463137 -0.10565964 0.1785796 -0.264343 0.08237787 -0.22129436 -0.1738182

decoder_conv.4.weight f4 [8, 1, 3, 3]
00000000: fe86 c7be 5685 c8be cd1a 6fbd 7489 cebe
00000010: da44 10be c06a 403e c898 30bd 1bb2 573e
00000020: 53d2 6e3e 7b8f 57be 627e a4be 82a3 74be
00000030: 9baa d6be c18f 0dbf 8f03 acbe a236 8ebe
00000040: e640 a6be d569 20be 5e69 0d3e 35c0 e93d
00000050: 4d0c 133e 4620 933e 0991 683e c12b 923e
00000060: 91e2 4d3e 3615 473e 34ea 343e 2481 0cbe
00000070: ff6c acbe e832 2cbe facb bbbe e289 30bf
00000080: ebf0 79be a96c 53be 858f a1be 7664 39bd
00000090: a8b6 fb3d a197 d43e aa60 993e 219a 5e3e
000000a0: 97e2 233f fc9d d03e 6c97 a8bd fe56 d43b
000000b0: c288 bd3c 9a48 a5bd 6492 bebe fa50 97be
000000c0: caa4 89be ae5d 4cbf 19f0 14bf dce3 4ebe
000000d0: 0b4a 00bf 3b24 adbe f9bc e63c af86 1abe
000000e0: 1794 5fbe 1a5e 893e 8c38 4f3b b3b0 9dbe
000000f0: c602 f03b 1388 adbe f409 b8be 8c19 343e
00000100: 0a1e d53d 0c3f 06be 9277 913e 2431 1c3e
00000110: 366e 37be 2a1e af3e 8458 cd3e 9756 783d
-0.38970178 -0.39164227 -0.05837517 -0.40339243 -0.14088765 0.18790722 -0.043114454 0.21064036
0.2332242 -0.21050827 -0.32127672 -0.23890498 -0.41927037 -0.55297476 -0.33596465 -0.27776057
-0.3247139 -0.15665372 0.13809726 0.11413614 0.14360161 0.2873556 0.22711577 0.28549007
0.2010596 0.19441685 0.17667466 -0.13721138 -0.33676907 -0.16816294 -0.3667906 -0.6896039
-0.24408309 -0.2064692 -0.3155481 -0.045261823 0.12290698 0.41521934 0.2995656 0.21738483
0.64017624 0.40745533 -0.082320064 0.006480097 0.0231365 -0.08070488 -0.37221062 -0.29553968
-0.26883537 -0.79830444 -0.5817886 -0.20204109 -0.5011298 -0.33816704 0.028166281 -0.1509044
-0.21833836 0.26829606 0.0031619398 -0.30798873 0.0073245494 -0.3389288 -0.35945094 0.1758787
0.1040612 -0.13109988 0.28411537 0.1525312 -0.17913136 0.342027 0.40106595 0.060629454
