weights/decoder_weights_05302023b.pth (torch, 177671 bytes, 9 tensors)

decoder_lin.0.weight f4 [128, 4]
-0.45990834 -0.38656035 -0.09540146 -0.34651527 0.09950086 -0.50279975 -0.70949095 0.41050342
-0.0041229674 0.07211376 0.59151775 0.43815923 -0.11783014 -0.23730327 -0.028435502 -0.21978296
0.07401238 -0.3673396 -0.5220123 0.30933213 0.06904308 -0.3546685 -0.46437007 0.25945854
-0.2952934 -0.6659331 -0.54040956 -0.33450595 0.09630582 -0.5392376 -0.75572795 0.4365494
0.013260671 0.3681216 0.14888886 0.07413951 -0.29042542 0.19427685 -0.075460956 -0.29157436
-0.0704201 0.17356671 -0.13472848 -0.3435696 0.08067151 -0.37053993 -0.5359924 0.31041515
0.013340307 0.16218533 0.2504015 -0.15133712 0.119796164 -0.36694893 -0.5577441 0.35027862
-0.54702455 0.3992759 0.24329205 -0.08775279 0.39963624 -0.27924865 0.45441613 -0.22393012
0.101769514 -0.5210998 -0.75148195 0.44001377 0.09406675 -0.5225798 -0.73120755 0.41991606
0.103081524 -0.50106525 -0.7055233 0.41659424 0.07406891 -0.37660125 -0.53153783 0.31240684
0.26034975 0.3315384 0.32534555 0.10609182 0.040316585 -0.117778964 0.27698576 -0.31307128
-0.21981694 -0.111642115 0.09991251 -0.43463862 0.074735895 -0.35207075 -0.50556445 0.29065987
0.6950046 0.041292403 0.12578449 -0.27233607 -0.17409988 0.08409077 0.21440372 -0.33986434
0.11205453 -0.4612368 -0.65346736 0.38718733 -0.45203084 -0.57032585 0.2807312 -0.43761417
-0.9303311 0.118898846 -0.049210947 -0.02603148 -0.16961108 0.06688303 0.2823311 -0.30754316
0.075775154 -0.40695167 -0.57226694 0.3333824 0.09650348 -0.5260395 -0.72726715 0.4169485
0.33382475 0.3943853 0.25806785 0.18628405 0.09265406 -0.49427098 -0.69213444 0.39925325
0.7458427 -0.6158934 0.24388304 -0.4880743 -0.16448076 -0.57444054 0.6947886 0.3188923
-0.04966144 -0.014479298 0.31286868 0.01295523 -0.3079307 0.28093305 0.08446437 0.18537688
-0.27897686 -0.5226967 0.18761137 0.93972933 -0.6560985 0.28818643 0.2657471 0.3302633
0.059594158 0.029561559 0.26602152 -0.21689232 0.093649216 -0.4520799 -0.6462231 0.3850162
0.22348621 0.18299705 -0.0031282452 0.23836422 -0.5143869 0.5589178 -0.23060258 -0.08753011
0.095384836 -0.51706654 -0.72169644 0.42091635 -0.11934316 0.3331746 0.15307017 0.2815914
0.074945204 -0.20426108 -0.37744185 0.23606364 0.45007232 0.38439995 -0.15499437 -0.019527216
-0.6372116 0.08940636 0.014980758 -0.22160058 -0.31409594 0.2793368 0.10692847 0.6574224
-0.36753193 -0.79884636 -0.21878934 0.22277875 -0.33928335 0.3792834 -0.3712445 -0.46904168
0.45283058 0.34142956 -0.14786969 -0.32544202 0.08756642 -0.43356952 -0.6110776 0.3528622
0.7564567 -0.01408466 -0.78195447 -0.19650885 0.03873176 -0.12728089 0.60068446 0.08441008
0.82408124 0.2163396 -0.4984319 0.45142457 0.06836818 -0.34956682 -0.49513105 0.28248093
0.06774826 -0.28242946 -0.4142876 0.24580061 -0.5417332 -0.26114145 0.49653894 0.2034082
-0.01023565 -1.011066 0.36791685 0.41461337 -0.3111489 -0.12677266 0.347385 -0.28314438
-0.2850581 -0.274997 0.2706178 -0.050944056 0.29689983 -0.7321179 -0.85404825 -0.088782825
00000000: 1b79 ebbe 3deb c5be d761 c3bd 736a b1be
00000010: 1bc7 cb3d 7cb7 00bf 33a1 35bf 812d d23e
00000020: f519 87bb 61b0 933d b56d 173f 6856 e03e
00000030: ee50 f1bd a1ff 72be 92f1 e8bc c90e 61be
00000040: cd93 973d f013 bcbe 99a2 05bf c860 9e3e
00000050: 7566 8d3d 1c97 b5be eac1 edbe c0d7 843e
00000060: b230 97be 977a 2abf 4858 0abf 5d44 abbe
00000070: fc3b c53d 7a0b 0abf 6377 41bf 6783 df3e
00000080: 4943 593c 6f7a bc3e 5276 183e 75d6 973d
00000090: a4b2 94be 83f0 463e 468b 9abd 3c49 95be
000000a0: 6a38 90bd 79bb 313e 43f6 09be 5be8 afbe
000000b0: 1b37 a53d 69b7 bdbe cc36 09bf bcee 9e3e
000000c0: 4e91 5a3c e913 263e a034 803e 1ef8 1abe
000000d0: b157 f53d bbe0 bbbe 51c8 0ebf b857 b33e
000000e0: cd09 0cbf e46d cc3e 8d21 793e bcb7 b3bd
000000f0: 1f9d cc3e aef9 8ebe 3ba9 e83e f04d 65be
00000100: 896c d03d cc66 05bf 1f61 40bf 7c49 e13e
00000110: 11a6 c03d cac7 05bf 6b30 3bbf 3dff d63e
00000120: 681c d33d d045 00bf 2d9d 34bf d74b d53e
00000130: 71b1 973d e1d1 c0be dd12 08bf caf3 9f3e
00000140: 904c 853e 67bf a93e b193 a63e ab46 d93d
00000150: 0123 253d 1936 f1bd 14d1 8d3e e14a a0be
00000160: b117 61be 9fa4 e4bd ee9e cc3d f488 debe
00000170: 220f 993d 9e42 b4be ac6c 01bf 5fd1 943e
00000180: d2eb 313f 3922 293d a6cd 003e a26f 8bbe
00000190: 3d47 32be c837 ac3d a68c 5b3e b302 aebe
000001a0: d87c e53d 3b27 ecbe a349 27bf 6b3d c63e
000001b0: 9670 e7be e000 12bf 00bc 8f3e f70e e0be
000001c0: 2e2a 6ebf 3d81 f33d 6b91 49bd f83f d5bc
000001d0: 87ae 2dbe f8f9 883d b48d 903e 4c76 9dbe
000001e0: 0130 9b3d f85b d0be 1680 12bf 19b1 aa3e
000001f0: 9ea3 c53d 86aa 06bf 2e2e 3abf 467a d53e
00000200: 14eb aa3e dfec c93e 7821 843e 3fc1 3e3e
00000210: 69c1 bd3d 1611 fdbe b92f 31bf ec6a cc3e
00000220: 8cef 3e3f 31ab 1dbf 7abc 793e e0e4 f9be
00000230: a56d 28be 890e 13bf aadd 313f da45 a33e
00000240: cb69 4bbd 943a 6dbc 5330 a03e 2c42 543c
00000250: 18a9 9dbe 75d6 8f3e a8fb ac3d 70d3 3d3e
00000260: 0ed6 8ebe 73cf 05bf 321d 403e 1a92 703f
00000270: 12f6 27bf 2c8d 933e 0110 883e 4518 a93e
00000280: 0119 743d 152b f23c f933 883e 0519 5ebe
00000290: 29cb bf3d 0477 e7be e16e 25bf d820 c53e
000002a0: 92d9 643e 9463 3b3e 3f03 4dbb c015 743e
000002b0: dcae 03bf 3d15 0f3f 1523 6cbe fc42 b3bd
000002c0: 2059 c33d 795e 04bf 19c1 38bf 5982 d73e
000002d0: 306a f4bd dc95 aa3e 6dbe 1c3e bf2c 903e
000002e0: df7c 993d d129 51be 0f40 c1be abba 713e
000002f0: e16f e63e 12d0 c43e d8b6 1ebe 8af7 9fbc
00000300: 4d20 23bf af1a b73d da71 753c 43eb 62be
00000310: 2fd1 a0be 3c05 8f3e 50fd da3d d64c 283f
00000320: 252d bcbe 3281 4cbf 500a 60be 1d20 643e
00000330: 8cb6 adbe 6f31 c23e c213 bebe 3b26 f0be
00000340: 69d9 e73e dbcf ae3e 276b 17be 56a0 a6be
00000350: 0656 b33d d3fc ddbe 956f 1cbf 5baa b43e
00000360: 25a7 413f 59c3 66bc 2b2e 48bf 9e39 49be
00000370: 32a5 1e3d ec55 02be 75c6 193f 31df ac3d
00000380: fdf6 523f 2188 5d3e 7732 ffbe 1f21 e73e
00000390: 9e04 8c3d 6cfa b2be d181 fdbe 57a1 903e
000003a0: 9abf 8a3d 989a 90be 811d d4be 28b3 7b3e
000003b0: 07af 0abf 55b4 85be 5a3a fe3e 3d4a 503e
000003c0: 6eb3 27bc 9c6a 81bf 995f bc3e 3448 d43e
000003d0: e94e 9fbe b1d0 01be 72dc b13e 4df8 90be
000003e0: 23f3 91be 68cc 8cbe 6b8e 8a3e b7aa 50bd
000003f0: 4103 983e 146c 3bbf e8a2 5abf c5d3 b5bd

decoder_lin.0.bias f4 [128]
-0.29764652 -1.8202927 0.05141234 0.9244791 -2.0514414 -1.5955781 0.23153318 -1.8619404
0.017191326 -0.5448663 0.58124775 -1.6350242 -0.27526292 -0.8857822 0.17766386 0.77536035
-2.349632 -2.558498 -1.9360224 -1.9656392 0.22498032 0.09748027 -0.64003044 -1.3775307
-0.10826912 0.05525797 -1.4680387 0.27061725 -0.47906032 0.1780303 -2.2535887 -1.6326326
0.07264634 -1.8633586 0.024246141 0.27700683 0.4983579 0.67738 -0.6598882 -0.20255765
0.064902425 -2.3782127 0.017174408 -0.17814913 -2.4312375 -0.15796107 -0.6342466 0.35466766
-0.56914794 -0.7634613 0.059054215 0.030649582 -0.3182694 -1.5718608 -0.044751905 0.4834709
0.44717044 -2.0815601 -1.7257618 -0.7943895 0.81871134 -0.66029376 -0.2293577 0.5859346
-0.06303326 -0.17951591 -0.13209945 -0.6042085 -2.3659081 0.6507939 -0.24976145 -0.024224387
0.3352469 -0.7014867 -1.6806026 -1.8097615 -0.1454123 -2.3774807 -0.55199885 -1.5335861
-2.0839126 -0.28165245 -1.9579352 -0.14062473 -1.4743344 0.2374814 0.3484524 0.19744152
0.46755752 0.26493236 -0.37428358 -2.3767102 -1.4018952 0.6459735 0.20025225 -0.023357954
-0.018878482 0.045727357 0.0534334 0.7618781 -2.2112348 -1.9024005 -0.33566853 0.41495746
0.034671515 -2.4441175 -0.45008564 -0.38397223 -0.0071204794 -1.3106496 -0.023980213 0.27714193
0.62179166 0.3648705 -2.5495296 0.042858012 0.4614281 -0.30957943 0.5617491 -2.3258276
-0.68398964 -2.781066 0.69999 -0.33974037 0.80299765 -2.4910266 0.33640048 0.15103324
00000000: 2065 98be 5aff e8bf bf95 523d aaaa 6c3f
00000010: d14a 03c0 e73b ccbf 0917 6d3e 1054 eebf
00000020: d3d4 8c3c 5c7c 0bbf a7cc 143f 7948 d1bf
00000030: 43ef 8cbe 9fc2 62bf 84ed 353e 047e 463f
00000040: 5f60 16c0 6ebe 23c0 95cf f7bf 119a fbbf
00000050: 3e61 663e bca3 c73d 09d9 23bf ed52 b0bf
00000060: 33bc ddbd 2e56 623d b1e8 bbbf 588e 8a3e
00000070: 6547 f5be 934d 363e cc3a 10c0 1bfa d0bf
00000080: 9bc7 943d 8982 eebf d89f c63c d7d3 8d3e
00000090: c428 ff3e c768 2d3f 6fee 28bf 466b 4fbe
000000a0: 90eb 843d a334 18c0 58b1 8c3c ba6c 36be
000000b0: 6599 1bc0 8cc0 21be fc5d 22bf 0097 b53e
000000c0: aeb3 11bf 3372 43bf d5e2 713d d514 fb3c
000000d0: 35f4 a2be bc32 c9bf c64d 37bd 7f89 f73e
000000e0: 86f3 e43e 4838 05c0 c3e5 dcbf 1c5d 4bbf
000000f0: 1197 513f 0309 29bf bfdc 6abe cfff 153f
00000100: 9517 81bd 05d3 37be 1445 07be 69ad 1abf
00000110: 0a6b 17c0 6e9a 263f 77c1 7fbe 3972 c6bc
00000120: 7ba5 ab3e a294 33bf fc1d d7bf 44a6 e7bf
00000130: f6e6 14be a528 18c0 cc4f 0dbf 8d4c c4bf
00000140: d35e 05c0 c034 90be 9f9d fabf eeff 0fbe
00000150: fdb6 bcbf 532e 733e 5a68 b23e 1c2e 4a3e
00000160: b363 ef3e 37a5 873e 19a2 bfbe 051c 18c0
00000170: 4d71 b3bf 855e 253f ed0e 4d3e 2e59 bfbc
00000180: 0ca7 9abc 9c4c 3b3d fbdc 5a3d 710a 433f
00000190: df84 0dc0 dc81 f3bf bfdc abbe 4e75 d43e
000001a0: b803 0e3d 6c6c 1cc0 a071 e6be 0298 c4be
000001b0: e952 e9bb 5ec3 a7bf 2772 c4bc 8ce5 8d3e
000001c0: bd2d 1f3f 4ed0 ba3e 7e2b 23c0 e28b 2f3d
000001d0: 4e40 ec3e 3281 9ebe cace 0f3f 5cda 14c0
000001e0: f219 2fbf fcfc 31c0 8b32 333f 73f2 adbe
000001f0: 4191 4d3f fb6c 1fc0 af3c ac3e 75a8 1a3e

decoder_lin.2.weight f4 [288, 128]
0.11981622 0.028022299 0.11921559 0.12985715 0.06460528 0.034210954 -0.20051962 0.086702704
0.07691844 0.089453526 0.070256665 0.053820305 -0.023136964 -0.013342887 -0.052735414 0.03715365
-0.026158381 -0.0113429325 0.0269468 -0.094445996 0.042343844 -0.0036997204 0.07829452 0.034184337
-0.007004731 -0.035436116 0.022901865 0.15146248 -0.0259103 0.009138183 -0.018504081 0.009306708
0.13865669 0.032316018 0.017109243 0.16210708 0.07755276 -0.007873166 0.06596831 0.04387796
0.11280175 0.06319021 0.038583066 -0.09766737 -0.07083578 -0.092913285 0.09115809 -0.05590946
0.028458424 -0.03412646 -0.11138987 0.08218542 -0.055084154 0.034378175 0.031632826 0.084447466
0.051041175 0.034063034 0.022352092 -0.023877187 0.0058108214 0.0886975 0.028352221 -0.057268996
0.2671538 0.0813835 -0.006054649 0.0041942387 -0.09672662 0.08123437 -0.013536872 -0.046635866
0.07728298 0.077717125 0.083501145 0.07688252 -0.13375168 -0.05498322 -0.0663391 -0.024718488
0.0013025927 -0.14510217 0.04529654 0.010194977 0.05111702 -0.03651784 0.09603362 0.08042087
0.12295148 -0.06738195 0.035743896 -0.05690931 -0.07033912 0.0734356 -0.039289273 -0.021834666
0.007050582 0.108146034 -0.041229647 0.08208471 0.006540734 0.051906608 -0.06323366 0.065437675
0.12190947 -0.036085937 -0.050181307 0.050251137 -0.036844674 0.050983284 -0.32556513 0.09686914
0.11350227 -0.20228182 -0.020216087 -0.05819926 0.08197768 0.0030513587 -0.11915089 0.08354959
0.001550709 -0.10472153 0.05688508 0.025025716 0.036220957 -0.08243353 -0.055481195 -0.07956165
0.106530495 0.002571948 0.021885118 -0.028926605 0.13640736 0.2056114 0.096840784 0.010756684
0.14957936 0.020921927 -0.066724956 0.12625201 0.020002302 0.12342681 0.12478366 -0.09274754
0.07761344 -0.022194674 0.0014187517 0.018380944 -0.008392958 3.1592557e-05 0.083033636 0.07545043
0.1133375 -0.033480898 0.019424098 -0.11448599 0.15162548 -0.009659235 -0.014815809 0.14329062
0.12271747 0.018016247 -0.10935856 0.07472397 -0.021247938 -0.17708726 0.031815335 0.017118126
0.06708901 0.04927351 0.07021311 -0.112952456 0.045732852 -0.01675921 0.15586796 0.13544244
0.1311719 -0.20941927 0.14207381 -0.1565372 -0.05624932 0.11906963 0.25469527 0.0018388147
-0.010327083 0.09764408 0.12273799 0.044019025 -0.17068894 0.15260568 0.08297862 0.43746778
-0.013327433 -0.017904004 0.028058393 0.13500927 0.05050409 0.1473156 0.029182114 0.20377624
-0.038407795 0.09082958 -0.007321909 0.19196278 0.05629629 0.1393972 0.15969165 0.07831172
0.0013693039 -0.075386316 0.04369997 -0.027753858 0.24239728 0.09603863 0.097313024 -0.021643026
0.08732516 -0.11924331 -0.032326344 0.06903588 0.1307227 -0.10484599 0.19465844 0.094568305
0.012625914 -0.007813064 0.03495367 0.067809924 0.063316114 0.052974533 -0.037474297 0.08857274
0.09560808 0.044373598 0.15023032 -0.09394217 -0.07732281 0.14257234 -0.0826762 0.031024365
0.013967659 -0.023899222 0.097674996 0.1126854 -0.011312011 -0.023413012 -0.110139124 0.09025793
0.0073382524 0.13672061 0.01921988 -0.2002526 -0.14455086 -0.03518384 -0.025014108 0.09772127
00000000: 3562 f53d 058f e53c 4e27 f43d 46f9 043e
00000010: c64f 843d c920 0c3d 0455 4dbe 3091 b13d
00000020: 6a87 9d3d 6933 b73d bae2 8f3d ae72 5c3d
00000030: bb89 bdbc 209c 5abc 1701 58bd 6d2e 183d
00000040: 1a4a d6bc b5d7 39bc 89bf dc3c e76c c1bd
00000050: bd70 2d3d 0277 72bb e158 a03d e004 0c3d
00000060: f187 e5bb 7625 11bd b19c bb3c fb18 1b3e
00000070: d641 d4bc 51b8 153c df95 97bc 2a7b 183c
00000080: 05fc 0d3e cd5d 043d af28 8c3c 66ff 253e
00000090: fbd3 9e3d 74fe 00bc 651a 873d 60b9 333d
000000a0: 9b04 e73d de69 813d 4709 1e3d d505 c8bd
000000b0: 5912 91bd 5249 bebd 18b1 ba3d 5101 65bd
000000c0: a421 e93c 30c8 0bbd 5f20 e4bd d450 a83d
000000d0: ec9f 61bd 21d0 0c3d 6c91 013d cbf2 ac3d
000000e0: 8d10 513d ae85 0b3d bc1b b73c 179a c3bc
000000f0: b468 be3b 09a7 b53d eb42 e83c e592 6abd
00000100: 62c8 883e 64ac a63d 1466 c6bb d36f 893b
00000110: 9b18 c6bd 355e a63d c2c9 5dbc 4005 3fbd
00000120: 8a46 9e3d 282a 9f3d a602 ab3d 9574 9d3d
00000130: 33f6 08be 1636 61bd cbdc 87bd 6d7e cabc
00000140: c2bb aa3a aa95 14be dd88 393d d508 273c
00000150: 1560 513d bb93 15bd 46ad c43d b2b3 a43d
00000160: fccd fb3d 8cff 89bd 3168 123d bd19 69bd
00000170: f50d 90bd 6765 963d caed 20bd 9dde b2bc
00000180: 9208 e73b ab7b dd3d 6be0 28bd 071c a83d
00000190: a753 d63b 069c 543d a680 81bd 3004 863d
000001a0: acab f93d d9ce 13bd ea8a 4dbd 23d4 4d3d
000001b0: 71ea 16bd d9d3 503d 79b0 a6be 5463 c63d
000001c0: e173 e83d f722 4fbe 359c a5bc 5962 6ebd
000001d0: eae3 a73d 4ef9 473b 6205 f4bd 0c1c ab3d
000001e0: 2941 cb3a 3e78 d6bd 5400 693d bb02 cd3c
000001f0: 6d5c 143d e9d2 a8bd 4040 63bd 38f1 a2bd
00000200: a92c da3d 218e 283b 6b48 b33c 7df7 ecbc
00000210: 5fae 0b3e cb8b 523e 7654 c63d cd3c 303c
00000220: 552b 193e 7664 ab3c 18a7 88bd 3548 013e
00000230: dedb a33c 32c7 fc3d 938e ff3d 6cf2 bdbd
00000240: ccf3 9e3d 9bd1 b5bc 68f5 b93a a293 963c
00000250: 9e82 09bc 4082 0438 8a0d aa3d c185 9a3d
00000260: 7e1d e83d 4423 09bd 491f 9f3c a177 eabd
00000270: b643 1b3e c541 1ebc 02be 72bc c7ba 123e
00000280: 4c53 fb3d cf96 933c 61f7 dfbd e108 993d
00000290: 2810 aebc 5d56 35be cc50 023d 503b 8c3c
000002a0: f665 893d 05d3 493d e4cb 8f3d 9e53 e7bd
000002b0: 5f52 3b3d 9c4a 89bc da9b 1f3e 6cb1 0a3e
000002c0: ed51 063e 0172 56be cc7b 113e 4a4b 20be
000002d0: b065 66bd c7da f33d 6b67 823e 6204 f13a
000002e0: ed32 29bc 9ff9 c73d 0e5e fb3d 4b4d 343d
000002f0: 15c9 2ebe aa44 1c3e b2f0 a93d c7fb df3e
00000300: 4e5b 5abc 6bab 92bc b7da e53c df3f 0a3e
00000310: 60dd 4e3d e7d9 163e 540f ef3c b8aa 503e
00000320: 7e51 1dbd dc04 ba3d a0ec efbb e491 443e
00000330: f096 663d 24be 0e3e 3586 233e e561 a03d
00000340: 377a b33a 2464 9abd bdfe 323d 0f5c e3bc
00000350: fe36 783e e7af c43d 0d4c c73d b74c b1bc
00000360: 89d7 b23d d635 f4bd a168 04bd af62 8d3d
00000370: 2cdc 053e 7fb9 d6bd 8b54 473e 07ad c13d
00000380: ecdc 4e3c 5e02 00bc 942b 0f3d eedf 8a3d
00000390: e1ab 813d d3fb 583d a67e 19bd a065 b53d
000003a0: 2bce c33d 17c1 353d fad5 193e c164 c0bd
000003b0: 6c5b 9ebd 7cfe 113e 2452 a9bd cf26 fe3c
000003c0: 9cd8 643c 4dc8 c3bc d409 c83d 9ac7 e63d
000003d0: 0356 39bc a5cc bfbc 9f90 e1bd 26d9 b83d
000003e0: b975 f03b 7d00 0c3e 0373 9d3c 040f 4dbe
000003f0: 2405 14be ee1c 10bd 63ea ccbc 1722 c83d

decoder_lin.2.bias f4 [288]
-0.048633154 -0.12754329 0.14508621 0.104284145 -0.044373248 -0.1430168 -0.012227485 -0.39561743
-0.01496262 0.19710204 0.25717118 0.06605166 0.035507314 0.048489377 -0.14218026 0.034899645
0.2760274 0.20018275 -0.053830136 -0.11133963 -0.13448927 0.05253371 0.029659059 -0.063581064
-0.06813991 0.11102398 0.08219797 0.1009094 -0.12270562 5.975949e-05 0.29807982 -0.08703693
-0.026607342 0.06316352 -0.13562335 0.03216028 -0.11250614 -0.21495274 0.040503822 0.004472966
0.11698908 -0.1073033 -0.07099794 0.29111472 0.0027175138 -0.0899476 -0.2185892 0.019940574
-0.05885939 0.016065836 -0.18647116 0.24363886 0.23004937 -0.19568437 -0.16116917 -0.03188582
-0.10467297 -0.011602778 0.0018628645 0.20216519 -0.17589442 0.01754636 -0.0057521733 0.025345447
0.222146 -0.07892616 0.24333175 0.015241708 -0.24013142 -0.11317406 0.21252784 0.05274887
-0.048231672 0.23490342 -0.05078371 -0.03280769 -0.0889968 0.198482 0.011715364 -0.19009772
0.2725659 -0.04861374 0.26135007 0.015416521 0.101920806 0.10769419 -0.20246498 0.16822831
0.26428822 -0.04993659 0.15136926 0.3378792 -0.032316893 -0.073421165 0.1613004 -0.22765121
-0.06516834 0.21041846 -0.10664235 -0.044845592 -0.015591097 0.05504621 0.14394362 0.03301384
-0.015114856 -0.22925152 0.16822322 0.042437058 0.3489772 0.08361728 0.29660183 0.024261806
0.08867606 -0.0027589437 0.1556787 0.05156518 -0.073620036 -0.13532062 0.26798356 -0.047362626
0.037803832 0.28346285 0.23118745 0.017203435 0.46493453 0.0022454476 -0.059020378 0.09733624
0.019012904 0.01507014 0.051816534 -0.034362517 -0.09603337 -0.15533501 0.075179346 0.21057367
0.13146293 -0.11311363 -0.06510293 -0.028851017 -0.050526287 -0.047317505 -0.040713213 0.2546012
0.08796927 0.08362561 0.23964876 -0.0013014524 -0.020228615 0.0614334 0.05464018 0.030199733
0.10747931 -0.10732048 0.096773066 -0.03592398 -0.05025535 -0.25886798 0.33778906 0.003449627
0.06512676 0.08593687 0.04902915 0.12434026 -0.06295822 0.043613624 0.10667769 0.050539356
0.0152673675 -0.11084324 0.20968151 -0.00062175724 -0.26026225 -0.25104758 -0.09860752 0.020782374
0.24722481 0.07532234 0.34357107 -0.043422636 0.0057322104 0.16482823 -0.3119476 0.10414218
0.17188333 -0.054067526 0.17627963 0.1354087 0.009067953 0.08044043 -0.2241664 0.081014484
0.07650719 -0.07086031 -0.24977252 0.11078162 0.21809465 0.041922025 0.13521281 0.12565754
0.041936185 0.20201696 0.051174458 0.12223534 0.13655077 0.020076934 0.112219684 0.17920105
-0.021845648 0.17116688 0.06888129 -0.09107473 0.04765136 -0.054520205 -0.059991255 -0.097766556
0.055196628 0.22670445 -0.046313815 0.063118815 0.10945716 0.030693708 0.060147766 0.099689506
0.239273 -0.048488867 -0.0029786727 -0.010931726 -0.031381547 0.035543066 0.19973789 -0.13722615
0.013513563 0.07578359 -0.04597104 0.12582329 0.20966865 0.101938486 -0.012117838 0.13786632
0.11295839 0.20835212 0.16671537 0.12035885 0.16646172 0.23938747 0.07384209 0.06165357
-0.08818458 -0.03151395 0.14401412 -0.08981389 0.12544361 0.0556534 0.09277137 -0.052519917
00000000: 8f33 47bd b59a 02be 7b91 143e ed92 d53d
00000010: b9c0 35bd ff72 12be ca55 48bc 5e8e cabe
00000020: c725 75bc 1ed5 493e f1ab 833e 1846 873d
00000030: 1e70 113d cc9c 463d b497 11be eef2 0e3d
00000040: 7753 8d3e b5fc 4c3e fd7c 5cbd 0806 e4bd
00000050: 8eb7 09be 962d 573d 8ef7 f23c ca36 82bd
00000060: f08c 8bbd 8a60 e33d 6957 a83d 96a9 ce3d
00000070: 164d fbbd 44a6 7a38 eb9d 983e 6b40 b2bd
00000080: a4f7 d9bc e05b 813d d9e0 0abe 7fba 033d
00000090: 9e69 e6bd 921c 5cbe 56e7 253d f591 923b
000000a0: f997 ef3d d5c1 dbbd 5e67 91bd fd0c 953e
000000b0: 5118 323b 7336 b8bd d9d5 5fbe 6a5a a33c
000000c0: 8b16 71bd 809c 833c 4cf2 3ebe 777c 793e
000000d0: 1092 6b3e 7c61 48be 8809 25be b59a 02bd
000000e0: c85e d6bd 9419 3ebc 5c2b f43a 6404 4f3e
000000f0: ab1d 34be 62bd 8f3c ba7c bcbb 41a1 cf3c
00000100: 3e7a 633e 0aa4 a1bd f52b 793e 5bb8 793c
00000110: 03e5 75be cdc7 e7bd e6a0 593e 330f 583d
00000120: 938e 45bd 868a 703e 9402 50bd 5b61 06bd
00000130: f443 b6bd de3e 4b3e ccf1 3f3c faa8 42be
00000140: c28d 8b3e 331f 47bd adcf 853e 9395 7c3c
00000150: dbbb d03d c68e dc3d fb52 4fbe 0b44 2c3e
00000160: c950 873e 4f8a 4cbd 8b00 1b3e 81fe ac3e
00000170: b85e 04bd d65d 96bd ef2b 253e 661d 69be
00000180: fb76 85bd f077 573e 4e67 dabd 03b0 37bd
00000190: cd71 7fbc 2278 613d f565 133e 8539 073d
000001a0: 4da4 77bc e9c0 6abe b542 2c3e 7bd2 2d3d
000001b0: 24ad b23e 893f ab3d 32dc 973e b2c0 c63c
000001c0: cb9b b53d 65cf 34bb 3d6a 1f3e 0336 533d
000001d0: 1ac6 96bd 7d91 0abe 2435 893e 50ff 41bd
000001e0: 31d8 1a3d 0b22 913e 67bc 6c3e 38ee 8c3c
000001f0: e60b ee3e 5c28 133b 5abf 71bd 3958 c73d
00000200: f3c0 9b3c c0e8 763c 933d 543d b6bf 0cbd
00000210: 25ad c4bd 2410 1fbe a1f7 993d a0a0 573e
00000220: 389e 063e 1ea8 e7bd af54 85bd f858 ecbc
00000230: a7f4 4ebd 00d0 41bd e6c2 26bd 175b 823e
00000240: 3c29 b43d e743 ab3d 7c66 753e 7f95 aaba
00000250: 7bb6 a5bc 97a1 7b3d 62ce 5f3d 6e65 f73c
00000260: 1d1e dc3d d7ca dbbd f530 c63d 0625 13bd
00000270: 8ed8 4dbd 588a 84be b0f2 ac3e 2313 623b
00000280: 2e61 853d abff af3d cad2 483d 1ba6 fe3d
00000290: 3df0 80bd 33a4 323d d579 da3d 5b02 4f3d
000002a0: fb23 7a3c c801 e3bd c0b6 563e 6cfd 22ba
000002b0: 1841 85be 4f89 80be bdf2 c9bd cc3f aa3c
000002c0: 8028 7d3e 9942 9a3d 8ce8 af3e efdb 31bd
000002d0: 44d5 bb3b bbc8 283e 99b7 9fbe 7f48 d53d
000002e0: 2f02 303e e975 5dbd a682 343e 94a8 0a3e
000002f0: c091 143c f4bd a43d e08b 65be ecea a53d
00000300: cdaf 9c3d 361f 91bd 5ec4 7fbe 79e1 e23d
00000310: 3454 5f3e 6eb6 2b3d 3a75 0a3e 5fac 003e
00000320: 47c5 2b3d 89dd 4e3e 4f9c 513d 8656 fa3d
00000330: f7d3 0b3e 6278 a43c 6fd3 e53d 7b80 373e
00000340: a5f5 b2bc 5f46 2f3e a211 8d3d 6385 babd
00000350: 132e 433d 9450 5fbd 64b9 75bd d539 c8bd
00000360: dc15 623d 3625 683e 8eb3 3dbd 7044 813d
00000370: 132b e03d 5f71 fb3c 815d 763d 032a cc3d
00000380: fb03 753e 439c 46bd d635 43bb fb1a 33bc
00000390: f089 00bd 9b95 113d 1788 4c3e 0385 0cbe
000003a0: fe67 5d3c 6d34 9b3d 214c 3cbd d2d7 003e
000003b0: 61b3 563e 20c5 d03d e589 46bc d42c 0d3e
000003c0: ba56 e73d 425a 553e 6fb7 2a3e b37e f63d
000003d0: f174 2a3e fd21 753e 863a 973d 7488 7c3d
000003e0: 1e9a b4bd c614 01bd 7078 133e 58f0 b7bd
000003f0: 4a74 003e d2f4 633d ebfe bd3d 201f 57bd

decoder_conv.0.weight f4 [32, 16, 3, 3]
-0.19195814 0.003996366 -0.10006924 -0.049338017 -0.027170971 0.063163854 -0.058578845 0.014508985
-0.07294043 -0.055042803 -0.01576388 -0.26437184 0.04873706 -0.39482674 -0.02683725 -0.08672455
-0.005858948 -0.23394649 -0.033525087 -0.014795407 0.05960631 -0.11477265 -0.16364999 -0.1705508
-0.08569346 -0.04128125 0.057102613 -0.049146537 -0.105292514 -0.0048439773 0.06158656 -0.02377387
0.07950383 0.16948928 -0.05397363 0.024953298 0.046912793 0.008882846 -0.009017852 0.055218965
-0.040301785 -0.19053236 0.20055489 0.0729121 0.022138348 -0.075934045 0.032294497 0.066083334
-0.043435775 -0.1452175 -0.008987368 -0.010306301 0.09443127 0.104332834 0.0022714515 0.10249275
-0.19487552 -0.06453255 -0.08029513 -0.049332008 0.08499967 -0.137458 -0.028548278 -0.05286168
0.020196883 -0.15705414 -0.13023698 -0.11551572 -0.024630168 0.057736944 0.10529691 -0.05799884
-0.07733482 -0.12019165 -0.028358521 -0.053910997 -0.5716934 0.005512929 -0.1336977 -0.21157204
0.22909138 -0.006046011 0.2070908 0.013461589 0.12489497 0.021756189 -0.025987223 0.07283127
0.0105589675 0.02126404 0.07057476 0.14132035 0.08041934 -0.17798997 -0.062742814 0.00864011
-0.08601865 -0.003862049 0.08298051 -0.0690105 -0.26789477 0.0983959 0.026035728 -0.24939647
-0.051870182 -0.003607961 -0.08719442 0.12967786 -0.13679194 -0.008000647 0.085500754 -0.10923905
0.017403083 0.12554361 -0.23034188 0.12377418 0.010437615 -0.07707856 0.15270254 0.07877203
0.011057907 0.09478929 -0.113517806 -0.02646437 -0.04115151 -0.043774586 -0.15249442 -0.0178319
-0.029527558 -0.011464645 -0.041139286 -0.06873333 -0.07119255 0.0019157097 -0.07649026 -0.25085583
0.05632126 0.001751784 -0.11150249 -0.10538988 -0.2537195 0.10068872 -0.040192954 -0.08571387
-0.11888971 -0.12316264 -0.00882322 -0.011627956 -0.10731886 -0.081319556 0.22173612 -0.077490866
-0.0426767 -0.02049187 0.05753989 -0.09119428 0.014763913 0.17026219 0.006795002 -0.031361427
0.034942724 -0.06352482 0.026638765 0.20195429 0.14134617 -0.16560283 0.068617724 -0.11423472
0.029644841 -0.005630394 -0.039655313 0.07337585 0.018146053 -0.033692457 0.006164014 0.17062932
-0.09713117 0.03086156 -0.5357111 -0.12688512 0.06184649 -0.009277015 0.18799667 -0.08043169
-0.2171009 0.063049585 0.03209711 0.14400536 0.108713925 0.3009081 -0.011833073 -0.021784335
0.016615193 -0.011202791 0.29264677 -0.11964877 -0.12962379 -0.081715815 0.022748318 0.0380412
-0.015776528 -0.16924039 0.10010272 0.10612821 0.004767688 0.06408932 -0.009679533 -0.023778433
0.18308383 -0.056142543 0.041415114 0.11726382 0.056424007 0.11372977 -0.07636378 0.06962751
-0.019333327 0.12996368 0.01504798 -0.055313583 0.0593282 -0.17074908 -0.12670952 0.064059615
0.022192659 -0.09897319 0.15918185 0.03818896 -0.08173753 0.17799918 0.18105294 0.13978279
0.14166294 0.05214138 -0.024485478 -0.12249071 -0.18952712 -0.12141208 -0.0269152 0.03626688
-0.05508369 -0.0005595442 -0.13357338 -0.036362726 0.08634202 0.13054799 -0.049047597 -0.13960883
0.10593387 0.014890985 0.19352841 -0.025071317 -0.07647513 0.011524674 0.121246316 -0.11593501
00000000: ad90 44be f3f3 823b 1af1 ccbd a916 4abd
00000010: a895 debc 0d5c 813d 5ff0 6fbd 18b7 6d3c
00000020: cb61 95bd 9074 61bd 4123 81bc bf5b 87be
00000030: 83a0 473d bb26 cabe cbd9 dbbc a49c b1bd
00000040: 6bfc bfbb ab8f 6fbe 9a51 09bd 6f68 72bc
00000050: bf25 743d ec0d ebbd dd93 27be dea4 2ebe
00000060: 0e80 afbd 8716 29bd 6ee4 693d e14d 49bd
00000070: 9aa3 d7bd 3aba 9ebb 3042 7c3d 6bc1 c2bc
00000080: e7d2 a23d 998e 2d3e 7413 5dbd dc6a cc3c
00000090: a127 403d 5b89 113c 9dbf 13bc 482d 623d
000000a0: 7c13 25bd ea1a 43be 435e 4d3e f052 953d
000000b0: 7b5b b53c 4f83 9bbd 3c47 043d b356 873d
000000c0: b6e9 31bd e5b3 14be c13f 13bc c2db 28bc
000000d0: 2f65 c13d 74ac d53d a2dc 143b b8e7 d13d
000000e0: 738d 47be a429 84bd c671 a4bd 5c10 4abd
000000f0: 4f14 ae3d cac1 0cbe 14de e9bc 7d85 58bd
00000100: ef73 a53c cdd2 20be d85c 05be 8193 ecbd
00000110: 35c5 c9bc 937d 6c3d e8a5 d73d 3190 6dbd
00000120: b861 9ebd 0a27 f6bd 2150 e8bc c7d1 5cbd
00000130: 805a 12bf cda5 b43b 0de8 08be 57a6 58be
00000140: ee96 6a3e 9e1d c6bb 9c0f 543e ff8d 5c3c
00000150: efc8 ff3d 093a b23c 28e3 d4bc 9028 953d
00000160: 85ff 2c3c ed31 ae3c 8089 903d 48b6 103e
00000170: e5b2 a43d 0143 36be 4e7f 80bd 3f8f 0d3c
00000180: 8c2a b0bd 6e1a 7dbb b0f1 a93d 6155 8dbd
00000190: 8129 89be ca83 c93d e148 d53c ca61 7fbe
000001a0: d475 54bd 8b73 6cbb fd92 b2bd 46ca 043e
000001b0: 3013 0cbe 2515 03bc 051b af3d b9b8 dfbd
000001c0: e990 8e3c 818e 003e bede 6bbe 517d fd3d
000001d0: 8802 2b3c 5ddb 9dbd 0e5e 1c3e 3b53 a13d
000001e0: 392c 353c e320 c23d 067c e8bd cecb d8bc
000001f0: 7c8e 28bd fb4c 33bd 7f27 1cbe 3414 92bc
00000200: c7e3 f1bc 35d6 3bbc ab81 28bd 0fc4 8cbd
00000210: 66cd 91bd 8d18 fb3a eda6 9cbd 2d70 80be
00000220: 1fb1 663d 1e9c e53a 6b5b e4bd a6d6 d7bd
00000230: 86e7 81be e335 ce3d 5ea1 24bd c18a afbd
00000240: 737c f3bd b23c fcbd 448f 10bc 2f83 3ebc
00000250: fec9 dbbd de8a a6bd cb0e 633e 88b3 9ebd
00000260: c3cd 2ebd 91de a7bc f3ae 6b3d 11c4 babd
00000270: 57e4 713c 3659 2e3e 9ca8 de3b d774 00bd
00000280: 1a20 0f3d 4d19 82bd 8a39 da3c 1bcd 4e3e
00000290: 0dbd 103e ca93 29be 7387 8c3d e5f3 e9bd
000002a0: bdd9 f23c 2b7f b8bb 9c6d 22bd 1446 963d
000002b0: 08a7 943c 1a01 0abd 7ffb c93b 74b9 2e3e
000002c0: b5ec c6bd 62d1 fc3c 5d24 09bf 2cee 01be
000002d0: bf52 7d3d 9ffe 17bc 3382 403e 5fb9 a4bd
000002e0: b34f 5ebe 2420 813d 4278 033d 2476 133e
000002f0: 68a5 de3d a010 9a3e 81df 41bc 1075 b2bc
00000300: 961c 883c e98b 37bc ccd5 953e 6a0a f5bd
00000310: 19bc 04be 9f5a a7bd ae5a ba3c 17d1 1b3d
00000320: c73d 81bc 5a4d 2dbe a802 cd3d bf59 d93d
00000330: 443a 9c3b 4341 833d e796 1ebc fdca c2bc
00000340: 547a 3b3e b9f5 65bd e5a2 293d 0328 f03d
00000350: dc1c 673d 27eb e83d 9d64 9cbd de98 8e3d
00000360: ed60 9ebc 3315 053e cd8b 763c 7f90 62bd
00000370: 2002 733d d9d8 2ebe 24c0 01be b031 833d
00000380: 61cd b53c 75b2 cabd 9100 233e 076c 1c3d
00000390: 0266 a7bd 6b45 363e f165 393e 3823 0f3e
000003a0: 1710 113e 3392 553d c595 c8bc 69dc fabd
000003b0: 6613 42be e6a6 f8bd 447d dcbc 948c 143d
000003c0: 6f9f 61bd 60ae 12ba 76c7 08be 15f1 14bd
000003d0: 16d4 b03d 5fae 053e 22e6 48bd 9ef5 0ebe
000003e0: dbf3 d83d 51f9 733c 502c 463e 5d62 cdbc
000003f0: fe9e 9cbd fcd1 3c3c fd4f f83d 566f edbd

decoder_conv.0.bias f4 [16]
-0.16952331 0.045300107 0.3770653 -0.09546587 0.16727833 -0.055534873 0.0731533 -0.023691272
-0.31080508 0.017522896 0.1287292 0.18395472 0.023818405 0.08694991 0.108332105 -0.18495174
00000000: 8597 2dbe 9b8c 393d b40e c13e 9c83 c3bd
00000010: 034b 2b3e 8978 63bd 66d1 953d 3314 c2bc
00000020: d821 9fbe 2d8c 8f3c 96d1 033e a05e 3c3e
00000030: d11e c33c cb12 b23d 39dd dd3d fd63 3dbe

decoder_conv.2.weight f4 [16, 8, 3, 3]
0.010593476 0.04391888 -0.08280905 -0.06396633 -0.121958874 0.114278935 -0.11682638 0.08059694
0.23502593 -0.12394171 0.052731227 0.024085732 0.0006336337 -0.006330313 0.012117192 0.08111782
-0.080699906 -0.13725626 0.04964788 0.0009952537 0.0025552344 -0.025876585 -0.12163832 -0.017204233
0.015682736 -0.12177454 -0.032012913 -0.33528015 -0.24577238 -0.0195813 -0.29054937 -0.13379216
0.058758806 -0.032330934 0.028505046 0.06058067 0.0036015129 -0.06472203 -0.14440803 0.16212961
-0.066421025 -0.06632538 0.13813108 0.021980813 0.018461777 -0.13552637 -0.09113464 0.27192223
-0.035991028 0.0022305436 -0.19184025 0.11435239 -0.019893631 0.05616887 -0.18372267 -0.17426181
-0.111445524 -0.3308893 -0.16674368 -0.02581079 -0.22872703 -0.11244568 0.0798456 0.08321397
0.05820966 -0.09699525 0.06137689 0.0032742075 -0.094414435 -0.025784303 -0.009483871 -0.061707534
-0.104186185 -0.07116708 -0.25839868 -0.11568549 -0.010304526 -0.20152096 -0.05793034 -0.021941964
-0.26151204 0.08259658 0.060935766 -0.07202006 0.022851003 0.08230604 0.08667795 0.037566822
0.2571055 0.048853107 -0.10546696 -0.030414693 -0.1966439 0.14238591 -0.10603865 0.010149327
-0.08392196 0.008091372 -0.080460854 -0.22620139 -0.23623437 0.003699722 -0.29215407 -0.2981662
-0.21337321 -0.117354006 -0.11360018 -0.03473846 -0.16228783 -0.14760475 -0.17531441 -0.019469386
0.07195087 -0.13627377 0.077704914 0.07836629 -0.07569929 -0.0026655772 0.06461692 -0.041179046
-0.021130065 0.013437881 -0.211825 -0.08502138 0.096958764 0.03534559 0.08556579 0.0470389
0.041961532 0.003765649 0.13485529 0.0032712943 -0.17209417 -0.2753274 -0.21234554 0.028323486
0.056487307 0.024368312 0.09566492 0.2134143 0.09971467 0.031774677 0.038186245 -0.12583879
-0.042091396 0.07039105 0.11359926 -0.12223536 -0.06691668 0.009430531 -0.08747916 -0.023517318
0.19779895 -0.08124865 0.0020962113 0.079641074 0.09011456 0.05223911 -0.035172313 0.08179439
-0.045416255 0.045885745 -0.061542753 -0.0015320188 -0.017149748 -0.060287207 -0.19081615 0.08913974
-0.07596429 -0.10190617 0.033422507 -0.11625826 -0.06657744 -0.04713607 0.12054337 0.25470248
0.030679325 0.33001834 0.36285773 0.35817167 0.014996691 0.043487746 0.017361686 -0.033192154
-0.2138616 -0.06946496 0.007460794 0.20653582 0.25336084 -0.014110951 0.07961749 0.122879796
0.14631997 0.06933038 0.007479268 0.14244388 -0.04067448 -0.07432288 0.023233661 0.06840091
0.09413957 0.003615009 0.060035273 0.007008428 0.15065584 0.28968564 0.07768347 0.030645711
0.10087975 0.030133694 -0.030964207 -0.043938667 -0.16747802 -0.11876002 -0.41399443 -0.105256125
-0.020790206 -0.018752528 0.25054953 0.18543757 0.2550114 0.29815397 0.12980457 0.28440562
-0.051807486 0.0657472 -0.08832495 -0.12761246 -0.16105914 -0.12344095 -0.03820672 -0.17341031
0.03538811 0.1112154 0.010207631 -0.032085735 0.14262798 0.05799642 0.44699886 0.10325369
-0.010634279 -0.05977935 0.06994295 0.32481796 0.3286412 -0.16344959 0.1963026 0.185281
-0.21221782 -0.190077 -0.16066633 -0.059339467 -0.0930945 0.0935502 0.22621973 -0.07586484
00000000: 4290 2d3c 49e4 333d cb97 a9bd c700 83bd
00000010: 93c5 f9bd 130b ea3d ab42 efbd 0210 a53d
00000020: a3aa 703e 27d5 fdbd b3fc 573d 714f c53c
00000030: 701a 263a 846e cfbb 3087 463c 1a21 a63d
00000040: fe45 a5bd e88c 0cbe 935b 4b3d 2c73 823a
00000050: b875 273b 22fb d3bc 831d f9bd e4ef 8cbc
00000060: 1579 803c ee64 f9bd f91f 03bd d7a9 abbe
00000070: c1ab 7bbe f668 a0bc e3c2 94be d000 09be
00000080: 13ad 703d 716d 04bd 6a83 e93c 7023 783d
00000090: 5c07 6c3b fc8c 84bd b3df 13be 4e05 263e
000000a0: bf07 88bd 9ad5 87bd 3c72 0d3e 1b11 b43c
000000b0: 273d 973c 6dc7 0abe cca4 babd 6439 8b3e
000000c0: 546b 13bd 502e 123b c571 44be 9631 ea3d
000000d0: f8f7 a2bc 5411 663d cc21 3cbe b071 32be
000000e0: 8d3d e4bd 536a a9be dbbe 2abe 2671 d3bc
000000f0: 6b37 6abe ec49 e6bd 1786 a33d 166c aa3d
00000100: 416d 6e3d 72a5 c6bd 5566 7b3d 1694 563b
00000110: 5b5c c1bd 9a39 d3bc 3d62 1bbc 0ac1 7cbd
00000120: 915f d5bd 0cc0 91bd d54c 84be 84ec ecbd
00000130: 51d4 28bc 835b 4ebe 5d48 6dbd a2bf b3bc
00000140: e8e4 85be 6528 a93d c897 793d 417f 93bd
00000150: 0732 bb3c 1290 a83d 3684 b13d abdf 193d
00000160: 55a3 833e 321a 483d 10ff d7bd 3c28 f9bc
00000170: 055d 49be 9dcd 113e cb2a d9bd 5d49 263c
00000180: 47df abbd ad91 043c a9c8 a4bd 56a1 67be
00000190: 6ce7 71be 0977 723b 3895 95be 3da9 98be
000001a0: 827e 5abe 4c57 f0bd 36a7 e8bd ea49 0ebd
000001b0: c82e 26be b325 17be 9f85 33be 437e 9fbc
000001c0: fa5a 933d 5a8b 0bbe c123 9f3d 817e a03d
000001d0: 3b08 9bbd f7b0 2ebb e055 843d 5cab 28bd
000001e0: f518 adbc 8f2a 5c3c a7e8 58be b01f aebd
000001f0: 5192 c63d 8ac6 103d 1e3d af3d ddab 403d
00000200: dbdf 2b3d 1bc9 763b 8117 0a3e 3663 563b
00000210: 7439 30be b7f7 8cbe 1c71 59be a806 e83c
00000220: 3c5f 673d 0ea0 c73c f8eb c33d 4789 5a3e
00000230: 3437 cc3d 2a26 023d 2e69 1c3d e2db 00be
00000240: 0768 2cbd 2f29 903d bba6 e83d 8856 fabd
00000250: 9d0b 89bd 8482 1a3c 4628 b3bd 64a7 c0bc
00000260: cf8b 4a3e b165 a6bd 9760 093b dc1a a33d
00000270: fc8d b83d adf8 553d d810 10bd d183 a73d
00000280: 6506 3abd b1f2 3b3d 4114 7cbd 05ce c8ba
00000290: a17d 8cbc b8ef 76bd 4f65 43be e58e b63d
000002a0: 2a93 9bbd 2fb4 d0bd 0ae6 083d d018 eebd
000002b0: c159 88bd c011 41bd 71df f63d 5d68 823e
000002c0: 3553 fb3c 2af8 a83e 7dc8 b93e 4762 b73e
000002d0: aeb4 753c 3520 323d 183a 8e3c 7ff4 07bd
000002e0: 89fe 5abe a543 8ebd ad79 f43b 207e 533e
000002f0: 83b8 813e 9e31 67bc 7f0e a33d 67a8 fb3d
00000300: e7d4 153e 16fd 8d3d a614 f53b cfdc 113e
00000310: 499a 26bd 9836 98bd 8554 be3c c715 8c3d
00000320: 3fcc c03d c9e9 6c3b 8ce7 753d f5a6 e53b
00000330: 8645 1a3e ad51 943e 8318 9f3d b70c fb3c
00000340: 0b9a ce3d f0da f63c a6a8 fdbc 08f9 33bd
00000350: 5c7f 2bbe 7438 f3bd 14f7 d3be 8690 d7bd
00000360: 3950 aabc e79e 99bc 0748 803e 59e3 3d3e
00000370: db90 823e a3a7 983e 7deb 043e 9d9d 913e
00000380: 1634 54bd 78a6 863d b6e3 b4bd d7ac 02be
00000390: b0ec 24be 9cce fcbd a67e 1cbd 7992 31be
000003a0: 1ff3 103d e6c4 e33d e83d 273c 556c 03bd
000003b0: 120d 123e a78d 6d3d 09dd e43e ac76 d33d
000003c0: 663b 2ebc 31db 74bd 403e 8f3d 8a4e a63e
000003d0: a943 a83e 545f 27be 8c03 493e 4dba 3d3e
000003e0: a14f 59be 8ca3 42be b785 24be f10d 73bd
000003f0: 54a8 bebd 3f97 bf3d 25a6 673e 065f 9bbd

decoder_conv.2.bias f4 [8]
0.016084576 0.14407776 0.10140173 0.12566769 -0.112367935 -0.033107016 0.016669847 -0.057832677
00000000: cdc3 833c 1f89 133e b6ab cf3d 08af 003e
00000010: 2921 e6bd 399b 07bd 348f 883c f5e1 6cbd

decoder_conv.4.weight f4 [8, 1, 3, 3]
-0.07861021 -0.16789348 -0.21389677 -0.18911745 -0.37259462 -0.46709806 -0.045971714 -0.15096067
-0.24740279 0.24660712 0.455548 0.22617334 0.31854832 0.56248415 0.20271243 0.13604982
0.17655192 -0.007791112 -0.05241783 -0.13999596 -0.006681697 -0.22608157 -0.46660185 -0.08352271
-0.073085 -0.14527865 0.025444709 -0.12204367 -0.23324433 -0.17504129 -0.29512814 -0.51330674
-0.32058057 -0.2429714 -0.39012727 -0.21303569 -0.23730396 -0.33935744 -0.05318383 -0.39096844
-0.38745636 0.08671515 -0.33907223 -0.37960795 -0.043568324 0.14050762 0.12896945 0.12109309
0.26106128 0.22624885 0.1837036 0.19910792 0.19133703 0.13795696 -0.15696095 -0.27134717
-0.07525254 -0.3010291 -0.4854207 -0.1076509 -0.17921 -0.2578788 -0.05151595 -0.09062542
0.11028688 0.12397352 -0.02732034 0.38854015 0.32040194 0.08911493 0.4224399 0.2810251
00000000: 64fe a0bd 45ec 2bbe c107 5bbe 01a8 41be
00000010: b9c4 bebe 7a27 efbe d64c 3cbd 6f95 1abe
00000020: 2857 7dbe 9486 7c3e 963d e93e fc99 673e
00000030: c418 a33e f6fe 0f3f d993 4f3e a550 0b3e
00000040: 07ca 343e 964c ffbb 14b4 56bd 1a5b 0fbe
00000050: 23f2 dabb ed81 67be 70e6 eebe f40d abbd
00000060: 97ad 95bd edc3 14be 6c71 d03c 08f2 f9bd
00000070: 9ad7 6ebe 063e 33be 091b 97be 1268 03bf
00000080: 2323 a4be 7fcd 78be c3be c7be 0726 5abe
00000090: cfff 72be 42c0 adbe 4ad7 59bd 042d c8be
000000a0: ae60 c6be b697 b13d e09a adbe f95b c2be
000000b0: b374 32bd 3be1 0f3e 9110 043e a7ff f73d
000000c0: d3a9 853e c7ad 673e cc1c 3c3e f2e2 4b3e
000000d0: dbed 433e 9744 0d3e 5fba 20be 04ee 8abe
000000e0: 011e 9abd 7c20 9abe 1089 f8be 1378 dcbd
000000f0: d482 37be b108 84be 6402 53bd d299 b9bd
00000100: 16de e13d d4e5 fd3d e8ce dfbc bcee c63e
00000110: b90b a43e e381 b63d 0b4a d83e 86e2 8f3e
