weights/decoder_weights_05302023a.pth (torch, 177671 bytes, 9 tensors)

decoder_lin.0.weight f4 [128, 4]
000000 eb 8d bd 3e 92 ea 2a 3d 85 cf ae be 53 fb cb bd
       0.37022337 0.04172761 -0.341427 -0.09960046
000010 5b c5 5f be 67 c7 e1 3e e5 78 4d be f3 92 a3 be
       -0.21852629 0.44097444 -0.20065649 -0.3194805
000020 bf 7b cf bd f2 e7 11 3e fa 7d 33 3e f5 d5 c6 3e
       -0.101310246 0.14248636 0.17528525 0.3883511
000030 9a fb f0 3e be 04 6a 3e ac 06 0f 3e 08 97 20 be
       0.47066957 0.22853372 0.13967389 -0.15682614
000040 7b 3e 44 bc 1e 70 21 bf 51 3a cb be 92 a6 18 3e
       -0.011977787 -0.630617 -0.3969293 0.14907292
000050 e4 2d 43 3d b8 b1 81 bd b5 57 0c bf ab c7 c9 be
       0.047651187 -0.06332725 -0.5482133 -0.39410147
000060 82 b3 0e 3e ba 8d 01 3e ac 15 13 3f e1 17 a3 3e
       0.13935664 0.1265172 0.57454944 0.31854156
000070 f0 d2 74 be 35 9a e6 3d 0e 50 8e be 6f 0f 52 bf
       -0.23908591 0.112598814 -0.27795452 -0.820548
000080 cd 24 00 bf 93 a7 9c be c3 4e d7 be 66 99 ce 3e
       -0.50056154 -0.305966 -0.42052278 0.4035141
000090 6f b3 ad be 41 92 19 be 81 c6 41 bd 0b 1d ea be
       -0.3392596 -0.14997198 -0.04730845 -0.45725283
0000a0 d6 02 67 3d 78 8d 42 3e 0e 46 b6 bc d1 da 7c 3e
       0.05639919 0.18999279 -0.022250202 0.24692847
0000b0 ac 42 d6 be 09 50 0e 3f 55 c2 ad 3e 99 c8 19 bf
       -0.41847742 0.55590874 0.33937326 -0.6007171
0000c0 63 33 b1 3d e7 4d ff bd f9 7f 63 be af ad 28 3e
       0.08652379 -0.124660306 -0.22216786 0.16472505
0000d0 75 ec dd be 49 dc 16 bf 59 44 36 bf e1 c3 b7 be
       -0.43344465 -0.5892988 -0.7119804 -0.3589163
0000e0 90 85 1b 3e 0f 1b a9 3e 90 67 76 3e a1 e8 b7 3e
       0.15187669 0.33028457 0.24062943 0.3591967
0000f0 4f de b6 bd d8 88 1a be 06 11 9f bc dc e5 d5 3e
       -0.08929121 -0.15091264 -0.019417297 0.4177693
000100 9d e7 91 be 6a 1a 8d be 22 8a 4c 3f 87 e2 74 be
       -0.2849702 -0.27559215 0.79898274 -0.23914538
000110 d1 01 12 bf 37 93 21 bf 73 23 82 3e 90 7c b7 3e
       -0.5703402 -0.6311526 0.2541767 0.3583722
000120 48 05 b9 3e b6 ae 95 3e 78 47 d6 be eb 93 29 bf
       0.36136842 0.29234856 -0.418514 -0.6624133
000130 c0 68 51 3e e2 b5 c5 3e 88 9e f4 3e b0 f4 ea be
       0.20450115 0.38615328 0.477772 -0.45889807
000140 31 5c 52 3e 48 84 82 bc 1d 63 ed be 48 7c 5c bf
       0.2054298 -0.015932217 -0.4636468 -0.8612714
000150 77 8b d4 bd 85 e2 06 bf 33 51 cb be 69 58 6f 3e
       -0.10378163 -0.5268939 -0.39710388 0.2337357
000160 8b 30 19 3e 8f c9 f2 be 8d f2 08 bf 50 56 06 bf
       0.14959924 -0.47419402 -0.53495103 -0.5247545
000170 29 c4 8b 3e b7 9e ca bd f8 c5 76 be 85 cc 84 3e
       0.27298096 -0.09893554 -0.24098957 0.25937286
000180 ff 46 36 bf a3 58 51 bf a6 82 a5 be f6 34 88 3d
       -0.7120208 -0.81775874 -0.3232624 0.066507265
000190 0b 09 23 bf dc f3 8e 3e dd 77 54 3e b7 ed 37 3e
       -0.63685673 0.27920425 0.20748849 0.17961775
0001a0 4f 14 25 3e 1c 92 93 be ff fd 2e bf 16 02 41 bf
       0.16121028 -0.2882241 -0.6835632 -0.7539381
0001b0 30 62 da 3d 18 26 43 bf 6b 27 02 3f ca cf 28 bd
       0.10663259 -0.7623 0.508414 -0.041213788
0001c0 f4 6b bc 3e ca 20 6e be 9d fe 47 bd 2b e7 15 3f
       0.36801112 -0.23254696 -0.048826803 0.5855586
0001d0 b4 5e 69 bc 55 fb 27 be fa 6f 0f 3c 8a 84 89 3e
       -0.01424377 -0.1640447 0.008754725 0.26858932
0001e0 fa 1c 19 3e aa 22 4e bd 9d 3a 47 3e 50 86 8a 3d
       0.1495246 -0.050326027 0.19455953 0.06763899
0001f0 1a b1 11 bd da c8 29 bf a1 7f 7b 3e 5c 68 7f be
       -0.035569288 -0.663221 0.24560405 -0.24942154
000200 19 3c ab 3e 53 91 00 3f 64 b4 81 be d9 0a ef be
       0.33444288 0.5022175 -0.2533294 -0.46687964
000210 95 a3 ae 3e 5a f1 02 3e 45 b3 ee 3e 64 44 7f bc
       0.34109178 0.12787381 0.46621147 -0.01558027
000220 f7 4c 19 bf 7f 72 e3 3e 8c fd 1a be 3c b9 1d bc
       -0.59883064 0.4442329 -0.15135783 -0.009626683
000230 cf 22 3b 3e 90 72 ae 3e 6d 37 cf 3d 7d 12 aa bd
       0.18274997 0.3407178 0.101179935 -0.083043076
000240 56 60 42 bf 9a 70 34 3c 54 21 9e be c8 c6 a9 bd
       -0.75928247 0.011013174 -0.30884802 -0.08289868
000250 24 27 1c be 68 c8 71 3e 60 0a ab be 97 e0 99 3e
       -0.15249306 0.23611605 -0.33406353 0.3005416
000260 c6 42 f4 bd 4d 6a 0d 3f 2c fe 2b 3f b2 2f 8c bc
       -0.119267985 0.5524033 0.6718471 -0.017112587
000270 ec c0 db 3e 2f bd 3e bf 59 2b 9b 3e 21 58 b7 be
       0.42920625 -0.7450742 0.3030651 -0.35809425
000280 83 91 05 3f f5 9e 0a bd b2 05 17 be 85 cc 89 3e
       0.5217516 -0.033843 -0.14748266 0.2691385
000290 d2 de 08 3f 17 55 0d bf 46 2f b8 3e ed e2 88 bd
       0.53464997 -0.5520796 0.35973567 -0.06683908
0002a0 2d 64 91 3e c1 8c 03 3e 09 bb 86 be df 95 99 3e
       0.2839674 0.12846662 -0.26314571 0.29997155
0002b0 54 ed 1b bf 6a 54 1f be dc 02 0c 3f a7 4b 1d bd
       -0.6090901 -0.15559545 0.54691863 -0.038402226
0002c0 1c ec b9 3e e8 19 4a 3d 92 a8 65 be 04 08 d6 3d
       0.3631295 0.049341112 -0.22427586 0.104507476
0002d0 72 d7 3b bd 6a e7 0a 3f 6d 6e 09 bb e3 09 8e be
       -0.04585976 0.5425936 -0.002097036 -0.27741918
0002e0 aa 3a 8f bd fe 74 3e 3e 1c a0 05 bf 7d 30 9f be
       -0.06993611 0.18599316 -0.5219743 -0.3109168
0002f0 84 ac 49 be 46 f6 1c bf 71 bb f5 3d 23 2b 13 3e
       -0.19694716 -0.61313283 0.11998642 0.14371924
000300 bc a4 09 3f 0e 50 c4 3e bf 99 41 be 85 63 3f be
       0.5376699 0.38342327 -0.18906306 -0.18690307
000310 df 26 93 3e 08 41 64 3e 90 6c aa 3c 4b 7b 25 3e
       0.28740594 0.22290432 0.02080372 0.16160314
000320 32 cd 29 3e 48 eb 2e be d0 cc 40 3f cb 18 33 bf
       0.16582182 -0.1708194 0.7531252 -0.69959706
000330 39 dc 82 3e cb 3e 66 be e0 18 08 3e 54 0b 09 be
       0.25558642 -0.22484891 0.13290739 -0.13383228
000340 be 74 e2 bd 0e 45 d3 3d 43 19 73 bd 90 52 4d 3c
       -0.11057423 0.103159055 -0.059350263 0.012531891
000350 62 7e f0 be 0b 7a 32 3e 2c 6a ed bc db f6 7c 3e
       -0.46971422 0.17429368 -0.02898129 0.24703543
000360 15 5f 26 bf 90 a4 20 bf 82 ae 2e be 21 3b 5d bd
       -0.64988834 -0.627511 -0.17058757 -0.054011468
000370 f6 96 f9 be 7b a3 8a 3d 63 4c 17 3f 5a 64 b4 3e
       -0.48747987 0.06769463 0.5910093 0.35232812
000380 8a 55 35 3f 00 f4 7e be 86 71 8b 3e ff 83 9d be
       0.7083365 -0.24897766 0.2723505 -0.30764768
000390 04 f2 c6 bd a3 5a 44 3e ef a2 9c 3e 0c c4 b1 3e
       -0.097141296 0.191752 0.30593058 0.34719884
0003a0 ff db a0 3e ab 80 d7 3e ca 66 2d bd 7a 03 ca bd
       0.31417844 0.42090353 -0.042334355 -0.09863944
0003b0 63 d3 7e be a7 d4 cc be 29 f3 1a 3f dc c9 5a bf
       -0.24885325 -0.4000599 0.6052728 -0.8546426
0003c0 e0 e8 31 3e 8f 0d 50 3e 2a 9a 1a be fc 37 d5 3e
       0.17373991 0.20317672 -0.15097871 0.41644275
0003d0 94 c7 36 be a6 19 06 3f 60 93 fd 3d de af 4e be
       -0.1784957 0.52382886 0.12381625 -0.20184276
0003e0 0c 02 b1 3e 9f 24 2c 3d 6d 95 0c bf 64 7a e3 39
       0.34571874 0.042027112 -0.54915506 0.00043388002
0003f0 6a 53 42 3e ac a8 cb 3e 63 70 df be f5 2c 4d bd
       0.18977132 0.39777124 -0.43640432 -0.050091702

decoder_lin.0.bias f4 [128]
000000 e8 55 b2 3f b4 ea 5f 3d a0 5f 81 bf 77 8b 5d 3f
       1.3932467 0.05466719 -1.0107307 0.8654093
000010 d0 98 9d bf c5 e1 bb 3e f7 ab 6f 3e 40 cd b3 3f
       -1.231226 0.36695686 0.23405443 1.4047012
000020 3c 92 2b bf fb fc b9 3f 43 e6 f6 3e 0a 17 10 3f
       -0.6702001 1.4530329 0.4822255 0.56285155
000030 eb 41 49 3e a9 8e 94 3f 77 bd d8 3f c2 82 a5 3d
       0.19654052 1.1606036 1.693282 0.08081581
000040 d8 9f ab 3e 1b 5d cd be ed a6 b6 be f6 51 4b 3f
       0.3352039 -0.40110096 -0.3567423 0.7942194
000050 3b 25 4f bf 06 b1 ce 3e 9a f5 88 3d 36 9a c2 3e
       -0.80916184 0.40369433 0.0668747 0.3800828
000060 b4 cb 81 3e d1 ed b3 be 12 18 7e bf b4 53 ea be
       0.25350726 -0.35142377 -0.9925548 -0.45766985
000070 40 e8 a5 bf 36 83 e3 3f 99 49 a5 3f 58 6c a3 bf
       -1.2961502 1.7774417 1.2913085 -1.2767439
000080 5a 5c 4d 3f 36 d0 ae 3f 0b 3b b9 3e 55 b7 ac 3f
       0.8021904 1.3657291 0.3617786 1.3493448
000090 29 e1 c2 3e 9b a2 a6 bf 41 a5 59 3f ac cb 29 3e
       0.3806241 -1.3018373 0.8501778 0.16581601
0000a0 49 56 81 bf d7 66 d3 be dc 32 50 3e fb 42 a4 3e
       -1.0104457 -0.41289398 0.20331901 0.32082352
0000b0 2a 83 22 3f 56 40 41 bf 41 4f 8b 3d 20 7e 4a be
       0.6348139 -0.75488794 0.06802226 -0.19774675
0000c0 b0 a3 a8 3f f6 a5 29 bf 66 24 58 3e c1 b1 a7 3f
       1.3174953 -0.6626886 0.21107635 1.3101121
0000d0 bc 20 0c 40 97 89 89 3e 88 96 8a 3e ff 9f 63 bf
       2.189498 0.26862785 0.2706797 -0.8891601
0000e0 f7 7f 33 bf 2e b2 45 3f eb 6d f0 3d 73 d2 35 3f
       -0.70117134 0.77225006 0.11739715 0.71024245
0000f0 31 11 cc 3e 5f 76 96 3f ac ba 78 bf b1 6c c2 be
       0.39856866 1.1754874 -0.9715984 -0.3797355
000100 c3 54 37 3f 47 d4 4a bf 42 d5 e9 be 9b 27 8b 3f
       0.7161371 -0.7923016 -0.45670515 1.0871462
000110 d9 de a5 3f b5 10 2b 3f d8 fd 5c 3f ad 3d 85 bd
       1.2958633 0.6682237 0.86324835 -0.06505904
000120 a1 13 b0 be 4f 7b d8 3f c4 74 fa 3e cb 61 82 be
       -0.34389976 1.6912631 0.4891721 -0.25465235
000130 34 47 5e 3f cf 18 32 be eb 4a 54 3f b5 c1 9d 3f
       0.868274 -0.17392276 0.82926816 1.232474
000140 ad 25 bd bf 2d 83 9b 3f b3 0d ca 3e 6b f9 8e 3f
       -1.4777123 1.2149407 0.39463577 1.1169866
000150 07 dd 95 3f 5f 2a 1f 3e bf 68 55 3f 84 70 bc 3f
       1.1708077 0.15543507 0.83362955 1.4721837
000160 ba dc 08 3f 4b 5d 3b bf 50 14 9d bf 98 9a 95 3f
       0.534618 -0.7318923 -1.2271824 1.1687803
000170 29 dc 51 bf 0c db 4f be e9 f7 b7 3f ea fa 35 3f
       -0.8197656 -0.20298404 1.4372531 0.7108599
000180 d5 f9 0d bd d6 67 45 be a1 7d d7 bf 95 d3 32 3f
       -0.034662087 -0.19277892 -1.6835214 0.698541
000190 77 38 9f be 89 cb a3 be 00 e6 2a bd 27 df 41 bf
       -0.31097767 -0.31991223 -0.04172325 -0.7573113
0001a0 99 c5 17 bf 00 ab 7f 3d 73 b7 85 3f 04 f9 a5 be
       -0.59285885 0.062418938 1.0446609 -0.32416546
0001b0 6c e5 28 bf 39 e7 17 3f de 1c 93 3e 0e 58 95 3f
       -0.6597507 0.5933719 0.2873296 1.1667497
0001c0 0c 53 b0 3f 74 33 79 3f e0 09 82 bd ae b3 f0 3f
       1.3775344 0.97344136 -0.0634954 1.8804834
0001d0 0f ca fe bf c1 6f db bf 23 a4 4c 3f d2 b0 ab bf
       -1.9905413 -1.714348 0.7993795 -1.3413336
0001e0 c2 c5 4d bc 10 6d 24 3f c4 ed b9 be 50 e1 04 bf
       -0.012559356 0.64228916 -0.36314213 -0.519063
0001f0 87 a7 66 3f 1b ae f6 be 51 c8 12 3f c3 8c 30 bf
       0.90099376 -0.48179707 0.5733691 -0.68964785

decoder_lin.2.weight f4 [288, 128]
000000 00 9e e5 34 55 4d 88 3d 5c 02 05 bd 0d d7 8b bd
       4.2769534e-07 0.06655375 -0.032472953 -0.06828127
000010 ec c6 40 3d 33 f5 77 3d 43 c4 39 bd a3 70 64 3e
       0.047064707 0.060536575 -0.045353185 0.22308592
000020 14 65 50 3e c5 c7 b4 3d 56 18 df 3d 2b c3 30 be
       0.20351058 0.088271655 0.108933136 -0.1726195
000030 b0 48 21 3d 34 1f 21 bc 39 85 83 3e 4e eb 35 bd
       0.03937596 -0.0098341 0.25687578 -0.044413857
000040 0b 5c 1a bd 19 50 f9 3d 93 cd 91 bc b2 d6 a1 bb
       -0.037685435 0.121734805 -0.01779822 -0.0049389238
000050 a0 41 15 be df 6b 3c bd ae 94 8f 3d bc fe 07 bd
       -0.14575815 -0.04600131 0.0701078 -0.033201918
000060 e4 88 74 3c 4c f9 ca bd 5e 34 ea 3c c3 a2 51 3e
       0.014925215 -0.09910831 0.028589424 0.20472245
000070 2d 5a db 3d 7f 1e a3 3d 41 d1 e5 3d 9c 97 3e 3d
       0.10710559 0.07964801 0.11221553 0.046531305
000080 1f 9d 32 3e 61 7b cd 3c 6e bf 6b bc da de 69 3e
       0.1744275 0.025083246 -0.014388902 0.22838917
000090 b5 c2 0d 3e e7 e9 0b bd c9 13 b1 bd 28 a1 87 be
       0.13843806 -0.034158614 -0.08646352 -0.2649014
0000a0 f3 69 bb bd 93 c9 d7 bd 40 72 ff 3d f3 67 de 3d
       -0.091510676 -0.10536494 0.12472963 0.108596705
0000b0 f7 0c da 3d e2 56 95 3d 07 f5 29 bd a4 84 77 3d
       0.10647004 0.07291962 -0.041493442 0.06042923
0000c0 47 8b 35 3d fb 70 59 bd 1a 61 04 3e f7 3c 97 bc
       0.04432228 -0.053086262 0.12927666 -0.018461687
0000d0 6e ce 0f 3e ca 3a 3f bd 25 04 03 3e 7c 14 07 bc
       0.1404359 -0.046686925 0.1279455 -0.00824463
0000e0 c7 4f 83 3d 19 da 2c bc c6 bd 83 3c ae 64 04 bc
       0.06411701 -0.010550045 0.016081702 -0.0080806445
0000f0 ff 0d 08 3e 32 8d a7 3b 16 09 13 3d 31 08 a2 bd
       0.13286589 0.0051132673 0.035897337 -0.07911719
000100 67 39 02 3d 53 a3 a9 3c f1 e7 95 bc 4f 79 b4 3d
       0.031793024 0.020707762 -0.018299075 0.088122
000110 43 78 0e 3e 73 26 a1 3d 11 3a 18 bc 92 dc d1 3c
       0.13913064 0.07868662 -0.009291188 0.025617871
000120 5d 16 81 bd 4f cc 7a 3d 92 cb a4 3d f9 5c 8b bc
       -0.063030936 0.06123 0.080466405 -0.017012106
000130 70 a9 5f bd ef cd 0f bd 09 8c 93 3d 74 db 30 3e
       -0.054604948 -0.035108503 0.07204444 0.17271215
000140 6a 53 50 3c d6 d6 36 3e ff b8 f4 bd d1 63 7e bd
       0.0127152 0.17855391 -0.11949348 -0.06210691
000150 65 e7 58 3e d8 0d d3 bc 33 c1 39 3e d9 19 d2 3d
       0.2118202 -0.025763437 0.18140106 0.10258836
000160 1e 78 1d 3e d8 48 18 bc 95 4d 0e ba 9a fe 70 ba
       0.15377852 -0.009294711 -0.0005428431 -0.0009193212
000170 32 a9 cd bd 41 a0 2c 3e 0a 43 e9 bc 44 dd 99 3b
       -0.10042037 0.16858007 -0.02847435 0.0046955664
000180 dc c7 48 bd 34 d9 74 3d d9 25 54 3e 03 d5 27 3e
       -0.049018726 0.059777454 0.20717563 0.16389851
000190 c3 15 e2 bd 01 20 c1 bb 98 e9 79 bd 8c 6c 4c 3d
       -0.11039307 -0.0058937077 -0.061013788 0.049908206
0001a0 58 cd 47 bb 76 4b bc bc 50 2f 21 3e af 1f 95 3d
       -0.0030487385 -0.022985201 0.15740705 0.07281434
0001b0 70 e0 d7 bc da 48 26 be d4 4c 58 3e 42 5f 2f 3e
       -0.026352137 -0.16238728 0.21123058 0.17126182
0001c0 98 54 ef 3d f7 9e f0 bc 3c bc 10 be 5f ee 68 bd
       0.11686057 -0.029372675 -0.14134306 -0.056867953
0001d0 95 b6 0c be 65 ab 27 3d 12 59 2b be 7b 97 92 3d
       -0.13741525 0.04093494 -0.16733196 0.07157799
0001e0 51 9e 8b bd 91 11 00 3d ba 37 e7 bb fa 8b 1d 3d
       -0.06817306 0.031266753 -0.0070562037 0.03846357
0001f0 8d 97 a8 3c 64 50 d0 bc 52 e0 23 3d 48 89 88 be
       0.020580078 -0.025428958 0.04000885 -0.26667237
000200 5b 9a 11 3e 54 a1 57 bd 6c 15 6a 3c b1 e9 d6 3d
       0.14219038 -0.05264409 0.014287334 0.10493792
000210 9d 7f b1 3d e2 d5 a7 be e6 a3 f7 bb 62 06 14 be
       0.086669184 -0.32780367 -0.00755738 -0.1445556
000220 b1 8f 96 bd 20 93 ca 3d 57 53 9e bd 8a 66 dc 3e
       -0.07351626 0.09891343 -0.077307396 0.4304698
000230 74 3e 07 3e 7c 62 34 be 33 04 24 bb 77 64 bc 3d
       0.13207418 -0.17615694 -0.0025026917 0.0919885
000240 b1 fb e9 3d 19 9b 36 3d f1 d8 c3 bd 4d 91 d8 3d
       0.114249595 0.044581506 -0.09562863 0.10574589
000250 21 14 f6 bd 0b e3 c2 bb 97 1c dc bd 32 eb 0e 3d
       -0.12015558 -0.005947476 -0.107476406 0.03489227
000260 ad f2 d3 bd 84 11 0f be f8 71 f9 bc e7 ac 26 3e
       -0.10349021 -0.13971525 -0.030449852 0.16276895
000270 c0 40 cb 3d 73 a8 82 3e fc 40 ff 3c 63 25 2a 3e
       0.099244595 0.25519142 0.031158917 0.16615824
000280 81 2b 47 bd 0d 33 0c be 2e 77 0d be d8 a2 17 be
       -0.048625473 -0.1369135 -0.13814995 -0.14808214
000290 55 ad 82 3d 7a 66 97 3c 17 4d 55 be 11 d9 aa bd
       0.06380717 0.018481482 -0.20830189 -0.083421834
0002a0 17 b5 8a 3e 90 cd 1a 3e 29 d8 f6 3d cf a0 57 bd
       0.27091286 0.15117478 0.12052948 -0.052643593
0002b0 12 43 79 3d 84 48 41 bd 45 c1 b4 be f8 19 58 3e
       0.06085498 -0.047188297 -0.35303703 0.21103656
0002c0 2d 75 fd 3d 2b 59 bd 3d 37 3a 88 bd f2 0c 49 3a
       0.12375865 0.09245523 -0.066517286 0.00076694705
0002d0 d2 98 3e bd 8a 09 9d bd fc be 24 be f7 b3 42 be
       -0.04653246 -0.07667835 -0.1608848 -0.19013964
0002e0 be 0e a2 be 42 11 88 3d ee 3a ae 3c a2 1b e6 bd
       -0.31651872 0.06643917 0.021268334 -0.11235739
0002f0 15 09 0e 3d bf 6f d1 3e 96 cb 22 3e 5d 64 d6 3d
       0.03467663 0.40905568 0.15897974 0.104683615
000300 7f 18 04 3e d7 41 49 be 7a 62 19 be 6b 73 1d 3e
       0.1289997 -0.19654022 -0.14978972 0.1537606
000310 be 74 39 bb 02 bd bc bd 46 76 24 3e 6b f9 40 bd
       -0.0028298344 -0.09215738 0.16060743 -0.047112864
000320 be 4d 44 3e be 3d 9f bd ce be c5 3c c7 c6 e9 3d
       0.19170281 -0.07775448 0.024138834 0.11414867
000330 ad bb 8f 3d b3 3b df 3d a3 32 ca 3c ce 77 1e 3e
       0.07018218 0.109000586 0.024682349 0.1547539
000340 3a e9 e0 bd a0 f5 78 be 69 c4 ee 3d 70 2f be 3d
       -0.109819844 -0.24312449 0.11658556 0.09286392
000350 06 c0 f1 bb 94 d8 6d 3e 40 e8 4c bd ee 64 8a 3c
       -0.0073776273 0.23227149 -0.05002618 0.01689383
000360 cd c6 de bd 2b ba e1 bc c2 6a b6 bc c7 eb d2 bc
       -0.10877762 -0.027554592 -0.022267703 -0.025747193
000370 3c e6 1a be cf fa 36 bc be 6d 0c 3e 84 e2 43 bd
       -0.1512689 -0.011168196 0.13713738 -0.047823444
000380 da bb a5 bd 87 0d db 3b a2 fe 34 3d 0e 85 40 bd
       -0.080924705 0.006684962 0.04418815 -0.04700189
000390 cc 27 8c be 79 e8 92 bd 2d 3c 12 3e 66 97 01 3e
       -0.27374113 -0.07173247 0.14280768 0.1265541
0003a0 98 29 3e 3e 88 a7 63 be e4 b1 17 3c cf 14 0d 3e
       0.18570554 -0.22231877 0.009258721 0.13777469
0003b0 9a 70 23 be 48 9e 10 3e fb af 44 be b9 b8 55 bd
       -0.15960923 0.1412288 -0.19207756 -0.05217812
0003c0 4f a4 55 bb 85 c4 b9 3e e4 73 74 3d 9c ec 87 3e
       -0.0032599156 0.36282745 0.059680834 0.26547706
0003d0 68 f7 b6 bd 51 81 93 3e c5 8c 48 3e 95 c5 b0 bd
       -0.08933908 0.28809598 0.1958495 -0.08631436
0003e0 6b 5f 8d bd 0c 9e 61 be 86 c9 12 3e d0 25 08 3e
       -0.06902965 -0.22032946 0.14334688 0.13295674
0003f0 cb f9 18 3e ac 3a 81 3d e5 08 91 be f1 a6 88 3e
       0.14939038 0.06310019 -0.28327098 0.26689866

decoder_lin.2.bias f4 [288]
000000 58 c3 fd 3e 48 8f e7 bd fa 90 97 bd 55 30 be bb
       0.49563098 -0.113066256 -0.07400699 -0.0058041015
000010 83 65 c9 3e 4c 11 04 bf 93 00 9c 3e 04 82 b8 bd
       0.3933526 -0.5158889 0.30469188 -0.090091735
000020 a1 f7 a9 3e bc a4 0e 3d bb a9 5d bf 26 9d 9a bb
       0.33196738 0.03482507 -0.86587113 -0.0047184406
000030 46 5a 0b 3f 74 97 47 ba d4 f8 34 bb 0e e8 df 3e
       0.5443462 -0.0007613816 -0.0027614133 0.4373173
000040 5a 38 b5 3e 1a 07 63 3e 71 81 24 3d f1 d2 5f be
       0.35394555 0.22170678 0.040162507 -0.21857812
000050 65 c5 89 3e 59 c5 b2 be b4 d3 bf bd 08 e9 48 bf
       0.26908413 -0.3491619 -0.09366551 -0.7848058
000060 00 bf f9 be 89 41 5e 3d b2 20 ff be b6 ae b8 3e
       -0.48778534 0.054261718 -0.49829632 0.36070794
000070 61 0d 1d 3e 84 96 3e 3f c1 7d 42 bd 32 95 ae 3e
       0.15337135 0.7444842 -0.04748321 0.34098202
000080 11 a7 7d bd 83 07 58 3e a2 bf 7f 3d e3 71 a6 bd
       -0.061926905 0.21096615 0.062438615 -0.08127191
000090 d9 41 81 3d 16 e0 a1 3c 3e 62 c6 bc 73 c1 43 bd
       0.063113876 0.019760173 -0.024216767 -0.04779191
0000a0 b7 67 b1 bd 53 6a d9 3d f6 e5 41 3e ad 32 ee be
       -0.0866236 0.10615983 0.1893538 -0.46523038
0000b0 26 6c 92 be e7 1d 34 bf 0b cf f7 be 72 13 78 bd
       -0.28598136 -0.7035813 -0.4840015 -0.06056542
0000c0 7a 1d 3c 3b a5 88 15 bd 24 da 5a bc 07 52 9e 3d
       0.0028704093 -0.036507268 -0.013357673 0.07730489
0000d0 be 6f f7 3e 5e 46 17 3f dc c1 67 3f 58 fb 93 bd
       0.4832744 0.59091747 0.9053018 -0.072256744
0000e0 75 41 10 3f be 6a e0 be 6c 08 db 3b b4 25 8a bc
       0.5634988 -0.43831438 0.0066843536 -0.016863681
0000f0 36 a9 7c bd ce 7c d1 be ab 8f c7 bd 53 b9 9b 3c
       -0.06168481 -0.4091553 -0.09744199 0.019009268
000100 94 1a 90 b9 d3 63 d3 3d 6d 8a 3d bf 8e 2d a9 bd
       -0.00027485623 0.10321774 -0.74039346 -0.08260642
000110 24 86 af 3e ac c5 db 3c 43 a0 1f 3f f1 e6 23 3f
       0.3428203 0.026827656 0.62353915 0.64024264
000120 f8 68 de 3c 8d 70 63 bd 0b 21 7f bd 5a 28 47 3f
       0.027149662 -0.05552726 -0.06228737 0.77795947
000130 62 fd 28 bc d1 bd 7c bd a5 78 f7 3e 07 86 64 3e
       -0.010314317 -0.06170446 0.48334232 0.22316752
000140 84 2f 50 3d f0 0b b1 3e ee ce 44 be 92 80 5a 3b
       0.050826564 0.3457942 -0.19219562 0.0033340794
000150 a7 6a 71 3e 59 97 7d be 4f 38 3e 3e b0 8f 8e 3e
       0.23575841 -0.24764766 0.18576168 0.27844
000160 b3 7d e9 3c 44 a1 e2 3e 8e f1 c9 3e 21 e9 9e 3c
       0.02850232 0.4426366 0.39442104 0.019398274
000170 7c a4 00 3f e3 82 ec bd ef ab 8d 3e 9a 0d b2 be
       0.50250983 -0.11548402 0.27670237 -0.34776002
000180 d7 27 44 be aa 47 b2 3e db 78 d3 be 44 79 76 3e
       -0.19155823 0.348203 -0.41303143 0.24069697
000190 5d 9c a6 3f 1c c7 df 3e 79 82 17 bf b1 5e 1a 3f
       1.3016468 0.43706596 -0.5918346 0.6030074
0001a0 db 9b c3 3d 87 52 48 3c 60 17 de 3c 99 c4 0d 3e
       0.095512114 0.012226707 0.027110755 0.13844527
0001b0 d1 1f 29 bd 10 0c a2 bd d8 cc d1 3c e9 97 ab 3d
       -0.041290108 -0.07912457 0.025610372 0.08378584
0001c0 12 66 48 bd 39 93 d2 bd 9f 8f a7 bc 13 f3 62 3f
       -0.048925467 -0.10281987 -0.020454226 0.8865215
0001d0 2d 82 74 3e 27 9a 80 3e 7c bf 94 3f a1 1c 2f be
       0.23877783 0.2511761 1.1620936 -0.17100765
0001e0 f2 fe 7e 3d 7e 3f 89 bd 2a f9 ef bc 5e 04 89 3c
       0.062254854 -0.06701563 -0.029293615 0.016725715
0001f0 49 c9 17 3c d2 a8 1e bc 7f 64 9b 3e fa 7b cc bd
       0.009264299 -0.009683805 0.3035011 -0.09984584
000200 5b e2 09 be b4 b9 b1 3e fd 48 7a bd ac e3 b9 3d
       -0.13465254 0.34711993 -0.061104763 0.09076628
000210 02 68 8b bc 6c ba 26 bd 7d 35 a2 bd d6 0c ef 3e
       -0.017017368 -0.04070513 -0.07920358 0.4668948
000220 be 7a 3d 3e 05 9a 30 3f 73 8f b3 bd c0 18 97 bd
       0.18503854 0.68985015 -0.08767595 -0.073777676
000230 bc 45 0b bf 01 cb ea bc a9 5b a0 3c 24 72 5e bd
       -0.5440328 -0.028661253 0.019574957 -0.05430807
000240 b8 3a 82 bd 38 05 52 3d 2b c9 09 bb 5e c7 0b bd
       -0.06358856 0.05127451 -0.0021024446 -0.03412568
000250 2f a7 b2 bd 3d b6 8f 3e 36 e1 68 3d e3 26 6b 3d
       -0.08723294 0.28068724 0.056855403 0.057410132
000260 b2 57 cb 3e 5c 39 42 3e 40 7d 1c bf 86 fa 81 bd
       0.39715344 0.18967193 -0.61128616 -0.06346612
000270 4f b2 99 bd b2 02 03 3f 47 7a 22 bd 96 d4 1e 3c
       -0.07504713 0.5117599 -0.039667394 0.009694239
000280 e8 85 85 3d 4e e8 76 3c 04 22 cd 3e 7b 53 86 be
       0.06519681 0.015070034 0.40065014 -0.26235566
000290 12 52 bb bd fc 02 7f 3e b0 b7 90 3e 24 ed 8b be
       -0.09146513 0.24903482 0.28265142 -0.2732936
0002a0 b1 a8 08 3c e7 72 0e bf 59 55 04 bd a5 8e ce 3b
       0.008341 -0.5564408 -0.032307956 0.0063036256
0002b0 ce e6 86 3d 30 b3 f2 3e 0f 5c eb bd 91 9c 44 bd
       0.06586991 0.47402334 -0.11492168 -0.048000876
0002c0 97 b6 78 3e 9c a6 96 3d ed 78 75 bd 55 82 02 be
       0.24288402 0.07355997 -0.059929777 -0.1274503
0002d0 9e 6b 39 bd b9 5b dd 3d 16 a0 a2 3e e1 3c e0 bd
       -0.045268647 0.1080851 0.3176276 -0.10949112
0002e0 54 50 9d 3e 7f 27 31 3d ce 48 ff 3d d8 01 00 3e
       0.30725348 0.043250557 0.12465058 0.12500703
0002f0 18 0c 4a 3b d0 79 a2 3c a4 c6 a6 be 54 63 aa 3d
       0.0030829962 0.019833475 -0.32573426 0.083197266
000300 d2 ff 53 bd aa ce c1 3e 2a a5 7a 3f 73 3b 44 bb
       -0.05175764 0.37852985 0.9790827 -0.002994266
000310 2e 8c 79 3d 80 96 d9 bb 37 d7 1e 3e 47 a8 8a bd
       0.0609247 -0.0066402555 0.15511785 -0.067703776
000320 5f e3 93 3e 2b f1 38 3d b9 ef 2b 3e 8b a5 71 3c
       0.28884408 0.04515187 0.16790666 0.014748941
000330 3d 81 80 3e 54 16 f2 be ec 16 47 3e 4a ea 24 bd
       0.250986 -0.4728266 0.19442338 -0.040262498
000340 de ff fd 3c 1c 70 d4 bd eb 3b 73 3d 45 55 2f 3d
       0.031005796 -0.10372946 0.059383314 0.04280593
000350 ad d1 8d be b7 88 e3 bd a2 ae f0 3c 77 12 ca 3d
       -0.27699032 -0.11110061 0.029380146 0.09866803
000360 2d 32 24 bc 57 19 5f 3e ad 5d cb bd 7e 37 65 bb
       -0.010021728 0.2178701 -0.099299766 -0.0034975703
000370 2e 4e b6 be d7 7d ad bc 88 f2 0b 3e 98 25 72 bd
       -0.3560652 -0.02117817 0.13666737 -0.059117883
000380 69 03 ee bc 9b bb af 3e 32 16 69 3d 29 8f 0b 3e
       -0.02905436 0.3432282 0.056905933 0.1362883
000390 96 a0 28 be 17 f3 db 3e ed b1 a2 3d 4f 35 91 3e
       -0.16467509 0.429589 0.07944093 0.28360984
0003a0 7e 2d 16 3c e9 bf 01 3d fb 07 8d 3d 42 7f cb 3e
       0.00916612 0.03167716 0.06886288 0.39745528
0003b0 99 e5 73 3c e1 94 95 3e 9d b3 17 3d fe e7 a5 3d
       0.014886283 0.29215148 0.037036527 0.081008896
0003c0 5e c6 f0 3c 0b f7 9f 3e 28 35 93 bd e0 1c 28 3e
       0.029391464 0.31243166 -0.07187873 0.16417265
0003d0 97 1d 0c bb 7b 58 20 bf 16 a6 8f bd c7 cb c6 bd
       -0.0021379942 -0.6263501 -0.070141 -0.09706836
0003e0 3d 1b 4e 3f 90 57 0e 3d 81 e1 b9 3e 72 26 fa 3e
       0.8051031 0.034751475 0.36304858 0.48857456
0003f0 2b 81 dd 3e 84 80 66 3f c4 8b eb 3e d4 1a 76 3d
       0.4326261 0.9003985 0.4600507 0.06008418

decoder_conv.0.weight f4 [32, 16, 3, 3]
000000 17 98 2f 3e c8 f5 b3 3d 35 96 ed be 0e db aa 3d
       0.17147861 0.087871134 -0.4640366 0.083425626
000010 1b d9 22 bf 93 50 5a be 3a 6e 7e bd 34 b9 1a 3d
       -0.63612527 -0.21319799 -0.06211684 0.03777428
000020 cc e0 b6 bc 6f 8a eb 3d 42 f3 80 3d ee 0a 86 bd
       -0.022323988 0.115010135 0.06296398 -0.065450534
000030 1a b7 8f 3e f6 00 86 bc e9 b6 46 bd fb 50 82 3e
       0.28069383 -0.01635788 -0.04851428 0.25452408
000040 bf f0 fd bd 55 0b 00 be 64 ff 13 be 4a 76 e0 bd
       -0.12399434 -0.12504323 -0.14452893 -0.10960062
000050 d3 65 54 bc b9 c5 09 3e 0e 23 e1 3d 96 34 54 3d
       -0.01296373 0.13454331 0.10993014 0.051807962
000060 33 f9 45 3e cb 3e 12 be 47 a6 ad bd 7a 4b 9e be
       0.19333343 -0.14281766 -0.084789805 -0.3091696
000070 48 0b 95 3d 75 21 b5 bc a0 33 a8 ba 9a bd a3 be
       0.07277542 -0.02211068 -0.0012832768 -0.31980592
000080 0c 9a 3b 3e 1c 54 e6 bd c1 22 ce 3c 2b cc 69 3d
       0.18320483 -0.11246511 0.025163056 0.057079475
000090 b7 17 d4 3d d3 93 4e be 55 08 2a 3d 1f 79 81 bd
       0.10356086 -0.20173578 0.041511852 -0.0632193
0000a0 e2 9b 9e be fa 17 f9 bd bd cb 17 3e 21 15 28 3d
       -0.30978304 -0.12162776 0.14823814 0.041035775
0000b0 7e 68 10 be 67 51 12 3e 28 0f f4 bd 21 db 83 3c
       -0.1410236 0.14288865 -0.11916953 0.0160957
0000c0 fa 88 22 3e 9f 01 b7 be 4a 9a 88 bb f5 d8 f1 3a
       0.15872565 -0.35743424 -0.0041687833 0.0018451499
0000d0 2a be 29 3e 27 93 ce bc 36 2f 91 bd a1 86 e7 3d
       0.16576448 -0.025216652 -0.07089083 0.11304975
0000e0 e0 ec 34 3d 26 86 4a 3d ab ad ea be 8e 4a 11 bd
       0.044171214 0.04944434 -0.45835623 -0.03547149
0000f0 0a 3f 32 3e 41 f4 5d bd c2 3c eb 3c f5 3a 5f bd
       0.1740686 -0.054188017 0.028715495 -0.054499585
000100 ef 1f 8f 3e 21 55 e1 bd 5d 7b f9 bd a6 7e f4 3c
       0.2795405 -0.11002565 -0.12181733 0.029845547
000110 d2 6c 23 3d d7 10 36 3e 02 fa 45 be e9 02 28 3e
       0.0398987 0.17779861 -0.19333652 0.1640736
000120 cf ef 4e be f2 80 85 3c fa 30 1b be a3 6d 89 bc
       -0.20208667 0.016296837 -0.15155402 -0.016775912
000130 2e 55 bb bb 15 b8 e6 bd 68 3b 65 3d c0 61 1d be
       -0.0057169413 -0.112655796 0.055964857 -0.1536932
000140 de aa 82 3b 8b a1 85 be cc c0 14 be ca 25 ba bd
       0.003987654 -0.2609981 -0.14526671 -0.09089239
000150 62 22 73 bc 40 f0 ee 3d 7e 69 00 bc ac 03 a2 3d
       -0.0148397405 0.11666918 -0.007837651 0.079108566
000160 68 57 e9 3d 80 65 5e bd be cc ab bd ef 5c 8a 3d
       0.113936245 -0.054296017 -0.08388661 0.06756007
000170 b4 b4 4c 3d 5d 5c 0d 3e e9 ae 76 3e a7 77 4a be
       0.04997702 0.13804765 0.2409016 -0.19772206
000180 7a 10 af 3c 83 be 28 bc 62 8a 80 bb 07 12 f2 3e
       0.021370161 -0.010299328 -0.0039227465 0.4727938
000190 02 81 d1 be 94 1f 2f be a4 0b 93 3e 32 8e e0 be
       -0.40918738 -0.1710189 0.2871982 -0.43858486
0001a0 39 8d 01 3c fa b7 40 3e 8c 7b bd 3d 86 b7 9e bd
       0.007907205 0.18820181 0.0925208 -0.07749848
0001b0 df 59 7c bd c0 0b 55 be 52 6f 07 3d b4 8a 92 bd
       -0.061609145 -0.20805264 0.033065148 -0.07155362
0001c0 af e5 dd bd 50 3f 12 3c 0a 68 09 be 48 4d 27 3e
       -0.10834824 0.008926228 -0.13418594 0.16338074
0001d0 c9 57 91 bd 8a 28 6a 3e b7 03 a4 3d 06 dc 30 be
       -0.07096822 0.22867027 0.08008521 -0.17271432
0001e0 35 92 e0 3c 07 44 17 3c 53 23 ae be be 57 d7 3d
       0.027413467 0.009232528 -0.34011325 0.10514782
0001f0 2f f0 2c bc 60 e2 6e 3b 46 07 88 3d 20 c1 b5 3c
       -0.010555311 0.0036450848 0.06642012 0.022186816
000200 a5 98 2b 3e 59 6c 8f 3d d1 69 50 be d0 16 67 bc
       0.16757448 0.070030876 -0.20352866 -0.01410456
000210 8a e2 9b 3e b2 4b ca bd 61 64 05 3c 79 e0 f5 3c
       0.30446273 -0.09877719 0.008141608 0.030014263
000220 54 e2 f6 bc 8a 06 bc bc 70 d0 28 3e 74 2a a0 3e
       -0.030137219 -0.022952337 0.16485763 0.3128239
000230 20 47 89 bd b1 f3 9c 3d 3e 4d 1b 3e 1c ba 1f 3d
       -0.06703019 0.07663668 0.15166184 0.038995847
000240 ca 0c be 3d e8 d5 c4 bc e7 82 05 bd 8c 77 22 bc
       0.09279783 -0.02402778 -0.03259554 -0.0099161975
000250 eb a1 3f 3e cc c8 25 3d 00 45 2f 3e dd 65 bb 3d
       0.1871411 0.040474698 0.17116165 0.09150288
000260 1d 81 42 bd b3 9b f6 3d 5b 40 17 be 95 9b af bd
       -0.047486413 0.12041416 -0.14770643 -0.08574597
000270 12 17 00 be 3e 0d 30 be 47 e3 3b bc 2e 13 21 bd
       -0.125088 -0.17192551 -0.011467761 -0.03932493
000280 1c 4a 3b 3e 6d 80 93 3d f9 08 19 3e 11 2f f6 3b
       0.18289989 0.0720223 0.14944829 0.007512935
000290 97 cc bb bd 3a 0b b3 3d 61 f7 4d 3d 0f 03 2e bd
       -0.09169882 0.08742376 0.050284747 -0.042483386
0002a0 c6 23 fe 3d c3 eb 89 bd bd 74 a8 bd e3 01 93 3d
       0.12409167 -0.06734421 -0.08225391 0.07178094
0002b0 0e 04 02 3d 99 b0 6e bd 46 e8 8d 3e 80 ad 43 be
       0.031742148 -0.058273885 0.27716273 -0.19109154
0002c0 ce 75 64 bd f7 b5 cb 3c e6 f0 8c 3e c3 d7 d3 3d
       -0.05577641 0.024867041 0.2752754 0.10343888
0002d0 31 8a 43 be 4f da 1e 3d 63 f0 f0 bc 54 12 0e 3e
       -0.19095685 0.038782414 -0.0294115 0.13874179
0002e0 17 1d 16 bd f5 5b e8 3d b8 9d 33 3d a5 1c 90 bd
       -0.036648836 0.113456644 0.043851584 -0.070367135
0002f0 b0 70 5b 39 d6 d4 af 3d 39 34 50 be ca 4e 88 3d
       0.00020927447 0.08585517 -0.20332421 0.06655653
000300 b4 d2 65 3e 82 b2 83 3c 30 bb 05 be 45 f9 06 3e
       0.22443658 0.01607633 -0.13059688 0.13181026
000310 d7 0a a7 3d 24 8e 25 3c cd e5 26 bd 51 d8 8c bc
       0.081563644 0.01010469 -0.0407465 -0.017192991
000320 2c 00 1c bf ba 45 b6 be bf ac 14 bd 6b 2b 23 3e
       -0.6093776 -0.35600072 -0.036297556 0.15934531
000330 8c 57 6a 3d b2 09 8a be 33 28 ff 3c ae 0f 21 bd
       0.057212397 -0.26960522 0.031147098 -0.039321594
000340 16 50 c5 bd 11 f2 d7 bb 01 01 f5 3d c5 f6 8b bc
       -0.09634416 -0.006590136 0.11963082 -0.017085442
000350 f0 a5 e5 3d 41 9d 2d bd 20 69 a5 3b ef f9 48 be
       0.11213291 -0.042386297 0.0050479323 -0.19626592
000360 57 d2 a7 3c 2e 92 ff bd 87 21 07 3d ed 63 c0 3e
       0.02048604 -0.124790534 0.03299096 0.37576237
000370 44 a7 4b bd 08 4d 9f bd 1a 0f a7 3e 39 5b 62 be
       -0.049720064 -0.077783644 0.3262871 -0.22105111
000380 e8 00 4a bd 40 3a 69 3d c5 de 46 3d 5c ef 1c bd
       -0.04931727 0.056940317 0.048552293 -0.03831421
000390 33 99 0e 3e 94 ad 8b 3c 96 15 5a bd 95 97 2e 3d
       0.13925628 0.017050542 -0.053243242 0.04262503
0003a0 48 a6 38 3e e9 ce 8f bd 5e f7 36 bd 9f 8c df 3b
       0.18032181 -0.07021887 -0.0446695 0.0068221833
0003b0 6a e1 e5 bd c5 02 69 be 46 20 8d bb 3a 1c 91 bd
       -0.11224635 -0.22754963 -0.004306826 -0.07085462
0003c0 2d d9 12 3e 9b a2 54 3d 69 68 2a be fc a6 87 bd
       0.14340658 0.051912885 -0.16641392 -0.066236466
0003d0 56 9e 81 bd ab e1 79 be fb f4 6b 3c 18 aa 28 3e
       -0.06329028 -0.24402492 0.01440167 0.16471136
0003e0 1d 5c 34 bd ef 16 80 3d 31 a7 05 3e 2c ec 0e 3e
       -0.04403316 0.06254374 0.1305206 0.1395728
0003f0 15 bf 84 bc 99 2e e6 3c 8f e8 a7 bb 12 e4 e9 bd
       -0.016204396 0.028098391 -0.0051241587 -0.11420454

decoder_conv.0.bias f4 [16]
000000 dd 0e 5d bd 4f fc 50 be c5 24 f0 3c 69 65 af 3e
       -0.053969253 -0.20408748 0.029314408 0.34257057
000010 36 ba 58 bd 6c 6a de 3e 24 61 b2 3e f1 22 f7 3e
       -0.05291196 0.43440568 0.34839737 0.48268846
000020 71 ad 99 be 0f dc 36 3d a4 6a 34 be dd 47 90 3e
       -0.30015138 0.044643458 -0.17618805 0.28179827
000030 c8 0a 9b 3d ee 8d 60 be 9b ff 32 3f da cc 47 bd
       0.07570416 -0.21929142 0.69921273 -0.048779346

decoder_conv.2.weight f4 [16, 8, 3, 3]
000000 28 f4 e9 bb 0c db 5c 3d 63 80 ef 3d 1c f2 ea bc
       -0.0071397014 0.053919837 0.1169441 -0.0286799
000010 2b 39 34 3e fd 86 8c 3e 63 22 9f bd fe 34 1e 3e
       0.17599933 0.27446738 -0.077702306 0.15449902
000020 c4 ca b6 3d 6a 13 58 3c 19 ae d6 bc b5 93 3d 3e
       0.08925393 0.013188222 -0.026206063 0.18513377
000030 36 66 f1 3d 23 89 7c be a3 16 6c be 17 d5 30 3d
       0.11787073 -0.24661689 -0.2305551 0.04317197
000040 40 5d ca bc a6 d6 8f bd 8a c3 ec 3c 8a 30 08 3d
       -0.024702668 -0.07023363 0.028901834 0.033249415
000050 aa 63 2e 3d cd 2f b2 3d ec 65 95 3e e7 20 17 3f
       0.042575516 0.087005235 0.29179323 0.5903458
000060 e8 c2 81 3d 98 b7 a3 3e 51 e8 94 3e 06 0d bf be
       0.063360035 0.31976008 0.29083493 -0.37314624
000070 7d 14 98 3d 85 6c cd 3d 98 3f c2 be 7c fc 95 3e
       0.07425783 0.10030464 -0.37939143 0.29294193
000080 05 ea 9a 3e d9 31 7f bd 3c bf 20 3e 82 26 76 3e
       0.30256668 -0.062303398 0.1569795 0.24038127
000090 b0 14 a9 3d 37 bd bd be c9 4b be be bb 96 d0 bd
       0.08255899 -0.37058422 -0.37167194 -0.101849996
0000a0 d4 03 a0 be e1 5e a2 3c c2 b9 2e be 3a a9 17 bd
       -0.3125292 0.019820632 -0.17063048 -0.03702662
0000b0 44 74 af bd cc 9d 07 bd b4 f6 ca 3c 45 54 ac 3e
       -0.08567098 -0.03310947 0.02477584 0.33658043
0000c0 18 6b f2 bd e5 a1 67 be 64 da 3b be 02 5e 43 be
       -0.11836833 -0.22620352 -0.18345028 -0.1907883
0000d0 33 73 b8 3e 0a d3 57 be 63 9d 3f 3c c3 80 47 bd
       0.3602539 -0.21076599 0.011695239 -0.04870678
0000e0 51 b3 79 be d8 c6 20 bf d2 7f 10 bf 52 df ae be
       -0.2438481 -0.6280341 -0.5644504 -0.34154755
0000f0 1c a6 6b bd a3 fd 82 3d 5f 2d 38 bd 44 2e 04 3d
       -0.05753146 0.063960336 -0.044965144 0.032270685
000100 92 6b e0 3d d8 ca ed 3d 18 d8 42 3d 8c 19 a4 3e
       0.109580174 0.11610955 0.047569364 0.3205074
000110 5e 22 b7 3e 68 1a b3 3c bc c2 8c 3e e6 61 55 3e
       0.35768408 0.021863177 0.2749232 0.20838127
000120 03 99 05 3e bb de 2d 3d c5 ed 3f 3e 51 14 83 3e
       0.1304665 0.04244874 0.18743046 0.25601438
000130 70 bd e1 3d 5d 7c 75 3d 35 f4 45 3e d0 73 3e 3e
       0.110224605 0.059933055 0.19331439 0.18598866
000140 03 6f 51 bd 61 51 f8 3c 69 d0 1d bd e2 a3 85 be
       -0.05113126 0.030312242 -0.038528834 -0.26101595
000150 65 75 46 bd 4c b8 5c be b7 fd 81 3c 0d cf 52 be
       -0.0484518 -0.21554679 0.015868051 -0.20586796
000160 92 9d 27 be b8 8a 8b be d8 22 77 3d c3 18 c6 3d
       -0.16368702 -0.27254272 0.060335964 0.09672692
000170 de 30 c5 3c f3 2b 7f 3e 4f cc 99 3d 58 6c d0 3d
       0.024071153 0.24919109 0.07509672 0.10176915
000180 bb 8b 7b 3e 29 29 b2 3d 93 19 71 3e 4c 14 4d bc
       0.24565022 0.08699257 0.23544912 -0.012517046
000190 5c 25 01 ba 5b bc 9a 3d 2b a7 65 3c 0f a9 ef 3d
       -0.00049265265 0.07555457 0.014016907 0.11702167
0001a0 33 d2 cd 3d c1 6b cf 3d da f8 13 3e 59 d4 2d 3e
       0.10049858 0.10127974 0.14450398 0.16975535
0001b0 ec 32 4a bd cd 88 d8 bd d8 3b 0f 3e 7c f5 de 3d
       -0.04936497 -0.10572968 0.13987672 0.10886666
0001c0 76 b4 4e be f3 78 9d bd fc 81 e3 bd 98 2e db be
       -0.20186028 -0.07689085 -0.11108777 -0.42808986
0001d0 b8 71 9c bc 33 50 8b 3d f4 4a 90 3e 8f 01 ef 3d
       -0.019097194 0.06802406 0.28182185 0.11670219
0001e0 91 58 5a bc 50 ab bb 3e 36 4c 8e 3e d2 4d 70 be
       -0.01332678 0.3665414 0.2779252 -0.23467186
0001f0 16 c5 97 bc 4d 4b 1f be d0 d2 c0 3b 99 c5 18 bd
       -0.018526595 -0.15556069 0.005884506 -0.03729782
000200 c4 4b b6 3d 7a b7 a4 be 17 13 c4 be 55 fe 84 bf
       0.0890117 -0.32171232 -0.38295814 -1.0390116
000210 dc 5d 55 3d ff 96 67 3d f6 06 50 bc 1c 9b d7 3d
       0.052091464 0.056540485 -0.012696972 0.10527632
000220 87 c5 d7 3d 1f 79 1e 3d 13 e0 5c 3e 23 26 ce 3d
       0.10535722 0.03868973 0.21569853 0.10065868
000230 58 94 5e bb 22 15 2d 3e 80 69 44 3e 25 26 9c 3d
       -0.0033962931 0.16902593 0.1918087 0.07624463
000240 b1 a7 62 3d 49 97 a0 3d cb ad ca bc ab 13 6d 3e
       0.055335704 0.07841355 -0.024741074 0.23152034
000250 69 d0 1d 3e 8d 07 0d be 7d bd e3 3b 1e db 0a 3d
       0.15411533 -0.13772412 0.006950079 0.033900373
000260 e0 92 20 be b6 a6 4b 3d 06 3e 5a be 08 22 85 bc
       -0.15681028 0.049719535 -0.21312723 -0.016251579
000270 d9 fa e9 bd fa 09 f0 bd e2 ad 76 3e 1a c6 ed bd
       -0.114247985 -0.11720653 0.24089769 -0.116100505
000280 63 09 0d be 04 7c 0c 3d 6e 49 00 3e 9b ea 2e 3d
       -0.13773112 0.034297958 0.12528011 0.042704206
000290 ac a1 06 3e 32 23 a9 3e 4e 4f 62 3d 68 84 3b 3e
       0.1314761 0.33034664 0.055251412 0.18312228
0002a0 c5 63 4b 3c c8 13 19 bd a7 98 1a 3e 92 59 b1 bd
       0.012413924 -0.03737238 0.15097295 -0.08659662
0002b0 8a 3d a1 3d e2 29 0c bd 98 b2 02 3e 10 3c 4a 3e
       0.07873066 -0.03421963 0.1276344 0.19749475
0002c0 67 bb a5 3d 2b 09 c1 3b d0 7e 07 3d cc 9b ae bd
       0.08092385 0.0058909855 0.033079922 -0.0852581
0002d0 d5 aa dd bd 7e 22 64 bd b2 a1 01 be 54 9c 7a bc
       -0.10823599 -0.055696957 -0.12659338 -0.015296061
0002e0 0f c1 cc be 74 03 0b be b5 e7 70 be b2 8b 42 be
       -0.39991042 -0.13575536 -0.23525889 -0.18998602
0002f0 b3 80 8d bd 74 5d 27 ba 41 78 4b 3e ce c5 1a be
       -0.06909313 -0.000638447 0.19870092 -0.15114519
000300 e7 c4 98 bc e5 52 05 3f 68 fc b7 3e 69 72 cd bb
       -0.018648578 0.5207961 0.35934758 -0.0062697423
000310 69 9d a2 be fd 74 68 be 83 40 a3 bc 6b f3 35 bd
       -0.3176072 -0.22700877 -0.019928223 -0.044421595
000320 f7 15 63 be c9 b3 2d bf 8c ea cb bd 28 17 e1 bc
       -0.22176348 -0.67852455 -0.09956846 -0.027476862
000330 04 26 5a bd dd 98 38 be de 03 23 3e 60 31 09 3e
       -0.05325891 -0.18027063 0.15919444 0.13397741
000340 55 89 6a 3e fc 1a e3 3d 9d a3 53 3e 46 d2 d7 3d
       0.2290395 0.11089131 0.20667882 0.10538153
000350 b4 87 98 b9 0f 45 f3 3c 3a 82 52 3e 22 a8 12 3e
       -0.00029092806 0.029696016 0.2055749 0.1432195
000360 15 13 1e bd 38 c0 df 3c 20 1f 12 be ab 42 bd bd
       -0.038592417 0.027313337 -0.14269686 -0.092412315
000370 73 23 84 bd 3b 5b 6a bd 0e 74 5d 3d 11 53 31 3d
       -0.06452074 -0.05721591 0.054065756 0.04329211
000380 2b 0a c4 bc 73 e5 bf bd 50 df ac bc db e5 df 3c
       -0.02393063 -0.09369936 -0.021102577 0.027331283
000390 44 be af 3c 44 98 88 be c5 1e 2c 3e 6e 4b 39 3e
       0.02145303 -0.2667867 0.16808613 0.1809518
0003a0 1f 52 7d 3e 5b f6 65 bc da f2 f8 3c 9f 8e d5 3c
       0.24738358 -0.0140357865 0.030389238 0.026068984
0003b0 8b 2b 8d bc d7 65 5f bd 97 8b 66 bc 79 86 8f 3d
       -0.017232677 -0.05454048 -0.014071367 0.070080705
0003c0 78 f6 43 3d ca f9 1b 3e 64 a6 43 3e d8 69 d2 3a
       0.047842473 0.15232006 0.19106442 0.0016053272
0003d0 9c d9 0c bb 5d 16 cd bd 94 cb 06 be 49 bd c2 3c
       -0.002149201 -0.10014031 -0.13163596 0.023771899
0003e0 c7 38 fe 3c 62 e9 49 3e bc fd ce 3e ad de 3c 3e
       0.031032933 0.19717935 0.4042796 0.18444319
0003f0 10 e2 66 3d a7 0b 9e 3c 7c 99 df 3d 56 3f 2f 3e
       0.056367934 0.019292666 0.10917947 0.17114004

decoder_conv.2.bias f4 [8]
000000 36 7d 7e be 07 b4 9e 3e a4 73 3b be ac e0 65 3e
       -0.24852452 0.30996725 -0.18305832 0.22448987
000010 e2 e3 23 3f 18 15 34 be 8f a8 18 3f 3e e8 8e be
       0.64019597 -0.17586172 0.596322 -0.27911562

decoder_conv.4.weight f4 [8, 1, 3, 3]
000000 20 62 d2 be 4f 20 17 bf ca 2c 99 be 87 4a 23 bf
       -0.41090488 -0.59033674 -0.29916984 -0.63785595
000010 28 3e 2b bf 67 9a 80 be 54 85 d1 be 53 54 b8 be
       -0.6689172 -0.251178 -0.40922034 -0.36001834
000020 5b 22 82 bd 5a 21 9c 3e 85 28 f9 3e bd 9f ac 3e
       -0.06354209 0.30494195 0.48663726 0.3371562
000030 ce b0 0a 3f 5f da 32 3f d5 ea ee 3e 36 32 a0 3e
       0.5417603 0.6986446 0.46663538 0.31288308
000040 28 37 b4 3e 96 e7 41 3e d3 96 43 bd 2d 36 c7 be
       0.3519833 0.18936 -0.04775126 -0.3890852
000050 9f bc a5 bd 35 2b df 3d b3 7c df be b3 3e 81 3d
       -0.08092617 0.10896913 -0.43649825 0.06310787
000060 83 91 5e bc 80 9b d8 be 70 3f 62 bc 77 86 76 3d
       -0.013584497 -0.42306137 -0.01380907 0.06018683
000070 94 ca 62 3d fa 10 18 be 74 bb 88 bb a8 e5 09 be
       0.055368975 -0.14850226 -0.004172737 -0.13466513
000080 03 37 fc be da 0e 2a be cf 2c d6 be e5 8f fa be
       -0.4926072 -0.16607228 -0.4183106 -0.48937908
000090 38 06 91 3e b4 c3 18 3f d1 48 b5 3e 21 bf f3 3e
       0.28325057 0.5967362 0.35407117 0.47606757
0000a0 77 e4 64 3f db 11 fc 3e fe 54 9c 3e 87 4c 03 3f
       0.8941111 0.49232373 0.30533594 0.51288646
0000b0 bd ef 72 3e b0 0b b6 be ef 9f 13 bf 1e 4a 9d be
       0.23724265 -0.35555792 -0.57665914 -0.3072061
0000c0 d8 2e 2b bf 42 e0 74 bf 31 83 fb be 71 03 d2 be
       -0.6686835 -0.9565469 -0.4912353 -0.4101825
0000d0 5a 30 ec be 5f 9d 48 be 5a ee 89 3e da bf 04 3f
       -0.4613064 -0.19591282 0.2693966 0.5185524
0000e0 93 a5 ab 3e cf 27 09 3f b3 dd 57 3f e8 6e 09 3f
       0.3352476 0.5357637 0.8432266 0.53684855
0000f0 db 24 bf 3e d4 de fe 3e 0b 7f 84 3e 21 e0 22 3d
       0.37332806 0.4977938 0.25878176 0.039764527
000100 06 85 3b 3d 0c c1 e0 bd 89 83 a6 be c8 4a 20 bf
       0.045781158 -0.10974321 -0.32522228 -0.6261411
000110 cc c3 12 bf be 66 69 bc d1 de dc 3c 7f 7b 0e be
       -0.5733001 -0.014245687 0.026961716 -0.13914298
