weights/encoder_weights_06072023a.pth (torch, 176647 bytes, 10 tensors)

encoder_cnn.0.weight f4 [8, 1, 3, 3]
0	0xbf606926	-0.87660444
1	0xbead6dc5	-0.3387281
2	0xbf39cb9e	-0.7257632
3	0xbf5db6a9	-0.8660684
4	0xbea8edab	-0.32993826
5	0xbf7aaed3	-0.9792301
6	0xbd422900	-0.047402382
7	0xbde20424	-0.11035946
8	0xbe534eb2	-0.20635489
9	0x3d129659	0.035787914
10	0x3f6a3f4a	0.9150282
11	0x3ed1b25d	0.40956393
12	0x3f0c64e2	0.54841435
13	0x3f743858	0.95398474
14	0x3e90c552	0.28275543
15	0x3e9e8098	0.30957484
16	0x3d856ba1	0.06514669
17	0xbcb7e46d	-0.02244779
18	0xbd85d3f4	-0.065345675
19	0xbf02b635	-0.51059276
20	0xbdcdb31c	-0.10043928
21	0x3dc25df4	0.094905764
22	0xbecf2be5	-0.40463176
23	0xbe88ad6c	-0.2669481
24	0xbd7cc219	-0.061708543
25	0x3e6837b0	0.22677493
26	0x3ea0910b	0.3136066
27	0xbe433eb0	-0.19066882
28	0xbdfe7b84	-0.124259025
29	0xbb165989	-0.002294155
30	0xbeca9a30	-0.3957076
31	0xbe9219de	-0.2853536
32	0xbedbc5c0	-0.4292431
33	0x3d3fabab	0.046794575
34	0xbe8c0b26	-0.27352256
35	0xbe45a748	-0.19302094
36	0xbe9845f1	-0.2974086
37	0x3eb857f6	0.3600461
38	0x3bf9034f	0.0075992714
39	0xbdf08947	-0.117449336
40	0x3e326dfa	0.17424765
41	0xbd00e0aa	-0.031464256
42	0x3de35af5	0.11101333
43	0x3eb4a7cd	0.35284272
44	0x3e7015b2	0.23445776
45	0x3e37a34f	0.17933391
46	0x3d1e7fc4	0.038696066
47	0x3ea54e38	0.3228624
48	0x3eff19cf	0.49824378
49	0x3ee2114a	0.44153816
50	0x3eb24703	0.34819803
51	0x3ea90be7	0.33016893
52	0x3e748c51	0.23881651
53	0x3e15342c	0.14570683
54	0x3e8e48ce	0.2778992
55	0x3dad0407	0.08448034
56	0x3dc8e684	0.09809592
57	0xbdacd86c	-0.08439717
58	0x3ec0a439	0.37625292
59	0x3dceb88c	0.10093793
60	0x3efc3866	0.4926178
61	0x3f62d1f9	0.8860164
62	0x3e843b6f	0.25826594
63	0xbf0ca51c	-0.54939437
64	0xbe763fab	-0.24047725
65	0x3d861d76	0.06548588
66	0xbe205894	-0.1565879
67	0x3ef159c2	0.47138792
68	0x3f23856e	0.6387547
69	0xbe86d2d8	-0.26332736
70	0x3f2cc6ee	0.6749104
71	0x3f7ae153	0.9800007

encoder_cnn.0.bias f4 [8]
0	0x3d9e2669	0.0772217
1	0xbd4b4c79	-0.049633477
2	0x3ec6c94c	0.38825452
3	0x3ecf10e2	0.40442568
4	0xbea20658	-0.31645465
5	0xbe6c6b9f	-0.23087929
6	0xbe8258cf	-0.2545838
7	0x3da8eb9e	0.082480654

encoder_cnn.2.weight f4 [16, 8, 3, 3]
0	0xbe04442f	-0.12916635
1	0x3e1bdbfd	0.15220638
2	0xbde3eff3	-0.11129751
3	0xbea740f8	-0.32666755
4	0xbe7d1d91	-0.2471831
5	0xbeddbfb0	-0.43310308
6	0xbe7d55bf	-0.24739741
7	0xbd88fd65	-0.06688956
8	0xbba1e56c	-0.0049406793
9	0x3e42e1d0	0.19031453
10	0xbf01523c	-0.50516105
11	0xbd0798fb	-0.033104878
12	0xbd90b2c2	-0.07065345
13	0xbf1139f2	-0.5672904
14	0xbe01b9a2	-0.1266847
15	0xbe0901f0	-0.13379645
16	0xbe903c25	-0.28170887
17	0xbe20545e	-0.15657184
18	0x3dec8a22	0.11549784
19	0x3e5b5cdd	0.21422143
20	0x3d9d85fc	0.07691571
21	0x3e226efa	0.15862647
22	0xbb590162	-0.0033112396
23	0x3d36eeba	0.04466126
24	0x3d575ae9	0.052576933
25	0x3e06fb74	0.13181859
26	0x3da836da	0.08213587
27	0x3cda44f0	0.0266442
28	0x3e8128e4	0.2522651
29	0x3daa34ab	0.08310827
30	0x3d0d0a61	0.034433726
31	0x3e0ed2c0	0.13947582
32	0x3e409ac5	0.1880904
33	0x3d1fb578	0.03899142
34	0x3e372d61	0.17888404
35	0x3c71f139	0.014766985
36	0xbd7ab3f0	-0.061206758
37	0xbe202b81	-0.15641595
38	0xbdf79936	-0.120897695
39	0xbdccbf7b	-0.099974595
40	0xbe3b0092	-0.18261936
41	0xbd5fa119	-0.054596994
42	0xbe183243	-0.14862923
43	0xbdbcd399	-0.092200466
44	0xbe6b7e51	-0.22997405
45	0xbbdfb26c	-0.0068266895
46	0xbed38e02	-0.4131928
47	0xbd7699f1	-0.060205404
48	0x3cd89a05	0.02644063
49	0xbe8ea80e	-0.2786259
50	0xbda6a304	-0.081365615
51	0x3ce62930	0.028095812
52	0xbe71fe60	-0.23632193
53	0x3d2b0f8a	0.041762866
54	0x3bdc3f4d	0.006721413
55	0xbe1f3862	-0.15548852
56	0xbdf6552b	-0.12027963
57	0xbe89a2aa	-0.26881915
58	0xbe51c28d	-0.20484371
59	0xbe844056	-0.25830334
60	0x3d86f2da	0.06589289
61	0xbe9a90a3	-0.30188474
62	0xbd88b135	-0.066744246
63	0xbdee6661	-0.11640621
64	0xbd985fee	-0.07440172
65	0x3e694ecc	0.22783965
66	0xbe5646d7	-0.20925461
67	0xbd972e19	-0.07381839
68	0x3e280f8e	0.16412184
69	0xbdc117cc	-0.09428367
70	0xbab86a56	-0.0014069777
71	0x3d35d196	0.04438933
72	0xbeb38e0f	-0.3506932
73	0xbebe9853	-0.3722559
74	0xbe252735	-0.16128238
75	0xbda61a07	-0.08110433
76	0xbe57b0e2	-0.21063569
77	0x3e10cb07	0.14139949
78	0x3ebcbe15	0.3686377
79	0x3dcb3706	0.09922604
80	0xbe922a14	-0.28547728
81	0x3d297247	0.04136875
82	0x3e258578	0.16164196
83	0x3e043709	0.12911619
84	0xbdd824c5	-0.10553888
85	0x3dc2d8e6	0.09514026
86	0xbee43635	-0.44572607
87	0xbef6cd47	-0.4820349
88	0xbebf3309	-0.37343624
89	0xbe46ec32	-0.19426039
90	0x3e94511a	0.28968126
91	0x3e179140	0.14801502
92	0xbe0b242c	-0.13588017
93	0x3d070daa	0.032972015
94	0x3d8754c3	0.06607964
95	0x3e552c5a	0.208177
96	0x3ca19bf5	0.019727686
97	0x3e1bcc7d	0.15214725
98	0x3e232408	0.15931714
99	0x3e08477c	0.13308519
100	0x3e41d0ae	0.18927261
101	0x3dc2d296	0.09512822
102	0x3ddf873a	0.10914464
103	0x3d76dd54	0.06026967
104	0x3e1cb46d	0.15303202
105	0x3e6c66ca	0.23086086
106	0x3d204478	0.039127797
107	0xbe38e6f1	-0.18056847
108	0xbe047990	-0.12936997
109	0xbd3ac5ed	-0.045598913
110	0xbe22044b	-0.1582195
111	0xbe3f9922	-0.1871076
112	0xbe4c2668	-0.19936526
113	0xbdaf4da1	-0.085597284
114	0x3c243c5b	0.0100241555
115	0xbdce7b8e	-0.1008216
116	0x3e1bb588	0.15205967
117	0xbdeac9a8	-0.11464244
118	0xbd43cdb7	-0.047803607
119	0xbd955ea4	-0.07293442
120	0xbeaa82bc	-0.33302867
121	0xbe341707	-0.17586909
122	0xbf04c87f	-0.5186843
123	0xbf1479fe	-0.57998645
124	0xbe588fe1	-0.21148635
125	0x3dfd339f	0.123633616
126	0x3cc7ccc5	0.024389634
127	0xbc97e109	-0.018539922
128	0xbd5863d7	-0.05282959
129	0xbe0a2db6	-0.13494
130	0xbecf901b	-0.4053963
131	0xbedf9476	-0.43667954
132	0xbeb4bd27	-0.35300562
133	0xbd99aa71	-0.07503212
134	0x3e5dae4e	0.21648523
135	0x3b0277f5	0.0019907926
136	0xbc624116	-0.013809463
137	0xbec92cd5	-0.39292017
138	0x3c018956	0.007906279
139	0xbeb6fb87	-0.35738775
140	0xbe33e930	-0.17569423
141	0x3ee6187e	0.4494056
142	0x3dc960df	0.0983293
143	0x3ee16cbb	0.44028267
144	0x3cc0de36	0.023543458
145	0xbdaf2931	-0.085527785
146	0xbe58c042	-0.2116709
147	0xbc189424	-0.009312663
148	0x3d7165e0	0.058935046
149	0x3d69d553	0.057088207
150	0xbd9f527e	-0.07779406
151	0xbcfb77aa	-0.030696709
152	0x3e71394d	0.23557015
153	0x3e379f2c	0.17931813
154	0x3e68b48f	0.22725128
155	0x3dc05bff	0.09392547
156	0x3e6a82b1	0.22901417
157	0x3e1e5523	0.15462165
158	0xbdaf347b	-0.08554932
159	0x3dcee58d	0.10102377
160	0x3cdb0353	0.026734984
161	0xbd5bbe75	-0.05364843
162	0xbe87acf7	-0.2649915
163	0xbe7ffbb2	-0.24998358
164	0xbdbace89	-0.09121425
165	0xbe7826e0	-0.2423358
166	0xbdcc2b59	-0.099692054
167	0xbd6a5388	-0.057208568
168	0xbe0b8e20	-0.13628435
169	0xbd5a679c	-0.053321466
170	0xbde2b64d	-0.11069927
171	0xbe7c35ae	-0.24629852
172	0xbebf3d30	-0.3735137
173	0xbe9a3019	-0.3011482
174	0xbe6e71e1	-0.23285629
175	0xbe397cbc	-0.18113989
176	0xbc628685	-0.013826017
177	0xbe82747c	-0.25479496
178	0xbdd0cc74	-0.10195246
179	0xbcc93165	-0.024559686
180	0x3e839aac	0.25703943
181	0x3d1248d2	0.035713978
182	0xbda325a1	-0.079661615
183	0x3dfe1b21	0.12407518
184	0x3df70ee8	0.1206339
185	0x3d16cf6a	0.0368189
186	0x3da90a4d	0.08253918
187	0x3e6a3c76	0.22874627
188	0xbdf004b1	-0.11719645
189	0x3dd45886	0.10368447
190	0x3e833192	0.25623757
191	0x3e867d34	0.26267397
192	0x3e37e1d7	0.17957245
193	0x3ba9e618	0.0051849
194	0x3bddb275	0.0067656585
195	0xbcb9ecc4	-0.022695906
196	0x3e22e157	0.15906273
197	0xbe07b8e0	-0.13254118
198	0x3e157d01	0.14598466
199	0x3e17749c	0.14790577
200	0xbcb5ff2f	-0.022216408
201	0x3da6759e	0.081279024
202	0xbd37a58f	-0.044835623
203	0xbe2e0f05	-0.16997917
204	0x3de9b618	0.11411685
205	0x3e503177	0.2033137
206	0xbe412161	-0.1886039
207	0x39dccd5c	0.00042114675
208	0xbd6e78e3	-0.058220755
209	0x3cc433b2	0.023950431
210	0x3d84966e	0.06474005
211	0x3d843e31	0.064571746
212	0xbd88d62c	-0.06681475
213	0x3c20e73a	0.009820754
214	0x3d7445c0	0.05963683
215	0xbd9ec92e	-0.07753216
216	0xbcd9254c	-0.026507042
217	0xbed4a732	-0.4153381
218	0xbec0f9b9	-0.37690523
219	0x3ebff1aa	0.37489063
220	0x3ccc07cd	0.024906063
221	0x3de0a705	0.109693564
222	0x3dc6d362	0.09708287
223	0x3ed6c7a1	0.4194918
224	0x3f4bd9ef	0.79629415
225	0x3cf73c60	0.030180156
226	0x3e525c7d	0.20543094
227	0x3e737190	0.2377379
228	0xbe844897	-0.25836632
229	0xbb972c92	-0.0046134675
230	0x3e093df6	0.13402542
231	0xbd8fc230	-0.0701946
232	0xbf3148aa	-0.692515
233	0xbf4602dc	-0.77348113
234	0x3e46e6be	0.19423959
235	0xbdb422f7	-0.087957315
236	0xbd2bf657	-0.041982975
237	0x3e4b885d	0.19876237
238	0x3b45fa04	0.0030208835
239	0xbd91fe77	-0.071286134
240	0x3e89f3f7	0.26943943
241	0x3e4ca791	0.19985797
242	0x3e870e78	0.26378226
243	0x3dfe64c5	0.12421564
244	0x3d4b3f60	0.049620986
245	0xbdb6ee93	-0.08932223
246	0x3eabbe5c	0.3354367
247	0x3e3b19b9	0.18271531
248	0x3e0f6fd6	0.14007506
249	0x3e60a264	0.21936947
250	0x3e0de07b	0.13855164
251	0x3e5f894d	0.2182972
252	0xbde143d3	-0.109992646
253	0xbbd4c5eb	-0.00649332
254	0x3daffcd7	0.08593147
255	0xbe2a73f2	-0.16645792

encoder_cnn.2.bias f4 [16]
0	0x3e127788	0.1430341
1	0x3cd14231	0.025544258
2	0xbcfc3366	-0.030786227
3	0xbce33714	-0.027736224
4	0x3d8fe85a	0.070267394
5	0x3c529cbe	0.012854753
6	0xbd8dd550	-0.06925452
7	0xbe05ab61	-0.13053657
8	0x3dac5bf3	0.084159754
9	0x3db832cf	0.08994066
10	0xbe17c3f4	-0.14820844
11	0x3d9f50bc	0.07779071
12	0xbcc85def	-0.024458854
13	0xbd63ba17	-0.05559739
14	0x3e116399	0.1419815
15	0x3d6507cf	0.05591565

encoder_cnn.4.weight f4 [32, 16, 3, 3]
0	0xbbd01989	-0.0063507003
1	0x3dfd3b0b	0.12364777
2	0x3e1943d9	0.14967288
3	0x3e19ca01	0.15018465
4	0x3e298ac5	0.16556843
5	0x3e42a09b	0.19006579
6	0x3e3da256	0.18518957
7	0xbe458a41	-0.19291021
8	0x3e3a95f8	0.18221271
9	0xbd0f61ad	-0.03500526
10	0x3dac052b	0.08399423
11	0xbc61d339	-0.01378327
12	0x3e0bab54	0.13639575
13	0xbe1de500	-0.15419388
14	0x3dbbcde7	0.09170132
15	0xbbab4562	-0.005226777
16	0xbe2d8893	-0.1694663
17	0x3e2f1eee	0.17101642
18	0x3e0e6917	0.13907276
19	0xbe504d73	-0.20342045
20	0xbaea4cfc	-0.0017875726
21	0xbdb67872	-0.08909692
22	0xbdadf396	-0.08493726
23	0x3d7ed898	0.06221828
24	0xbea8768f	-0.32902953
25	0x3da287a0	0.07936025
26	0xbdafc139	-0.08581776
27	0x3bec04df	0.007202729
28	0xbe6485e5	-0.22316702
29	0xbe6ecc96	-0.23320231
30	0x3da3d7e6	0.08000164
31	0xbd11fe60	-0.03564298
32	0x3da73756	0.08164851
33	0x3c9ae69f	0.018908797
34	0xbe8dd41f	-0.27700898
35	0x3d2027bf	0.039100405
36	0xbcfa5059	-0.03055589
37	0x3dde34ab	0.10849889
38	0x3c463bd8	0.012099229
39	0x3d84b508	0.064798415
40	0xbe51cdae	-0.20488617
41	0x3d7d6778	0.061866254
42	0x3debe013	0.11517348
43	0xbe475c3a	-0.19468775
44	0x3e3bd229	0.18341888
45	0xbdf73658	-0.12070912
46	0x3e3cddb6	0.18443951
47	0xbe17987c	-0.14804262
48	0xbbc70d64	-0.0060745943
49	0x3c0962fe	0.008385418
50	0xbdec7259	-0.115452476
51	0x3e497776	0.19674477
52	0xbdd00ff6	-0.10159294
53	0xbc34805b	-0.01101693
54	0x3ceeb064	0.029136844
55	0xbd668976	-0.056283437
56	0x3d519319	0.051165674
57	0xbe3a3a7d	-0.18186374
58	0x3e08e5fa	0.13368979
59	0xbe46b010	-0.194031
60	0x3cd5c7a0	0.026096165
61	0xbd99e573	-0.07514467
62	0xbdad120f	-0.0845071
63	0x3c99a52a	0.018755514
64	0xbe4ad618	-0.19808233
65	0xbe152c8c	-0.14567775
66	0xbe2b271f	-0.16714142
67	0xbdeca001	-0.11553956
68	0x3d81614e	0.063173875
69	0xbea94f37	-0.3306825
70	0x3e014805	0.1262513
71	0xbe447f77	-0.19189249
72	0xbc8aa833	-0.016925907
73	0x3e375754	0.17904407
74	0x3c1acb17	0.009447834
75	0x3d3a122c	0.045427486
76	0x3d0ad3cd	0.033893395
77	0xbde83da4	-0.11339882
78	0x3e63f3ac	0.22260922
79	0xbdfbde87	-0.12298303
80	0x3d91b5ed	0.07114778
81	0xbdd3b1d0	-0.103366494
82	0x3d76cb8c	0.06025271
83	0x3d8f13f7	0.0698623
84	0x3e354e83	0.17705731
85	0xbe9b9a36	-0.3039109
86	0x3e478bac	0.19486874
87	0xbe27dbdb	-0.16392462
88	0xbd622499	-0.055210683
89	0x3d78efa9	0.060775433
90	0x3dd8b7d9	0.10581941
91	0x3d23ae04	0.039960876
92	0x3c8547f5	0.016269663
93	0x3a8202ce	0.0009919049
94	0x3e06a5e4	0.1314922
95	0xbd306add	-0.043070663
96	0xbc57cd72	-0.013171541
97	0xbd16a70e	-0.03678041
98	0x3e37b395	0.17939599
99	0x3e238069	0.15966953
100	0xbf01e2b5	-0.5073655
101	0xbd852fca	-0.06503256
102	0xbf166f63	-0.5876371
103	0xbe15c2db	-0.14625113
104	0xbdcdff8e	-0.10058509
105	0xbef3b979	-0.47602442
106	0xbdaf872a	-0.085707024
107	0xbdacb9e8	-0.08433896
108	0x3d6f29ba	0.058389403
109	0xbef39d01	-0.47580722
110	0x3d934336	0.07190554
111	0xbe5a6b12	-0.21329907
112	0x3e23f115	0.16009934
113	0xbd93c7de	-0.07215856
114	0x3c33d783	0.010976675
115	0xbd593f4d	-0.053038884
116	0xbe1cd58a	-0.15315834
117	0xbc824520	-0.015902102
118	0xbcc07d52	-0.023497257
119	0xbe3b19d8	-0.18271577
120	0xbeea0b41	-0.4571171
121	0xbca17dc1	-0.019713284
122	0xbdbcd5b2	-0.09220447
123	0xbe6bc369	-0.23023762
124	0xbdcbae6e	-0.09945379
125	0xbe1b00c0	-0.15137005
126	0x3e053263	0.13007502
127	0x3eaa7282	0.33290488
128	0x3d6d3233	0.0579092
129	0x3e3a33e8	0.18183863
130	0xbe79fd11	-0.24412943
131	0x3e7fabfb	0.24967949
132	0x3e68140a	0.22663894
133	0xbe84fb93	-0.25973186
134	0x3eca027d	0.39455023
135	0xbe472796	-0.19448695
136	0x3d97ecce	0.07418214
137	0xbde805ea	-0.11329253
138	0xbc2603ee	-0.010132773
139	0xbe692632	-0.22768477
140	0x3dcac773	0.09901323
141	0x3e8de06b	0.2771028
142	0xbeb17854	-0.34662116
143	0xbe479e54	-0.19493991
144	0x3c81b599	0.015833663
145	0x3e143e2f	0.14476846
146	0x3e408c40	0.18803501
147	0xbd067516	-0.032826506
148	0xbebcf0c9	-0.36902454
149	0xbdd236f3	-0.10264387
150	0x3e095ec3	0.13415055
151	0x3d6cfe46	0.05785968
152	0xbcbf520c	-0.023354553
153	0xbdb87061	-0.090058096
154	0x3d974d2a	0.07387765
155	0x3e237857	0.15963875
156	0xbdad380a	-0.08457954
157	0xbe94b5b6	-0.29044884
158	0xbea4510b	-0.3209308
159	0x3d905a0a	0.070484236
160	0xbc978084	-0.018493898
161	0xbe1d9ccb	-0.15391843
162	0xbdce1599	-0.10062713
163	0xbb432c6a	-0.0029781112
164	0xbe09deed	-0.13463946
165	0x3deef8cf	0.1166855
166	0x3dc373da	0.09543581
167	0x3d737a3e	0.05944275
168	0xbcbb9363	-0.022897428
169	0xbc846821	-0.016162934
170	0x3d9a2ea9	0.07528431
171	0xbced556f	-0.028971402
172	0x3c8d1999	0.01722412
173	0x3e30aff2	0.17254618
174	0x3d761457	0.06007799
175	0xbe04a870	-0.12954879
176	0xbe57454d	-0.2102253
177	0x3d66bfa0	0.05633509
178	0xbd8a38ef	-0.067491405
179	0x3df9cdec	0.121974796
180	0x3d4d5690	0.05013138
181	0x3e5078f0	0.20358634
182	0x3e48a5b3	0.19594459
183	0x3a0c6789	0.0005356004
184	0xbdb0cc15	-0.086326756
185	0xbd965e64	-0.07342222
186	0x3e1399ff	0.14414214
187	0x3dc96afb	0.09834858
188	0x3c42670a	0.011865387
189	0x3dbb34f3	0.09140959
190	0x3e5c0c56	0.21489081
191	0x3e028791	0.12747027
192	0x3d251b5f	0.040309306
193	0xbe2d1ed1	-0.16906287
194	0xbe4e2940	-0.20132923
195	0x3e69e050	0.22839475
196	0x3e1901f0	0.14942145
197	0xbe19dec2	-0.15026382
198	0x3cf2317f	0.029564617
199	0xbdef86b6	-0.11695616
200	0xbdf5b54a	-0.11997469
201	0x3e095cee	0.13414356
202	0x3c49ffc1	0.012329043
203	0xbd95e213	-0.07318511
204	0x3d2aeedd	0.041731704
205	0xbd41877c	-0.04724835
206	0xbe2f4a62	-0.17118219
207	0x3c2569e2	0.010096045
208	0xbdfacc9d	-0.12246058
209	0xb89c2399	-7.44529e-05
210	0x3d93d569	0.07218439
211	0xbd96318f	-0.07333671
212	0xbe0cb2db	-0.13740103
213	0x3e6f682b	0.2337958
214	0xbd5c4bde	-0.05378329
215	0x3d4185e8	0.047246844
216	0x3ddb757a	0.10715766
217	0x3e1acce7	0.15117227
218	0x3e7f695a	0.24942532
219	0x3dda1bd4	0.10649839
220	0xbebc20e0	-0.36743832
221	0x3d4fe4ce	0.050755315
222	0x3d9389f6	0.07204048
223	0xbc288571	-0.010285721
224	0xbe108c17	-0.1411594
225	0xbd43050f	-0.047612246
226	0x3b15cfb8	0.0022859406
227	0xbcd1e49c	-0.025621705
228	0x3dd50bc2	0.10402633
229	0x3d93e010	0.07220471
230	0xbde2c18f	-0.110720746
231	0x3dc78b6d	0.0974339
232	0xbd25e011	-0.04049689
233	0xbc82d29f	-0.015969573
234	0x3d3fcd58	0.04682669
235	0xbe2c09ea	-0.16800657
236	0xbddc6d02	-0.10762979
237	0xbdf299ca	-0.11845739
238	0xbda7f71f	-0.082014315
239	0x3cd140ef	0.025543658
240	0x3e000746	0.12502775
241	0xbdfe7448	-0.12424523
242	0xbe1deb49	-0.15421785
243	0x3c19e073	0.009391892
244	0x3c4ff341	0.012692274
245	0xbdd36a99	-0.10323066
246	0x3d73d09b	0.059525114
247	0x3ea70777	0.32622883
248	0x3da4fbd8	0.08055848
249	0xbc5fb52d	-0.0136540355
250	0xbdb30101	-0.08740426
251	0x3e0bbd1f	0.13646363
252	0x3e1389aa	0.14407983
253	0x3e27b58a	0.16377845
254	0xbcc34be5	-0.0238399
255	0xbccfa099	-0.025345134

encoder_cnn.4.bias f4 [32]
0	0x3c874687	0.016513122
1	0xbc8a562f	-0.016886799
2	0xbca8d6fc	-0.020610325
3	0x3caa37c3	0.020778542
4	0xbda791b2	-0.08182086
5	0x3a90ea71	0.0011056197
6	0xbdf95f5e	-0.12176393
7	0xbe2b7cba	-0.16746798
8	0x3db0ced8	0.08633202
9	0x3d7b71db	0.061387878
10	0x3e5fd2c2	0.21857741
11	0xbd904d68	-0.07046014
12	0xbcbc40a8	-0.02298005
13	0x3c20e4ee	0.009820206
14	0x3e19d463	0.15022425
15	0xbe12e83b	-0.14346401
16	0xbdf56b63	-0.11983373
17	0xbd6e4f4f	-0.058181103
18	0x3ce7c829	0.028293686
19	0x3d79a8fd	0.060952175
20	0x3dc4a15b	0.096010886
21	0x3d855e83	0.06512167
22	0xbe5750df	-0.21026944
23	0xbd51ccf4	-0.05122085
24	0x3dbf5523	0.093424104
25	0xbdc345c6	-0.095347926
26	0x3d1a2423	0.03763212
27	0xbdec8652	-0.11549057
28	0xbc9d3537	-0.019190414
29	0xbdab2d80	-0.08358288
30	0xbd828a3b	-0.063740216
31	0x3e0fb4ac	0.14033765

encoder_lin.0.weight f4 [128, 288]
0	0xbce6cd60	-0.028174102
1	0x3e272a30	0.16324687
2	0x3dabfd47	0.08397918
3	0xbdd60c6b	-0.10451587
4	0xbdafe3eb	-0.08588394
5	0xbe3ce22c	-0.18445653
6	0x3e7c8fac	0.24664181
7	0x3e651dde	0.22374675
8	0x3e2b2b9f	0.16715859
9	0xbd6d6313	-0.057955813
10	0xbdd8d709	-0.1058789
11	0xbd4b85f9	-0.049688313
12	0x3da05f87	0.078307204
13	0xbd838f42	-0.06423809
14	0x3c9ce060	0.01914996
15	0xbd574a7f	-0.05256128
16	0x3e25638b	0.16151254
17	0xbca7ef84	-0.020499952
18	0xbd9bfbd7	-0.07616394
19	0xbe129cfe	-0.143177
20	0x3d645973	0.055749368
21	0xbe4ae686	-0.198145
22	0x3da303bf	0.07959699
23	0xbebb7d14	-0.36618865
24	0x3e0a7c0d	0.13523884
25	0xbe721603	-0.2364121
26	0x3d85f0e1	0.06540085
27	0xbdd48b2d	-0.10378108
28	0x3dbb70f2	0.09152402
29	0xbd84cfe6	-0.06484966
30	0xbe151e45	-0.14562328
31	0xbd86c38d	-0.06580267
32	0x3e3d02aa	0.18458048
33	0xbdb359e4	-0.0875738
34	0x3eaf63cc	0.34255826
35	0x3dc96139	0.09832997
36	0xbd536636	-0.051611148
37	0x3e22465e	0.15847155
38	0xbd654e88	-0.055983096
39	0xbb8aae5b	-0.0042322106
40	0x3e7882a4	0.24268585
41	0xbe04df9e	-0.12975928
42	0xb9214e6e	-0.00015383374
43	0x3e466f7f	0.1937847
44	0x3d72696f	0.05918258
45	0xbb951808	-0.004549984
46	0xbd02ed0f	-0.031964358
47	0x3ded72b8	0.115941465
48	0xbe1a1a99	-0.15049209
49	0x3e0dafa8	0.13836539
50	0xbcab70eb	-0.020927867
51	0x3a6e4c0c	0.00090903114
52	0x3e6a7e42	0.22899726
53	0x3d3272c4	0.04356648
54	0x3db0cd67	0.086329274
55	0x3dd1b690	0.10239899
56	0x3e2a546a	0.16633764
57	0x3e030e60	0.12798452
58	0x3d880c89	0.06643016
59	0xbdad61e9	-0.084659405
60	0x3c2e2d71	0.010630951
61	0x3db4c0fd	0.08825872
62	0x3d4fb83e	0.050712816
63	0xbc75a5e4	-0.014993165
64	0x3dffde2a	0.12493546
65	0x3c04bb67	0.008101321
66	0xbdb6078b	-0.088881575
67	0x3cd4a35e	0.025956806
68	0x3d058dc0	0.032605886
69	0x3c1c4c64	0.009539697
70	0xbdaffc66	-0.08593063
71	0xbc522be1	-0.012827844
72	0x3d534d13	0.051587176
73	0x3e4371ed	0.19086428
74	0x3e1f4b44	0.15556055
75	0xbe41cf96	-0.18926844
76	0x3e110cc3	0.14165024
77	0x3e14e4d2	0.14540413
78	0xbd60b0b0	-0.054856002
79	0xbca118ea	-0.0196652
80	0x3cbbfe27	0.022948338
81	0xbd3f8aba	-0.04676316
82	0xbca7ec82	-0.020498518
83	0xbc2fd881	-0.010732771
84	0xbec2af8a	-0.3802455
85	0x3bf78dd7	0.0075547504
86	0x3a7ce790	0.00096475426
87	0xbd4527db	-0.048133712
88	0xbd811e58	-0.06304616
89	0xbe58a010	-0.21154809
90	0xbd067cd3	-0.032833885
91	0x3dbd84fc	0.092538804
92	0xbe613a56	-0.2199491
93	0x3e098b39	0.13432015
94	0x3df791ae	0.12088333
95	0xbd90dbbd	-0.07073162
96	0x3c6587e7	0.014009452
97	0x3e6d2cc3	0.23161606
98	0x3c369d48	0.011145897
99	0x3d7fb13b	0.06242488
100	0x3db155c2	0.08658935
101	0x3e4ef291	0.20209719
102	0xbd09d63d	-0.03365158
103	0x3cdec22e	0.027192201
104	0x3db4c5d9	0.08826799
105	0xbe1afa78	-0.15134609
106	0xbdb9ad9b	-0.09066316
107	0xbd0e8741	-0.034796957
108	0xbbd23476	-0.0064149452
109	0x3dd18422	0.102302805
110	0xbbd68845	-0.0065470063
111	0xbe81f611	-0.25383046
112	0xbd9128a6	-0.07087831
113	0x3db1759d	0.08665011
114	0x3e25445d	0.1613936
115	0xbe3cc8e5	-0.1843601
116	0x3b46e311	0.0030347744
117	0x3c93c1c0	0.018036723
118	0x3d7c0a37	0.06153318
119	0xbca4c62f	-0.020114033
120	0x3e83ac60	0.2571745
121	0xbccda3ba	-0.025102485
122	0xbc985153	-0.018593466
123	0x3e5fa7f9	0.2184142
124	0xbe2cd198	-0.16876829
125	0xbd41d600	-0.047323227
126	0x3df49be8	0.11943799
127	0xbd326cef	-0.04356092
128	0xbbd5f894	-0.006529877
129	0x3e794fbe	0.24346825
130	0x3d4d2eaa	0.05009333
131	0x3de0b3bf	0.10971784
132	0x3e5296e0	0.20565367
133	0x3e30c04f	0.1726086
134	0x3d300bf4	0.04298015
135	0xbe8579a6	-0.26069373
136	0xbece1835	-0.40252843
137	0xbdf6f376	-0.12058155
138	0x3d37417a	0.044740178
139	0xbda73091	-0.0816356
140	0xbe425e5f	-0.18981312
141	0xbd74b092	-0.059738703
142	0x3dfe7a51	0.12425674
143	0x3b506278	0.0031796973
144	0x3e247ffa	0.16064444
145	0xbd963e76	-0.07336132
146	0x3daefff7	0.08544915
147	0x3e40a2d3	0.18812113
148	0x3dbe01b5	0.09277669
149	0xbd116dc6	-0.03550508
150	0x3d8773d5	0.0661389
151	0x3e9d0cb4	0.30673754
152	0x3c4a1066	0.012333011
153	0x3e1a42e4	0.15064579
154	0x3daf22ab	0.08551534
155	0x3ccf2986	0.025288355
156	0x3dca8a22	0.09889628
157	0xbe63b784	-0.22237974
158	0xbe38c225	-0.1804281
159	0x3d9962ab	0.074895225
160	0xbbc5593c	-0.0060226005
161	0x3d002749	0.031287465
162	0x3d80f19e	0.06296085
163	0xbdfa20e9	-0.12213308
164	0x3d225b7b	0.039638024
165	0xbef15134	-0.47132266
166	0xbed94711	-0.42437032
167	0xbe39867a	-0.18117705
168	0xbd9f8f91	-0.07791055
169	0xbeedb1bc	-0.46424663
170	0x3e27c0eb	0.16382186
171	0xbdc21cc8	-0.09478146
172	0xbe11bd39	-0.14232339
173	0x3dbb41fc	0.09143445
174	0xbd9cdbc8	-0.076591074
175	0xbe21f71d	-0.15816922
176	0xbd7133f7	-0.05888745
177	0x3d40497e	0.046945088
178	0x3f015e57	0.50534576
179	0x3d72db2b	0.059291046
180	0xbd171937	-0.03688928
181	0xbd2c0132	-0.041993327
182	0xbe2f6286	-0.17127427
183	0xbe36716a	-0.17816702
184	0xbd01ad7b	-0.031659584
185	0xbda8d3fc	-0.08243558
186	0x3ca2ea7d	0.019887203
187	0xbd1e0550	-0.038579285
188	0x3ddb2f25	0.107023515
189	0xbc5b8686	-0.013398772
190	0xbd9f0e51	-0.077664025
191	0xbe117746	-0.14205655
192	0xbe2ff06b	-0.17181556
193	0xbd93fd36	-0.072260305
194	0x3e8bfeeb	0.27342924
195	0xbd20a582	-0.03922034
196	0xbd8e3a68	-0.06944734
197	0x3ca08e02	0.019598965
198	0x3dae109f	0.08499264
199	0x3e48d23c	0.19611448
200	0xbdcf3544	-0.101175815
201	0x3af37b6e	0.0018576214
202	0xbe38c451	-0.18043639
203	0xbecee2bf	-0.4040737
204	0x3dbc2ce0	0.09188247
205	0x3ba84a2a	0.005135794
206	0xbdc9d27e	-0.09854601
207	0x3c4f746c	0.0126620345
208	0xbd3c47c5	-0.045966882
209	0x3dcababf	0.098989
210	0xbe918635	-0.28422704
211	0x3dc95f78	0.09832662
212	0xbdcba8bd	-0.09944294
213	0xbcae66b6	-0.02128921
214	0xbeb0f8b0	-0.34564734
215	0x3cf04b35	0.029332737
216	0x3d950b1b	0.07277509
217	0xbddcc775	-0.10780231
218	0xbc697895	-0.01424994
219	0xbe2d9738	-0.16952217
220	0x3eea2281	0.4572945
221	0xbd1173b4	-0.035510734
222	0x3dd1a2e5	0.10236148
223	0x3dccebf2	0.100059405
224	0xbdce8419	-0.100837894
225	0xbe3ccfd6	-0.18438658
226	0xbe914cb1	-0.28378823
227	0x3c556438	0.013024382
228	0xbe00a497	-0.12562786
229	0xbf1a524a	-0.60281813
230	0xbd354f8e	-0.044265322
231	0xbd8d43f2	-0.06897725
232	0xbd30aef3	-0.043135595
233	0xbea1a662	-0.31572253
234	0xbc6bbba6	-0.014388001
235	0xbcf782f0	-0.030213803
236	0x3ba271c3	0.004957409
237	0xbccd1523	-0.025034493
238	0xbbc5055a	-0.006012601
239	0x3d243ba9	0.04009596
240	0x3de65057	0.11245792
241	0xbde480dc	-0.111573905
242	0xbdc99491	-0.0984279
243	0x3e2d619a	0.16931763
244	0xbbf73145	-0.007543715
245	0x3dde741e	0.10861991
246	0x3e76388f	0.24045013
247	0x3ecca75b	0.39971432
248	0x3d6eebc8	0.058330327
249	0x3e4e039e	0.20118567
250	0x3de5f579	0.11228461
251	0x3c07f033	0.008297014
252	0xbd08b527	-0.033375885
253	0xbe3f73c3	-0.18696503
254	0x3ccc04c6	0.02490462
255	0xbe96feb6	-0.29491204

encoder_lin.0.bias f4 [128]
0	0xbd955d6b	-0.07293209
1	0x3a04523f	0.0005047656
2	0xbdd5b098	-0.10434073
3	0xbd8b80ab	-0.06811651
4	0x3c9cc893	0.01913861
5	0xbcc1d233	-0.023659801
6	0x3ce8d108	0.028419986
7	0x3d0785cd	0.033086587
8	0xbd0a5545	-0.033772726
9	0x3c038143	0.008026424
10	0x3d58aea2	0.052900918
11	0xbd4fd1d0	-0.050737202
12	0x3dbd833d	0.09253547
13	0xbe071f77	-0.13195597
14	0xbd6ba85f	-0.057533618
15	0xbce915c2	-0.028452758
16	0xbddf24fe	-0.108957276
17	0xbc36b233	-0.011150884
18	0xbdb319e5	-0.08745173
19	0xbdefa9c1	-0.117023
20	0x3d361c3f	0.04446053
21	0xbd8dec91	-0.06929887
22	0xbda88def	-0.08230197
23	0xbdf344ba	-0.11878343
24	0x3dfa4209	0.122196265
25	0x3d684b9f	0.056712743
26	0xbe127dfa	-0.14305869
27	0x3c66865d	0.014070121
28	0xbd924db9	-0.07143731
29	0xbd273f40	-0.040831804
30	0xbc9f07b8	-0.01941286
31	0x3c9efc18	0.019407317
32	0xbd23c318	-0.039980978
33	0xbd12f85b	-0.03588138
34	0x3d4b4a88	0.049631625
35	0xbd52e867	-0.051491167
36	0xbd08d31e	-0.033404462
37	0xbdda176b	-0.10648998
38	0x3dd352b7	0.10318511
39	0xbcdb9428	-0.026804045
40	0xbb72851b	-0.0037005607
41	0x3d8bd2cd	0.068273164
42	0xbdd16015	-0.10223404
43	0x3e045c63	0.12925868
44	0xbdb91222	-0.09036662
45	0x3b33fcbb	0.0027463872
46	0xbd492333	-0.049105834
47	0x3c28cded	0.010303003
48	0x3d841d06	0.06450848
49	0xbc0fd920	-0.008779794
50	0xbde4069a	-0.11134072
51	0x3d8b2f5d	0.06796143
52	0xbd61f635	-0.055166442
53	0xbde05c1d	-0.10955069
54	0xbda0373f	-0.07823037
55	0x3c9f14cd	0.019419098
56	0xbd7b11c8	-0.061296254
57	0xbd45dffe	-0.04830932
58	0xb9cff97c	-0.00039667997
59	0xbe139508	-0.1441232
60	0x3dda9d4a	0.10674532
61	0x3dfb70c4	0.12277368
62	0xbdb539e2	-0.08848931
63	0xbda3a8a7	-0.07991152
64	0xbb958201	-0.004562617
65	0xbdc36ed6	-0.09542625
66	0xbd5b0571	-0.053471986
67	0xbd8bd894	-0.068284184
68	0x3d2b6437	0.04184362
69	0x3c9964ca	0.018724818
70	0xbd72c01b	-0.059265237
71	0x3c9bb555	0.019007364
72	0xbcee5a3b	-0.02909576
73	0x3c66df22	0.014091285
74	0x3dbe9d49	0.093073435
75	0x3d2be669	0.041967783
76	0xbd302fba	-0.043014266
77	0xbba543e3	-0.005043493
78	0xbdccce47	-0.10000282
79	0xbcfa3e2c	-0.030547224
80	0xbd9b4b24	-0.07582691
81	0xbddca0e5	-0.10772876
82	0x3e3f5c3c	0.18687528
83	0x3da100ee	0.078615054
84	0x3bda1dc2	0.0066563794
85	0xbdf7616a	-0.12079127
86	0xbd3c2311	-0.04593188
87	0xbdc01b36	-0.0938019
88	0xbe2a33c4	-0.1662131
89	0xbb950e69	-0.004548837
90	0xbc9912c6	-0.01868571
91	0xbd2952ac	-0.041338608
92	0xbcee3adb	-0.029080799
93	0xbdc1f90f	-0.09471332
94	0xbd5f7e52	-0.054563828
95	0xbdfe5152	-0.12417854
96	0xbd73194c	-0.059350297
97	0x3d09cd77	0.033643212
98	0xbd14f1d0	-0.036363423
99	0xbd47f64b	-0.048818868
100	0x3bdaf5f7	0.0066821533
101	0xbd1d566e	-0.038412504
102	0x3dec1e8e	0.11529265
103	0xbb3cdc2e	-0.002881776
104	0xbdb0309d	-0.08603022
105	0x3d913894	0.070908695
106	0x3d93ca81	0.07216359
107	0xbd1a4b1a	-0.03766928
108	0xbdf43cc5	-0.11925653
109	0x3cfdb943	0.030972129
110	0x3d7d0e5f	0.061781283
111	0x3c442657	0.011972032
112	0xbd3fcd93	-0.04682691
113	0xbca4a83b	-0.02009975
114	0xbdc494a0	-0.095986605
115	0xbc1a9a1b	-0.009436156
116	0x3d404229	0.046938095
117	0xbdaf7e91	-0.085690625
118	0xbd9d1878	-0.07670683
119	0xbe32198e	-0.17392561
120	0xbbb557c3	-0.0055341437
121	0x3d986d3b	0.07442709
122	0xbddb7b16	-0.10716836
123	0xbdf7e4cb	-0.12104186
124	0xbd9a493f	-0.07533502
125	0xbd27bd11	-0.040951792
126	0xbe19e534	-0.1502884
127	0xbd4ef189	-0.050523315

encoder_lin.2.weight f4 [4, 128]
0	0x3efc137c	0.49233615
1	0x3eb61b01	0.35567477
2	0xbdd20759	-0.10255308
3	0x3e66303a	0.22479334
4	0xbd3f273b	-0.046668272
5	0x3d2e70d4	0.04258807
6	0x3ec12f88	0.37731576
7	0x3bcc8f5c	0.0062426757
8	0xbdcfb01b	-0.10141011
9	0xbd4df239	-0.05027983
10	0xbf0f3621	-0.5594197
11	0xbccdb2f8	-0.025109753
12	0x3dff297c	0.124590844
13	0x3f12503e	0.5715369
14	0x3c09bd69	0.008406975
15	0x3eccc4a7	0.39993784
16	0x3c82a41e	0.015947398
17	0xbd206c1e	-0.03916561
18	0xbc9a4880	-0.018833399
19	0xbdd32aa9	-0.10310871
20	0xbe9b018d	-0.3027462
21	0x3e1539e3	0.14572863
22	0xbd92704a	-0.07150324
23	0x3c535743	0.012899223
24	0xbc2e116e	-0.010624273
25	0x3d8bba6e	0.06822668
26	0x3de09512	0.10965933
27	0xbea1b155	-0.31580606
28	0x3eaa8a27	0.33308527
29	0x3db96a06	0.090534255
30	0xbdcfe30d	-0.101507284
31	0x3a720f95	0.0009233889
32	0xbcd9100c	-0.02649691
33	0xbeac2176	-0.3361928
34	0x3dc05963	0.09392049
35	0x3e1cb87f	0.15304755
36	0xbef6bd0c	-0.48191106
37	0x3e50eb4c	0.20402259
38	0xbcf9649a	-0.030443478
39	0xbe20b2c4	-0.15693194
40	0x3e735c3b	0.23765652
41	0x3ccbbb5f	0.024869619
42	0xbd8a5046	-0.06753592
43	0x3dd6abc7	0.10481983
44	0xbd5481f4	-0.051881745
45	0x3ec7d6ba	0.3903101
46	0x3caf7142	0.02141631
47	0xbd82a146	-0.06378417
48	0x3de9c9ba	0.114154294
49	0xbd8a62f0	-0.06757152
50	0x3ecec306	0.40383166
51	0xbe426900	-0.18985367
52	0x3c86ccbe	0.01645505
53	0xbd04234f	-0.032260235
54	0xbdb69921	-0.08915926
55	0xbe0b6872	-0.13614061
56	0xbe8dc5e2	-0.27690035
57	0x3e94c906	0.2905962
58	0x3b964837	0.0045862454
59	0x3e28b2db	0.16474478
60	0xbcaa413f	-0.020783065
61	0x3dc58b6d	0.09645734
62	0xbc6a0b0b	-0.014284859
63	0xbd96ac14	-0.0735704
64	0xbe802446	-0.25027674
65	0xbdeb20cc	-0.11480865
66	0xbdf2bb33	-0.11852112
67	0xbe37bf4f	-0.17944072
68	0xbefbe903	-0.4920121
69	0xbea219a4	-0.31660187
70	0x3d093ede	0.03350722
71	0x3dbfa59e	0.09357761
72	0xbe4aec63	-0.19816737
73	0x3d92a6e3	0.07160737
74	0xbd91e3a6	-0.071234986
75	0xbca51420	-0.020151198
76	0x3ce083dd	0.027406627
77	0xbe2d5241	-0.16925909
78	0xbd6ca2ea	-0.057772554
79	0xbd784bcc	-0.06061916
80	0xbe7ae897	-0.24502788
81	0xbd960873	-0.0732583
82	0xbc662a9e	-0.014048247
83	0x3d4d047b	0.0500531
84	0x3d814823	0.06312587
85	0x3e02f520	0.1278882
86	0xbe531ca6	-0.20616397
87	0x3d2a08e5	0.04151239
88	0x3d9a1b58	0.07524747
89	0xbdbdbfa1	-0.09265066
90	0xbd25616f	-0.040376123
91	0x3e85b280	0.26112747
92	0xbe14f744	-0.1454745
93	0xbce7939a	-0.028268624
94	0xbd88cb50	-0.06679404
95	0xbbc2a36e	-0.0059398925
96	0x3d8868c0	0.066606045
97	0x3aee17e0	0.0018165074
98	0x3d22c05b	0.039734226
99	0x3d37869a	0.0448061
100	0xbeaad25f	-0.33363625
101	0xbea62c10	-0.32455492
102	0x3d83c285	0.06433586
103	0xbd31c419	-0.043399904
104	0xbc306e47	-0.01076848
105	0xbdc0540e	-0.09391032
106	0xbe37405c	-0.17895645
107	0x3db4c2a1	0.08826185
108	0x3d89aa6b	0.06721958
109	0xbe7a7189	-0.24457373
110	0xbda9a762	-0.08283879
111	0x3f053f21	0.5204945
112	0x3bd505d5	0.0065009394
113	0xbc002500	-0.0078213215
114	0xbe3bf65e	-0.183557
115	0xbe05c9d8	-0.13065279
116	0x3df77628	0.120830834
117	0xbd22df5b	-0.03976379
118	0xbd9067ee	-0.07051073
119	0xbed0fc41	-0.40817454
120	0xbe04eddb	-0.1298136
121	0x3e0db497	0.13838421
122	0x3dd1d8b8	0.10246414
123	0x3e6c497c	0.23074907
124	0x3e07966e	0.13240978
125	0x3e85bc1e	0.26120085
126	0x3ebe51ee	0.37171882
127	0x3d93a69f	0.07209515
128	0xbe0aad4c	-0.1354267
129	0x3d0f480d	0.034980822
130	0xbd6ac6af	-0.057318386
131	0xbe0955bd	-0.13411613
132	0x3d976fa1	0.073943384
133	0xbe0e0ba1	-0.13871624
134	0x3e886c3c	0.26645076
135	0xbd90bfa9	-0.07067806
136	0x3e80f13f	0.25184056
137	0x3de9de70	0.1141938
138	0x3e93ffcd	0.28906098
139	0xbe17a86a	-0.14810339
140	0xbe574ef7	-0.21026216
141	0x3e8b1f46	0.27172297
142	0xbe1deb36	-0.15421757
143	0xbeb6db2d	-0.35714093
144	0xbe4183a2	-0.1889787
145	0xbe373a4a	-0.1789333
146	0xbdf8cfe6	-0.121490285
147	0xbe2d4ab4	-0.16923028
148	0x3e58f1dc	0.21186012
149	0xbe87fa71	-0.2655826
150	0xbdf3bd9a	-0.11901398
151	0xbe32eae9	-0.17472424
152	0x3d8a27ec	0.06745896
153	0xbccc8b9d	-0.024968917
154	0xbd056e3d	-0.032575835
155	0x3dc58131	0.09643782
156	0xbe4c4575	-0.19948371
157	0xbd9b5244	-0.0758405
158	0xbe2cf432	-0.16890028
159	0x3d062dfe	0.032758705
160	0x3dc886d4	0.097913414
161	0x3c413818	0.011793159
162	0x3dd07677	0.101788454
163	0xbdefe33d	-0.11713264
164	0xbe36d6dc	-0.178554
165	0xbc8d85dc	-0.017275743
166	0x3da2f0d8	0.079560935
167	0xbe4f1ce8	-0.2022587
168	0xbee6af5a	-0.45055658
169	0x3dcdae87	0.10043054
170	0xbdb64d50	-0.08901465
171	0x3d9602b0	0.07324731
172	0xbdcfe779	-0.10151572
173	0xbda1b852	-0.078964844
174	0xbe3226db	-0.17397635
175	0x3e8e3646	0.27775782
176	0xbcb94267	-0.02261467
177	0x3e7fa8df	0.24966763
178	0xbe5f4e50	-0.21807218
179	0xbde0ae45	-0.10970739
180	0xbd94a152	-0.07257332
181	0xbdfb8fc2	-0.12283279
182	0xbe1ee69a	-0.15517655
183	0x3e128ecf	0.1431229
184	0xbdf7528e	-0.12076293
185	0xbe721a86	-0.2364293
186	0xbe2e7bb1	-0.17039372
187	0xbdac6cc3	-0.08419182
188	0x3d75b8e9	0.059990797
189	0x3daec6d1	0.08534015
190	0xbdb16be3	-0.08663156
191	0xbe1fe882	-0.15616038
192	0x3e88873b	0.26665673
193	0xbe5353c9	-0.2063743
194	0xbde4204b	-0.11138972
195	0xbdbf4936	-0.09340136
196	0x3e84ae60	0.25914288
197	0x3e607595	0.21919854
198	0x3c4e9d94	0.012610812
199	0x3e347e3a	0.17626277
200	0xbdc26db2	-0.09493579
201	0x3e5d33cc	0.2160179
202	0xbd18cd35	-0.037305076
203	0x3dd57f54	0.104246765
204	0xbd7e1304	-0.062029853
205	0xbeb0fc95	-0.34567705
206	0xbe198a33	-0.14994125
207	0xbd211965	-0.03933086
208	0xbe1a7741	-0.15084554
209	0xbe333385	-0.17500122
210	0x3df5bedb	0.119992934
211	0x3e0d0287	0.13770495
212	0x3e00f895	0.12594827
213	0xbdfda756	-0.123854324
214	0x3daff41e	0.085914835
215	0xbe49ea99	-0.19718398
216	0xbe1e9226	-0.15485439
217	0xbd8f8027	-0.07006865
218	0xbc44821e	-0.011993913
219	0xbda407f4	-0.080093294
220	0xbe16cc1a	-0.14726296
221	0xbdfb711b	-0.122774325
222	0xbdb19253	-0.08670487
223	0xbe1dc354	-0.15406543
224	0xbd9d3f98	-0.07678145
225	0x3e0d2a35	0.13785632
226	0x3d18acfd	0.03727435
227	0xbd54450d	-0.051823664
228	0x3e1f538d	0.15559216
229	0x3ed2247e	0.41043466
230	0xbc261940	-0.010137856
231	0x3e0ac04c	0.13549918
232	0xbdac3387	-0.084082656
233	0xbe045ebe	-0.12926766
234	0x3d9dd85c	0.07707283
235	0xbdba7232	-0.09103812
236	0xbe330671	-0.17482926
237	0x3ce0cb10	0.027440578
238	0xbd921f85	-0.07134918
239	0xbe8960f1	-0.26831773
240	0x3e620227	0.22071134
241	0xbddeb448	-0.1087423
242	0xbea4af70	-0.32165098
243	0x3dcc506a	0.09976275
244	0x3c45337f	0.012036203
245	0xbe416a23	-0.18888144
246	0xbe232c00	-0.15934753
247	0x3ec68e30	0.38780355
248	0xbd066ee3	-0.032820594
249	0xbc269f6d	-0.010169846
250	0x3d0b90cf	0.034073647
251	0x3eb00f2c	0.34386575
252	0x3ee3f871	0.44525483
253	0xbdd25ece	-0.10271989
254	0x3d575805	0.052574176
255	0x3eb62756	0.35576886

encoder_lin.2.bias f4 [4]
0	0xbd1cb8c5	-0.038262147
1	0x3caddfdd	0.02122491
2	0x3d5f94fe	0.05458545
3	0xbc85064b	-0.016238352
