weights/encoder_weights_06072023c.pth (torch, 177671 bytes, 10 tensors)

encoder_cnn.0.weight f4 [8, 1, 3, 3]
00000000: 2290 3bbf 7afa 34be 4309 0ebf e05a edbe
00000010: 9189 c7bd dc76 24bf 6be9 513c 8170 debd
00000020: 1f98 cbbd ca01 eebb d987 263f 35d1 923e
00000030: 6e2b ff3e 6716 483f 2b12 5d3e e4d7 c93e
00000040: 8966 b83d 93ca 82bc f829 22be 67f3 14bf
00000050: 5cac d1be 1b15 023e 327f f4be 43e9 cabe
00000060: b89e aebd e215 3d3e 0e89 b63e 9463 72be
00000070: b96d 39bd 0519 9f3b dfe4 02bf da34 d4be
00000080: bb24 edbe d764 203c a419 22be 5f92 2abe
00000090: c2bd adbe dd83 cb3e 80fe 82bc 95f0 17be
000000a0: c70c a83e d533 2ebb 8f65 0b3e 14f5 fa3e
000000b0: a9e1 853e b31f 2d3e 27dd 20bd 9333 853e
000000c0: 5d7b fb3e 6517 e83e 4278 913e f3b3 c13e
000000d0: b9a0 663e 22e2 dc3d c34c 813e b5bc cbbc
000000e0: 4481 093d eedb f7bd 9316 ac3e e4f2 063e
000000f0: 2ac4 ff3e 5a57 4d3f 744d 7c3e 9424 b0be
00000100: 07f3 9dbd 7873 ad3e 22a5 4aba 1291 bb3e
00000110: 05e1 fc3e f98c c0be c098 623e 09d9 013f
-0.73266804 -0.17673674 -0.5548288 -0.46358395 -0.097430356 -0.64243865 0.012811999 -0.10861302
-0.09941124 -0.007263397 0.6505104 0.28675237 0.49837822 0.78159183 0.21588962 0.39422524
0.09003932 -0.015965736 -0.15836322 -0.581839 -0.40951812 0.12703364 -0.47753292 -0.3963109
-0.08526367 0.18465379 0.3565144 -0.23670799 -0.045270655 0.0048552775 -0.5113048 -0.41446573
-0.46317086 0.009789667 -0.15830094 -0.16657399 -0.33933836 0.3974904 -0.015990496 -0.14837869
0.32822248 -0.0026581187 0.1361296 0.49015105 0.26148728 0.16906624 -0.039273407 0.2601591
0.49117556 0.4533035 0.28412062 0.37832603 0.22522248 0.10785319 0.25253877 -0.024870256
0.033570543 -0.12102495 0.33610973 0.13178593 0.4995435 0.8021141 0.24638921 -0.34402907
-0.077123694 0.33877158 -0.0007730295 0.36634117 0.49390426 -0.37607554 0.22128582 0.50721794

encoder_cnn.0.bias f4 [8]
00000000: 5c0c 23ba 6202 2fbc ee3c a33e d63b ae3e
00000010: 2406 7ebe 4358 43be 4b86 62be b801 073e
-0.0006219798 -0.01068172 0.31882423 0.34030026 -0.2480703 -0.19076638 -0.22121541 0.1318425

encoder_cnn.2.weight f4 [16, 8, 3, 3]
00000000: 55e9 b0bd 7f39 f83d 2500 1abe 65c9 2bbe
00000010: 9771 5a3c db42 a3be f67c 55be be60 033e
00000020: 010b c0bc 0471 8b3d f825 25bf eecc d43b
00000030: 3eb4 24be ea38 2dbf b640 433d 4b22 79be
00000040: e4a2 cdbe f325 dabc 7253 323d afd9 513e
00000050: ce50 b3ba 2120 cf3d 97b1 26bd 82b0 50bd
00000060: 5dcb f8bc 6a98 f63d f6a5 75bd bda3 8abd
00000070: adcc 513e 05e4 3b3a 0712 68bc 2424 e03d
00000080: 3d0b 943c 3b9c 3abd 7c25 253e a312 a4bd
00000090: 423e 9cbd 18bd 41be a7e9 00ba 27b1 14bd
000000a0: db43 21be 41e6 383d 3413 1bbe 0d87 dbbd
000000b0: b970 debd fd68 e1bb ab4a c8be cb5a 863d
000000c0: 5f34 053d 6708 91be 3168 593e d572 a23d
000000d0: aa11 92be 7620 463e 73c4 adbd d778 0fbe
000000e0: c251 14bd ecbc 25be 17e2 20be 6530 f9bc
000000f0: 2f30 f23c 8d0f adbe 5f92 e43d 21eb 3abe
00000100: 3611 dfbd 2281 553e 20d9 4dbe abce aabd
00000110: 1b36 913e 22eb 08be 4886 c1bc 5461 e23d
00000120: af89 adbe fab3 acbd ae0f 61bd def2 5a3e
00000130: 778c 0fbf e58d 4abd b675 9b3d 3b42 39bc
00000140: 0860 6cbe 831c ad3d 2623 02bd 6340 81be
00000150: 43f0 80be e2a7 1abf 1792 1bbe 8263 03bf
00000160: a0d7 8c3d 702f 1abd 88b8 3f3d bc70 2e3e
00000170: 627a b83c d32a cb3d 471e 363e 3e38 833e
00000180: e54e 673c 67cf 023e be45 77bd 08a7 343d
00000190: 22f1 773e 9366 063e 755e 4c3e e66c 9d3d
000001a0: fd7f e23d 251b 6c3e eca4 b03c 86f2 2abe
000001b0: 8d18 06be 468e 3cbe f5a9 a2be 0c4c 35be
000001c0: c66d 18be 917d c93c 8afe 12bd 97c1 9ebd
000001d0: dd0b 6f3d f5c7 ddbc f65f 14be a2fe 87be
000001e0: a9f1 b9be c608 99be e70e 60be 77ea e3be
000001f0: 3df8 d4bd 7d90 323e a1c2 ea3a acc5 ecbd
00000200: 383e 6bbe 540b 22be 14a8 82be fd8f 3ebe
00000210: 4fb8 a0be 2739 ccbd f6e0 173e a165 fcbc
00000220: 08b3 3cbe 1b21 e7bd f6eb 083e 4d9f 833c
00000230: 5887 a13d bbd6 973e 8787 f63d 2359 543e
00000240: 3d93 4ebd a09c d23c ff81 863d 76f6 49be
00000250: 52b2 7cbd fcff bb3d 14d2 dabd 736a ad3b
00000260: 84a4 393e 2af1 953e 5a36 503e 8e04 aa3c
00000270: d7af e13e 3876 a73e d75d 5dbd d91d 7f3e
00000280: 1fec 8c3d 765e 1e3d eb31 f3bd f5f0 30bc
00000290: 7af2 213e 7f3c 1ebe 7aee 00be 5895 4f3c
000002a0: ab44 14bd 75a9 1cbd 0065 f2bc 16be 52be
000002b0: 4d12 49be 1dbd 96bb 5c8f 6abe e34b 56be
000002c0: 36e4 f43d f1e0 9dbd 704b 8b3d 03cc 653d
000002d0: 4b23 ff3d 8c6c 5a3d 9bcb a8bd 1ce6 fe3d
000002e0: 1a55 1a3e d24e 89bd b708 103c 551d a53d
000002f0: 1610 cbbd e3d8 283e cfc4 2e3e 01a9 a93d
00000300: 8d74 933e d173 9a3d 3741 dbbd 8342 303b
00000310: 1335 623d c898 ddbd f0f3 383e 9447 233d
00000320: 7adf 93bd 61c6 1c3e e370 13bd 5032 34be
00000330: dd1e f03d 0ef1 773c de76 9dbd 77c6 b43c
00000340: 4c63 903d 2f53 52bd a41c 433e 14ae 1e3e
00000350: e356 e7bd 866d 18bd 6e8b a93d c2f6 c03d
00000360: 0234 c4bc c050 a1bd 751d 09be 1708 d13e
00000370: c49e 7bbe 4f31 c2bd e6ac e9bb e1d6 e53d
00000380: bb8a b83e 6914 b73b ed2f 953c 866d 873d
00000390: 2a75 cfbe 49e4 52be 3fa6 b7bd f027 bc3c
000003a0: 7888 3bbe 6f54 c9be 5fc0 393c 485f 8e3d
000003b0: 2025 17bd 94c1 453e 220b 4f3d bde6 6d3d
000003c0: 5c9d de3d 76f3 ee3d a447 963c 318a ca3c
000003d0: 4b4c 2f3e d25a 963c b582 9a3e 03c3 5d3e
000003e0: 906f 033e e372 1d3e cbf2 de3d 0c75 473e
000003f0: b661 43be 334e 71bd 900c c43c 2e66 0abe
-0.086382546 0.121203415 -0.15039118 -0.16776045 0.013332746 -0.31886944 -0.2084845 0.12829873
-0.023442747 0.068086654 -0.6451106 0.006494156 -0.16084382 -0.6766497 0.047669135 -0.24329488
-0.40163338 -0.026629424 0.04353661 0.20493196 -0.0013680698 0.1011355 -0.040696707 -0.05094958
-0.030370409 0.120407894 -0.059972726 -0.06769512 0.20488234 0.00071674614 -0.014164454 0.10944393
0.018071765 -0.04555915 0.1612758 -0.08011367 -0.07629062 -0.1891979 -0.00049176294 -0.03630176
-0.15748541 0.045141462 -0.15144044 -0.10719118 -0.10861344 -0.0068789707 -0.39119467 0.06560286
0.032520648 -0.28326723 0.21231152 0.07932059 -0.28529102 0.1934832 -0.08484735 -0.1401094
-0.036210783 -0.16185349 -0.15711246 -0.030418584 0.029563991 -0.33800927 0.111607306 -0.18253757
-0.108919546 0.20850042 -0.20102358 -0.083402 0.28361592 -0.13370946 -0.0236236 0.1105372
-0.33894107 -0.08432765 -0.054946594 0.21381709 -0.5607371 -0.049451727 0.07590811 -0.0113072945
-0.23083508 0.08452704 -0.0317718 -0.25244436 -0.25183305 -0.6041242 -0.15192448 -0.5132371
0.06877065 -0.037642896 0.046806842 0.17035192 0.022519294 0.099202774 0.17784987 0.25628847
0.014117931 0.1277443 -0.060369246 0.044104606 0.24213079 0.13125066 0.19957907 0.07686786
0.11059568 0.2305723 0.021563016 -0.16694078 -0.13095303 -0.18413648 -0.31770292 -0.17704791
-0.14885625 0.024596008 -0.03588728 -0.07751768 0.058360923 -0.027072886 -0.14489731 -0.26561457
-0.36317185 -0.29889506 -0.21880685 -0.4451482 -0.1039891 0.1743793 0.0017910787 -0.115611404
-0.22972953 -0.15824634 -0.25518858 -0.18609615 -0.31390616 -0.099718384 0.1483191 -0.03081018
-0.1842767 -0.11285611 0.13371262 0.016067171 0.07887143 0.29656014 0.120375685 0.20737128
-0.050433386 0.02570945 0.065677635 -0.19722924 -0.061693497 0.091796845 -0.106846005 0.0052922308
0.18129164 0.29285556 0.20333233 0.020754125 0.44079468 0.3270738 -0.05404457 0.2491373
0.06880974 0.038664304 -0.118747555 -0.010799636 0.15815154 -0.15452765 -0.12590972 0.012669884
-0.0361983 -0.038247544 -0.029589176 -0.20580325 -0.19635887 -0.004600181 -0.2290625 -0.20927386
0.1195759 -0.0770892 0.06801498 0.056102764 0.124579035 0.053326175 -0.0824196 0.12446234
0.15071526 -0.06704487 0.00879114 0.08062235 -0.099151775 0.16488986 0.17067264 0.08284188
0.2879986 0.075416215 -0.10705798 0.0026895113 0.055226397 -0.10820156 0.18061805 0.039863184
-0.07220359 0.1531005 -0.03599633 -0.17597318 0.11724637 0.0151331555 -0.07688688 0.022067292
0.070501894 -0.05134886 0.19053894 0.15496093 -0.11295869 -0.037213825 0.08278547 0.09422065
-0.02395058 -0.0787673 -0.13390143 0.40826485 -0.24572283 -0.09482061 -0.007131207 0.112226255
0.36043343 0.00558715 0.01821133 0.06612687 -0.40519077 -0.20594896 -0.08967256 0.022968262
-0.18313777 -0.3932223 0.011337369 0.06951767 -0.03690064 0.19312125 0.050547726 0.058081377
0.10869858 0.1166753 0.018344708 0.024724098 0.17118947 0.018353853 0.30177847 0.21656422
0.12835526 0.15375857 0.10886153 0.19478244 -0.19080243 -0.058912467 0.023931772 -0.13515541

encoder_cnn.2.bias f4 [16]
00000000: ef9e ce3d 1365 613d 3a34 793d 591b 4dbb
00000010: 6ea7 fa3c 5830 63bd 2b0e b2bd 73fa acbd
00000020: e9d2 803d b17d 513d d68f 97bd 0a0a 8f3d
00000030: 5e53 973b 41ff 09bd 3e89 bc3d 715a 2a3d
0.10088908 0.055028033 0.060840823 -0.0031296818 0.030597415 -0.055466026 -0.086941086 -0.08446207
0.06290228 0.05114526 -0.074004814 0.06984337 0.0046180924 -0.033690695 0.09205864 0.041590158

encoder_cnn.4.weight f4 [32, 16, 3, 3]
00000000: 1560 ea3d 369b 133e 5161 3fbd e3b5 2e3e
00000010: aef4 ee3d 7778 223e 7362 1e3e f403 2a3e
00000020: e4ab 04be 6c48 bb3d c640 283e a77d 52bd
00000030: 7ba1 543e f209 bcbd f04b a13d b7b6 263e
00000040: e889 cabd 1899 31bd 85d0 2a3e 0acc b6bd
00000050: f175 c13d ef68 aa3c 83e8 123e a4b8 59bd
00000060: 8f7f 33be cf34 f13d 461c 9dbc 4437 3f3d
00000070: ad2e 193d 05a6 b0bd fad2 363e d56c 62bc
00000080: 5cce 803e b275 133e cc4a 26bd a6fb 303d
00000090: d53a 663d 4219 723e 5e05 9c3d 2893 56bd
000000a0: 1d8a 21bd d742 f03d 4db7 1b3e d0dd d9be
000000b0: de28 8ebd 0b95 84bd beed f73d c76d 64be
000000c0: 163a e63d ca50 47be 64a8 ac3c 89cf 053e
000000d0: 6bd8 60bd b37e b3bc ea1e 03bd 9cb7 37be
000000e0: a5c6 d9bd 49ea a3be 86d2 7bbd dc0f 82be
000000f0: 14b7 b33d 5787 73bd 609e 0abe 66da dbbd
00000100: 8258 69be 41ba 783d 3610 adbe 5736 c33d
00000110: 4ae8 c6bd fd77 18bd f8c2 1a3e f400 d1bb
00000120: 9936 92bc ad6d 513e 97ba bcbd 72a0 443e
00000130: 8eb5 2bbe 83d3 003e 4070 6e3e f674 cbbd
00000140: 932a 44be f8e1 563d 7314 293c 9679 053d
00000150: 7929 0a3e 6aeb 78be b934 9b3d 9e17 e7bc
00000160: 968e 1d3d fe90 c93c a0dd 65bd 25db 70bc
00000170: 2bea 29be 863b afbd 27c2 d5bc 1738 92be
00000180: 1fc4 663c 2d4b 81bd 2329 c83c e220 ba3c
00000190: 61ae 3abe 5148 e8bd 67e0 d7bd 4c0a 1bbe
000001a0: 1715 42be 6a5d 49be 22bd 063e 8a10 0f3c
000001b0: 62eb 803d e246 5abb b069 84be f56b b8be
000001c0: 02c2 3b3d 0b75 eebd 964a cdbc 7a84 91bd
000001d0: 37cc a1be fa45 0dbe 5866 eb3c a50f 3abe
000001e0: 2405 923d 2bd4 bebd ca6d 28be 32a5 96bd
000001f0: 4a6a 39bb 88e3 063d 36d3 753e 51d2 dc3d
00000200: 238c 533e 587a 5c3d ba3b f3bd f96d 7f3e
00000210: ec1f 723e 9466 b13d 385c 403e 7752 203d
00000220: e86f 4e3e 8114 ac3d 5743 f43d e51b d4bd
00000230: 57e7 903e 2aaf 833e 16f1 01be 1d5f 65bd
00000240: 1217 a43c f65b 603d 8e25 c5bd 5a9d cf3c
00000250: 9113 31bd eab2 003e 403b 4cbc 8ff1 723e
00000260: a83f 883a 859d 713d 3c5c d43d 8144 b3bd
00000270: ea26 1dbc e176 71bc 206e 12be 0a5c a4ba
00000280: b79f ce3c da6d 42be 09d0 c2bc 5842 e0be
00000290: 0025 dbbd 1747 b8be ec63 95be d58d 053e
000002a0: 8f80 0c3e 1c80 91be e1d2 a83d 884c 0a3d
000002b0: f74b 7bbd ec5d 19be 525c 1f3e 3542 ce3c
000002c0: 612c 92bd 6664 b7bd d6bb 62bc 69af babd
000002d0: a178 403b b72d dbbd 93c4 d2bd 2daa 2e3e
000002e0: a4b6 f3bb 56ad 54be c85c 0c3d 2a0e a83e
000002f0: 24ff 8c3e abe7 053d a4e4 093e bb39 afbd
00000300: 0959 ca3d f984 843c c434 1abe 34a6 ad3c
00000310: f8ae f73d c9b9 fa3d 46c0 c6bd 5242 26bd
00000320: 5c8c 9c3d 2563 113d db6c 8cbc 8479 333d
00000330: 40ee 8f3c af19 3c3d 6481 52bb 3fca c1bd
00000340: e299 7abe 9a32 013d 8dc8 1abe fbff 85be
00000350: acfe ec3d 080b c63d f583 a0be 197d 983c
00000360: 5cd8 783d d748 69bd ae05 84bd 71cb f93d
00000370: bdac 43bd 3112 dabd 65bf bdbd c1e6 70bc
00000380: e33a 243d 8a0e 17bd 7a24 45bd 861c 8abe
00000390: 0e96 1d3c 6af9 b6bd 30a2 abbd 1b23 173d
000003a0: 9794 10be 1ae6 adbe 79ed 62bd ec00 1c3e
000003b0: 4994 b93d 978a e03c 846b 163e 8472 043e
000003c0: 3b35 64bd 45f2 003e d8d2 08bc 1ad4 15bb
000003d0: 5f5d c9be 4967 8ebd 71e4 89be 5dac cfbd
000003e0: a18d e43c 51ab 3fbe 5c3b 79be 742e ce3d
000003f0: c73c 18be 515c f83d cde3 27bd 070a 7f3b
0.114441074 0.14414677 -0.046723668 0.17061572 0.11667763 0.15866266 0.15467243 0.1660307
-0.12956196 0.09144673 0.16430959 -0.051389363 0.20764725 -0.091815844 0.07875812 0.16280638
-0.09889585 -0.043358892 0.16681106 -0.08925636 0.09446324 0.02080199 0.14346509 -0.053154603
-0.17529128 0.117776506 -0.01917852 0.046683565 0.03739803 -0.08625416 0.17853919 -0.013819893
0.2515744 0.14400366 -0.040598676 0.04320874 0.05620845 0.23642448 0.07618211 -0.052386433
-0.039438356 0.11731499 0.15206642 -0.42552042 -0.069413885 -0.0647374 0.121058926 -0.22307502
0.11241548 -0.19464412 0.021076389 0.1306745 -0.054893892 -0.021911 -0.032011904 -0.17941135
-0.106335916 -0.32014683 -0.061480068 -0.25402725 0.08775154 -0.059455242 -0.13536978 -0.107350156
-0.2278767 0.0607245 -0.3380143 0.09531849 -0.097122744 -0.037223805 0.15113437 -0.0063782874
-0.0178483 0.20451994 -0.09215277 0.1920183 -0.16768476 0.12580685 0.23285007 -0.09934418
-0.19156866 0.052461594 0.010319817 0.032586657 0.13492383 -0.24308553 0.075784154 -0.028209504
0.03846606 0.02460527 -0.05611956 -0.014700686 -0.16593234 -0.08556275 -0.026093556 -0.28558418
0.014084845 -0.06313167 0.024433678 0.022720758 -0.18230583 -0.11341918 -0.10540848 -0.15140647
-0.18953358 -0.19664541 0.13158086 0.008731971 0.06294896 -0.003330641 -0.25861883 -0.36019865
0.045839317 -0.11643418 -0.02505998 -0.07105346 -0.31601116 -0.13796225 0.028735325 -0.1817003
0.07129887 -0.093178116 -0.16448131 -0.07355727 -0.0028292113 0.032931834 0.24006352 0.10782302
0.20658927 0.053827614 -0.11876626 0.24944295 0.2364499 0.08662143 0.18785179 0.039141145
0.20159876 0.08402348 0.119269066 -0.10356883 0.28301498 0.25719577 -0.12689623 -0.05599891
0.020030532 0.0547752 -0.096263036 0.025343586 -0.04323155 0.1256825 -0.012465298 0.2372496
0.0010394948 0.058988113 0.10369155 -0.087533005 -0.009591797 -0.014737816 -0.14299822 -0.0012539637
0.025222642 -0.18987218 -0.02378084 -0.43800616 -0.107004166 -0.35991737 -0.29177797 0.13042386
0.13720916 -0.28418052 0.08243347 0.033764392 -0.061351743 -0.14977235 0.15562561 0.025178054
-0.07137371 -0.08954696 -0.013838729 -0.09115488 0.0029368775 -0.10702079 -0.102914 0.17057104
-0.007437544 -0.20769247 0.03426817 0.32823306 0.27538407 0.03269164 0.13466126 -0.08555933
0.09880263 0.016176688 -0.15059191 0.021197416 0.120939195 0.12242467 -0.09704642 -0.04059059
0.07643959 0.035494942 -0.01714175 0.04381706 0.017569661 0.04592293 -0.003212058 -0.094624035
-0.24472764 0.031542398 -0.15115567 -0.2617186 0.11572012 0.09670073 -0.31350675 0.018614339
0.06075321 -0.05695423 -0.06446396 0.121970065 -0.047772158 -0.10648001 -0.09265021 -0.0147034535
0.04009522 -0.0368791 -0.04813049 -0.26974887 0.009618295 -0.08934291 -0.08380544 0.036898714
-0.14119183 -0.33964616 -0.055402253 0.15234727 0.09061486 0.027409835 0.14689451 0.12934309
-0.055714827 0.12592418 -0.00835105 -0.0022862018 -0.3932905 -0.06953294 -0.269321 -0.101402976
0.027899565 -0.18717696 -0.2433905 0.10067454 -0.14866935 0.12126983 -0.040988732 0.003891589

encoder_cnn.4.bias f4 [32]
00000000: 3696 b53d f337 dfbd 7449 59bd 8523 31bd
00000010: 2921 66be 48a8 963c 32eb 0cbe a3a6 50bd
00000020: 3c71 873c 062e 7bbd 7d94 123d b805 f53d
00000030: 537f 8ebd 1e67 bd3d 8e47 aebd 75f3 d9bd
00000040: 12a2 b9bc 3053 a73d a272 273e 1ef9 e83c
00000050: 8ef0 d7bd d1aa 1dbb 70ec afbd ce56 55bd
00000060: 73aa 9ebd 8147 a4bd a812 8d3d bebf 90bd
00000070: c159 713d 650a b6bd 0319 36be a718 803d
0.08866541 -0.10899343 -0.053048566 -0.043246765 -0.22473587 0.01839079 -0.13761595 -0.050940167
0.016533487 -0.06132319 0.03578614 0.119639814 -0.06957879 0.09248184 -0.08509742 -0.10642139
-0.022660289 0.08170164 0.16352323 0.0284391 -0.10543929 -0.0024058113 -0.08590019 -0.052084737
-0.07747354 -0.08021451 0.06888324 -0.07067822 0.058923487 -0.08888701 -0.17782979 0.06254702

encoder_lin.0.weight f4 [128, 288]
00000000: 4c9f eebd 4342 123e 3b2f a93d 8656 94bb
00000010: a5a0 40bd 1a8c 633d 63e0 533d 7a6a e33d
00000020: 2aee f43d 0cc2 e3bd f1df 463e a66e 1cbe
00000030: c8d1 8e3c 5e9f ffbd b207 1a3e f44b 2bbd
00000040: a5f1 043d d070 ac3c d379 afbc 7515 a13d
00000050: 7631 aa3d 3138 04be 8e68 563d 2945 cd3d
00000060: 6080 c93d 2cf4 aa3d cdf7 123d 5f16 b5bd
00000070: 0222 5f3d a149 8a3e d119 0fbd 1c14 afbd
00000080: 4882 b53d a652 37be 7c8a 9bbd bb53 3b3e
00000090: 7224 ff3c f295 e2bd e474 f4bc 7047 e0be
000000a0: 4099 07be f3ed 253d a59f b53d 543b 8bbd
000000b0: 1aa4 3b3e 95bb b4bc 5498 823c 2dd2 1d3d
000000c0: d70d b8bd 2f06 32bd a15f 833e fbf0 29bd
000000d0: 3c8d 22bd f3b3 da3d 668d 08bd 61db 21bd
000000e0: 49be 933e 828d 253e 7502 87bd 7711 063e
000000f0: 5655 71bd 4758 d23c 773b 343d 735f 953d
00000100: 8646 de3d b4e7 2c3d 661a 8ebc bcc0 2a3e
00000110: 3173 5bbd 1c26 633d c788 80be c10e d63d
00000120: b66b c43b 319d 483c b69f a6bc 3875 4dbe
00000130: 27fd 683c 73e9 ddbb 55e7 d0bd 4a7c 0c3e
00000140: aefb f23d 3011 063e 201c 9dbd 44d8 fb3b
00000150: aef9 c13c 1f4d e43c 8b5c bc3d cc54 93bd
00000160: b38b d6bc eb0f ea3d feea f33b 22b7 aebc
00000170: 6195 84be a350 60be c5aa 07bf 8a34 103e
00000180: cb8c fe3d 75b9 903d fd52 a23d e52b 303d
00000190: 85ac f73d e310 043d d1f8 923d 1718 003c
000001a0: cd47 f8bc 1250 893d 1197 693e aa2e 403e
000001b0: 53aa 583d c574 293d 9aa5 a9bd a598 863d
000001c0: fa15 2cbd a713 aa3e fbf2 53be cd4e 1bbd
000001d0: 2ec7 0d3d e1a9 17bd 3a8a 77bc 657e 083e
000001e0: 3cab 26be dfc7 e13d 628b e03c e20e 6dbc
000001f0: 5991 f23d b09b 51bd 11c8 bcba a68c 0a3c
00000200: 867a 003e c0c3 cd3d 6f03 12be 0c27 273e
00000210: bced 3ebd b27f e3bd bb33 3b3c ad05 c9bc
00000220: d5a2 38be be8f 7e3b 9556 b139 dbc3 26be
00000230: b6da 223c 33d8 98bd bad5 133d 05ce 5fbd
00000240: 2e9b d3bd e468 84bd 5979 713e 14ee ba3d
00000250: e84a 8fbd 745e 80be 37fe 67bd 7618 e5bd
00000260: a631 683d 8fdb 9b3d 4982 6e3e c00e 633e
00000270: 6501 163e 3845 6e3e c967 31be 0881 48be
00000280: 5ab5 90bc dcbb 1e3d 4395 9fbd 1c49 01be
00000290: 2671 0cbe d640 853d 7921 5b3a d63c a9bd
000002a0: 50b0 95bb 693b 9bbb f452 80bd 4677 d7bd
000002b0: 028d cf3d cf03 bcbd 761f f7bc a09b 5abd
000002c0: 9054 a43d cba3 2a3d 3081 0f3e 80ac a93c
000002d0: 4fe6 713b 1881 23bd 6734 b7bc 372a b2bc
000002e0: f458 1ebe 3188 d13d 7e75 d63c 7fca 0f3e
000002f0: 32fd 233e cf12 10bb 1a4e 94bb 5917 853d
00000300: f391 3bbe 7e86 66bb 1023 c4bd e6a7 56bd
00000310: a826 76bc b536 8e3e 7af6 103e 0a9d 4b3d
00000320: fadc 543e f21b 29bd b5cb 18bd 009f ea3d
00000330: c8af c23d c349 8ebd b058 363e 714c e5bb
00000340: e255 24be 426b 183e 7be0 993c 2317 72bd
00000350: 5577 1c3e 8e18 aa3d eb08 ec3d 970e 803e
00000360: 6ea8 6bbd 2366 8cbc ae78 7d3e c1a3 a6bd
00000370: 3c91 553e c1da 0cbe e94d 673d 8400 5cbe
00000380: 5ddf 8e3d b02f 4ebd d0b4 bfbd 8463 223d
00000390: bd12 fabd 3b8b 6ebd 5374 223e a504 b7bc
000003a0: d9ef 053e 7df2 44bd ba47 4cbd 1b5f 703e
000003b0: a4e5 893d 60c3 a3ba b4c6 613e 37e3 e53c
000003c0: 50c1 d93d 0450 acbe 9f41 da3d d124 883c
000003d0: 0316 8bbd 7fc5 d6bd fe08 1f3e b51a c33d
000003e0: 17e4 e0bd d37d 1e3c 0489 9f3c 335e 98bd
000003f0: 24b3 ecbd 2657 89bd 5973 50bc 8d23 2fbd
-0.11651477 0.1428309 0.082609616 -0.004526916 -0.047028203 0.055553533 0.051727664 0.11104293
0.11959489 -0.11120996 0.19421364 -0.15276584 0.017434016 -0.12481569 0.15041998 -0.04182048
0.032457013 0.021049887 -0.021420395 0.07865421 0.08310215 -0.1291206 0.052345805 0.10022957
0.09838939 0.08347353 0.035880852 -0.088421576 0.05447579 0.270093 -0.03493673 -0.085487574
0.0886274 -0.17902622 -0.07594773 0.1829366 0.031145308 -0.11063756 -0.029840894 -0.43804502
-0.13242054 0.04051013 0.088683404 -0.06798425 0.18324319 -0.022062102 0.015941776 0.038530517
-0.08987015 -0.04346293 0.25658897 -0.041489583 -0.039685473 0.10678854 -0.033337973 -0.039515857
0.28856114 0.16167262 -0.065922655 0.130926 -0.058919273 0.02567686 0.044002023 0.07293596
0.10853295 0.042213157 -0.017346572 0.16675085 -0.053576652 0.055456266 -0.25104353 0.10452033
0.0059942855 0.012244509 -0.020339828 -0.20064247 0.0142205125 -0.006772214 -0.10200373 0.13719288
0.1186441 0.13092494 -0.0767138 0.007685693 0.023678627 0.027868805 0.09197339 -0.07193908
-0.02618966 0.11428817 0.0074437847 -0.021327559 -0.25895217 -0.2190576 -0.5299495 0.14082542
0.12429198 0.07066623 0.07925985 0.04301061 0.12093452 0.032242667 0.07176364 0.0078182435
-0.030307675 0.06704725 0.22811534 0.18767801 0.05289681 0.041371126 -0.08283539 0.065720834
-0.042013146 0.3321812 -0.20698158 -0.037916947 0.03461378 -0.037027244 -0.015108639 0.13329466
-0.16276258 0.110244505 0.027410213 -0.01446888 0.11844129 -0.051173866 -0.0014402886 0.008456385
0.12546739 0.10047102 -0.14259122 0.16323489 -0.04661344 -0.1110834 0.011425908 -0.02453884
-0.18030865 0.0038843001 0.0003382458 -0.1628565 0.00993984 -0.07463112 0.036092497 -0.054639835
-0.103323326 -0.06465319 0.23581447 0.09127441 -0.06996709 -0.25072062 -0.056638923 -0.11186306
0.056687973 0.07610237 0.23291887 0.22173595 0.1464897 0.23268592 -0.17324747 -0.19580472
-0.0176646 0.038753375 -0.07792141 -0.12625545 -0.13715038 0.06506507 0.0008359175 -0.08263557
-0.004568137 -0.004737307 -0.06265822 -0.105207965 0.10134317 -0.09180414 -0.030166369 -0.05337107
0.080239415 0.04166011 0.14014125 0.020712137 0.0036910956 -0.039918035 -0.022363855 -0.021748645
-0.1546362 0.102310546 0.026179072 0.1404209 0.16014555 -0.0021983867 -0.004525912 0.06498594
-0.18317394 -0.0035175378 -0.09577 -0.052406214 -0.015023865 0.27776113 0.14156523 0.04971031
0.20787421 -0.041286416 -0.037303645 0.11456108 0.09506184 -0.06947663 0.17807269 -0.006997638
-0.16048387 0.14884666 0.018783798 -0.059104096 0.15279897 0.08305465 0.115251385 0.2501113
-0.057533674 -0.017138546 0.24753067 -0.08136702 0.20856184 -0.13755323 0.056470785 -0.21484572
0.06976197 -0.050338447 -0.09360659 0.039645687 -0.12210605 -0.05823825 0.15864687 -0.022341082
0.13079776 -0.048082817 -0.04987309 0.2347378 0.067332536 -0.0012494139 0.22048455 0.028062446
0.106325746 -0.33654797 0.106570475 0.016619118 -0.06791308 -0.10486888 0.15530774 0.09526578
-0.10981005 0.0096735535 0.019474514 -0.07439842 -0.11557606 -0.06706075 -0.0127228135 -0.042758513

encoder_lin.0.bias f4 [128]
00000000: f742 91bd 60a2 523c c10b 833c 6055 85bd
00000010: dd3d ecbd b5b5 c0bd e72e 75bb f9b2 02be
00000020: f799 a4bd 2c24 2bbe e444 bdbc 2d13 17bd
00000030: f0be d83c e3e2 89bd 7212 4ebc d7ab 9e3d
00000040: f58e 81bd 2b31 503d 3748 d1bc 353a 483d
00000050: 68a2 863d 813f bebd dd9d d3bd 9585 26bd
00000060: 66cb 7dbc 543c 36bd 7eb1 6ebe b120 d8bd
00000070: 90fa 8cbd a676 96bd a9ee 7c3d 1004 eebd
00000080: d7cd aa3c aa19 d43d 8791 05be 0d78 84bd
00000090: abb8 e43b 9405 33bd ff8c c43b 8ccf c63c
000000a0: c05e 9ebc e271 02be b709 48bd c297 9d3c
000000b0: 81a4 31bd cfae 04bd 8fcc 673d c493 6c3c
000000c0: 376f 933d eb03 18be cc10 95bd 0370 0ebd
000000d0: bb5f 52bd 90b1 1ebd 7f5f 85bc 7136 8fbd
000000e0: c64f 473d 367a 07bd a6ba bc3d f59c 0cbe
000000f0: f2f8 96bd 5973 01be 946a 7cbd 0f13 3cbd
00000100: a241 17bd bb5a 673c 441f fcbc 441b 10be
00000110: 194a f53c ef98 133e 66da 58bd e422 4dbd
00000120: f868 383d 28d4 f5bc 0b3f 883c a69d f6bd
00000130: 031a 4abd a2b2 2cbd 9ebf 1ebc ae4e a6bb
00000140: b7b3 4a3d 31dd 87bb 4747 0f3e d6d0 babb
00000150: a39e e3bd 2b92 d9bd 200d d0bd bb8b 2abc
00000160: 89d0 b6bd 7011 94bd 0a20 683c 2789 dfbc
00000170: 6ae9 063e 6083 12be e033 943d c937 67bc
00000180: 86f4 ecbd f29c bbbd 95dc cfbd de5e 5a3c
00000190: a1c6 7abd bea3 163d 51c4 b23c 9709 d1bd
000001a0: 051c 013d 3164 013c 2852 9b3d 51b4 b5bc
000001b0: e306 b9bd 9f42 023e 4517 86bc ee62 463c
000001c0: ca20 0cbe 132e b0bd 1b27 1cbe 9fa0 9fbd
000001d0: 34c5 8abc 2df1 da3d 9c8b ceba aa61 acbc
000001e0: bea5 c73d 9ae2 b2bd 09db e3bd 4c61 7cbd
000001f0: e1f3 ac3c 4663 e7bd 6ab1 24be bfb5 20bd
-0.07092851 0.012856096 0.015996816 -0.065104246 -0.11535237 -0.09409658 -0.003741199 -0.12763585
-0.08037179 -0.16713017 -0.023104139 -0.03688352 0.026458234 -0.06732728 -0.01257764 0.077476196
-0.06326095 0.05082814 -0.02554713 0.048883636 0.06573945 -0.09289456 -0.103328444 -0.040654738
-0.0154903885 -0.044491127 -0.23309895 -0.105531104 -0.068837285 -0.07346849 0.06175104 -0.116218686
0.020850105 0.103564575 -0.13043796 -0.0646821 0.006980022 -0.04370649 0.0059982534 0.024268888
-0.01933229 -0.12738755 -0.04883739 0.019237403 -0.043369774 -0.032393273 0.056591567 0.014439527
0.07198947 -0.14845245 -0.072785944 -0.03477479 -0.051360827 -0.038743556 -0.016280888 -0.06992806
0.048660062 -0.033075534 0.09215288 -0.1373175 -0.07371701 -0.12641658 -0.06162508 -0.045916613
-0.036927827 0.014120753 -0.030776627 -0.14072901 0.02994256 0.14413808 -0.052942656 -0.050082102
0.04502198 -0.03000839 0.016631624 -0.12041788 -0.049341213 -0.042162545 -0.00968924 -0.0050752973
0.049487796 -0.004146241 0.13992034 -0.0057011647 -0.11114242 -0.106235825 -0.101587534 -0.010409291
-0.08926494 -0.072298884 0.014167795 -0.027287079 0.13174978 -0.14307928 0.07236457 -0.014112421
-0.11570077 -0.09160794 -0.101494946 0.013328282 -0.061224584 0.03677725 0.021822127 -0.10206907
0.031520862 0.007897423 0.075840294 -0.022180708 -0.09034517 0.12720726 -0.016368518 0.012108548
-0.13684383 -0.08602538 -0.15249293 -0.07794308 -0.016939737 0.10690532 -0.001575816 -0.021042664
0.0974841 -0.08734627 -0.11125762 -0.061616227 0.021112384 -0.11298232 -0.16083303 -0.039235827

encoder_lin.2.weight f4 [6, 128]
00000000: d831 49bd 8719 4abd 951c b0bd 962f 5c3d
00000010: 5e07 203e cb4b 62be 16cf cb3d 31d9 183e
00000020: b6ef 94bd 8381 1cbe 3ba1 20be de80 223e
00000030: 4b14 ec3d e53d 3f3e 7567 803d 3d61 6bbc
00000040: 1f0a f13c 304f 13bc a914 28bd 286d f0bd
00000050: 29b0 a8be aae9 c13d 4530 b4be 61a5 133d
00000060: dcba ebbd bb0e 8f3d aa57 e53d af79 6cbe
00000070: 23f2 0f3e b456 983d d185 41be 6b49 293d
00000080: 9a74 c93b 04fa ae3d ee4e eb3d 19af 093c
00000090: ccb6 e0be d0d8 e1bc a385 183c 88f4 14be
000000a0: 9d22 b43d 874a 96be 9a28 aabd a9f0 863d
000000b0: d175 92be db9e 6c3d 4344 5c3d f097 aebd
000000c0: 6227 7b3d 48e3 db3c 200d 313b afdd eabc
000000d0: 16c5 363d b79c 0a3e 56d6 b2be 1411 373b
000000e0: c148 f6bd 2e71 4e3d b929 3dbd 3464 f23a
000000f0: 3144 57bd 0972 173c 0f35 843d f39a 16be
00000100: 178d 553b a48e 58bd 2fdb 53be 7a28 b23d
00000110: 82f4 71be c3b3 2d3d 8f0b b43d c84f f1bd
00000120: 46c2 8bbe aee0 aa3d c5a4 c8bd 3206 eb3c
00000130: 0782 593e 5242 dd3d 6fb4 ebbd 40ef 00bd
00000140: 68b1 fbbd 04af 1fbe 3748 753e d1ec b23d
00000150: 2aa1 513b 47cb 973d e4b2 0dbe 640e 933d
00000160: 9b7d 1e3e 815f c0bd cdb7 b43d 4534 d33d
00000170: 1512 52be 5cda acbd 714b cdbd e6fe 923e
00000180: 215f 7b3c 183d 993b 2ebf 5f3d f186 0f3e
00000190: fe6d a2be 7b3c dabd 2569 7e3e 1c61 bcbb
000001a0: 78ad dabc 2832 d5be 0088 b3bd 94f6 8ebb
000001b0: 9849 c23d 7606 fbbd 1b0b a63d fd1c 8f3c
000001c0: 43c4 6b3d 037b e63e 1c78 63be 8a8e dcbd
000001d0: f986 433e 0521 b6bd 50b2 c3bd 2531 d0bc
000001e0: 797a 18be 6961 d53d 0a35 f2bd e101 933d
000001f0: 7849 51bc a550 013d 870f 903e 5652 883c
00000200: 0f4c 883e 576a 3e3e 1b8d a4bb df69 fa3c
00000210: 6b80 4ebe e0c8 6bbd 28cc 0d3e b243 8dbe
00000220: e604 aebd b48b de3e 3cb2 7e3e 053c aabe
00000230: 695b 55be 1190 3b3e 0af7 a8bd 6315 0dbe
00000240: 2263 93bd 6a3a 00be b5da 12bd 6815 f4bd
00000250: 046c e33e 4b97 9b3b cb11 30bd 4965 adbd
00000260: b670 433e d698 213c 0e53 d83d 6ff3 033f
00000270: a065 4abe 3616 e33d d9c5 85be 6e0b 2d3e
00000280: 8e5d 523d d40e fc3d 80aa ca3d ef7f 9fb9
00000290: e493 46be 0eeb bc3d f31d aa3d ac48 bcbc
000002a0: 3bdc c2bb 4f2e 05be 2b81 99bc cc4c 013e
000002b0: 40bf 743e 2b6b 36be 244c e9bd 75b6 303e
000002c0: 536c 5cbd f720 023e 4035 d33e 6dfd 9cbe
000002d0: cdd0 ab3d 3fa1 97bd 9764 2b3a fa2c 183e
000002e0: fc84 aabd 8f61 13bc b1f3 a8bd 7cf3 cabd
000002f0: 439b d2bd 6c05 0f3e 36b9 453d 924b 3b3e
00000300: 254c 853d 80d9 dabd fd3a b83e a738 d53d
00000310: 017a b83e 32e3 253e 1bb7 143e 1016 5b3e
00000320: 7c7e 8b3e ef37 1b3e d53a 13be 1239 ed39
00000330: 9c7a 7d3e aa1b 1cbf b93e 3cbc 7cc0 323d
00000340: 2530 2abb 64e6 93bd d98f b53d 9bfc 073e
00000350: d8ca 0a3e e12b e4bc 83e5 053e fe8a f7bc
00000360: 5fb8 1d3d 21d7 7b3d 221f 033e a320 813d
00000370: 5de3 08bd bad6 e6be 0512 f4bd 4748 57be
00000380: 81eb 5abc 71af ca3d acea 8a3d d15f 4cbe
00000390: 8292 a63e dc56 9b3d 25f2 22be 0f2c 053e
000003a0: a09e 9bbb 77f4 7fbe 5412 c23d b9b5 023e
000003b0: 0116 bbbc 0131 b23c d11e fcbe 7106 07be
000003c0: 2726 473d 7a58 61be 122f 10be 4c3b 253e
000003d0: ed90 5e3e 2b77 95bd 6329 14be 5a60 963d
000003e0: fe7b d4bd 8d70 473d 72e1 4fbe 70a5 663d
000003f0: e5c1 373e b88d ca3e cee3 393e d7c6 a33d
-0.0491198 -0.04934075 -0.085992016 0.05375632 0.1562781 -0.22099225 0.09951608 0.14926602
-0.07272284 -0.1528378 -0.15686505 0.15869471 0.11527308 0.18675955 0.06269733 -0.014366445
0.029423771 -0.008991048 -0.041035328 -0.1173957 -0.329469 0.09468396 -0.35193077 0.03604639
-0.1151025 0.069852315 0.11198361 -0.23093294 0.14057212 0.07438412 -0.18898703 0.041329782
0.006147933 0.085437804 0.11489664 0.008403563 -0.43889463 -0.027569205 0.009309205 -0.14546406
0.087956645 -0.29353735 -0.083085254 0.06588871 -0.28605512 0.057768684 0.053776037 -0.085250735
0.061316855 0.026841775 0.002701588 -0.02867016 0.04462155 0.13536344 -0.3492915 0.0027933763
-0.120255955 0.050400905 -0.046182368 0.0018492998 -0.052555267 0.009243497 0.064554326 -0.14707546
0.0032585317 -0.052870408 -0.2068908 0.086991265 -0.23628429 0.042407762 0.08791267 -0.11782795
-0.27296656 0.083436355 -0.09797052 0.028689478 0.21241008 0.10803665 -0.11509024 -0.031478167
-0.12289697 -0.15594107 0.23953329 0.087365754 0.003198693 0.07411819 -0.13837773 0.07180479
0.15477602 -0.09393216 0.0882412 0.10312704 -0.2051471 -0.08440086 -0.10024155 0.28710097
0.015342505 0.0046764724 0.054625683 0.1401632 -0.31724542 -0.10656067 0.24844797 -0.005748881
-0.026694044 -0.4163983 -0.08766174 -0.0043628905 0.09486693 -0.12257092 0.08107587 0.017469877
0.057560217 0.45015725 -0.22213787 -0.10769375 0.19094457 -0.08893017 -0.09555495 -0.025414059
-0.1489047 0.1041897 -0.11826523 0.07178093 -0.012773864 0.03157105 0.28136846 0.016640823
0.26620528 0.18595253 -0.005021704 0.030568061 -0.20166175 -0.057564616 0.1384741 -0.2759071
-0.08497028 0.4346596 0.24872679 -0.33248916 -0.20835651 0.18316676 -0.08250244 -0.1377769
-0.071966425 -0.12522283 -0.035853107 -0.119181454 0.44418347 0.00474826 -0.04298572 -0.08466584
0.19085965 0.009863099 0.105627164 0.51543325 -0.1976533 0.11088221 -0.26127508 0.16898891
0.051358752 0.12307516 0.098958015 -0.0003042216 -0.19392353 0.092245206 0.083064936 -0.022983871
-0.0059466637 -0.13005947 -0.01873835 0.12626952 0.23901081 -0.17814319 -0.11391476 0.17257102
-0.053814244 0.12707888 0.41251564 -0.306621 0.08389435 -0.07403802 0.00065381214 0.14860907
-0.08326146 -0.008995428 -0.082496054 -0.09909722 -0.1028352 0.13966912 0.048272334 0.18290547
0.06508664 -0.10686016 0.35982504 0.10411196 0.36030582 0.1619995 0.14522974 0.21395135
0.27244937 0.15158056 -0.14377911 0.00045246683 0.24753803 -0.6097971 -0.011489564 0.0436406
-0.0025968638 -0.07221678 0.088653274 0.13279955 0.13553941 -0.027852954 0.13075833 -0.030217644
0.038505908 0.06148446 0.12804845 0.06305053 -0.033419956 -0.45085698 -0.119174995 -0.21023665
-0.013361813 0.09896744 0.06783041 -0.19958426 0.32533652 0.075849265 -0.15912683 0.13005088
-0.004749134 -0.249956 0.09476152 0.12764634 -0.02283764 0.021751883 -0.4924226 -0.13186051
0.04862037 -0.22006407 -0.14080456 0.16135901 0.21734972 -0.0729812 -0.14468913 0.07342596
-0.10375212 0.04869132 -0.20300844 0.056310117 0.17945059 0.39561248 0.18153307 0.0799691

encoder_lin.2.bias f4 [6]
00000000: ebeb 943c 4fd6 c4bd e494 d1bd 87dd 14bd
00000010: 8b45 3dbd 967c 0dbe
0.0181789 -0.096111886 -0.10233477 -0.036344077 -0.0462089 -0.13817057
