weights/encoder_weights_05232023a.pth (torch, 176647 bytes, 10 tensors)

encoder_cnn.0.weight f4 [8, 1, 3, 3]
0	0xbd41a0af	-0.04727238
1	0x3ed24c17	0.41073677
2	0xbe95228b	-0.29127917
3	0xbeec0d04	-0.4610368
4	0xbf2a7d9d	-0.6659792
5	0xbf01f8c6	-0.50770223
6	0x3dbb35c5	0.09141115
7	0x3e2ecbbe	0.17069909
8	0xbdf3e675	-0.119091906
9	0xbc992542	-0.018694524
10	0x3d29dba4	0.04146923
11	0xbd963e9a	-0.07336159
12	0xbeec0e7c	-0.461048
13	0xbea34712	-0.3189016
14	0xbe2a153a	-0.1660966
15	0x3e67069d	0.22561117
16	0x3c0b57a4	0.008504782
17	0x3e139944	0.14413935
18	0xbe7dbbed	-0.24778719
19	0xbe821e92	-0.25413948
20	0x3ce22192	0.027603898
21	0x3e51877d	0.20461841
22	0xbd8c08e4	-0.06837633
23	0x3eb9f654	0.36320746
24	0xbc5925b3	-0.013253617
25	0x3c385dec	0.0112528615
26	0x3ee345ca	0.44389182
27	0xbe9e5e8e	-0.30931515
28	0x3da02430	0.07819402
29	0xbe35269f	-0.17690514
30	0xbd8ee45b	-0.06977149
31	0x3ec9f912	0.39447838
32	0xbe9658f7	-0.2936475
33	0xbeeee92a	-0.46662265
34	0xbf033d0c	-0.51265025
35	0xbeb57761	-0.3544264
36	0xbe140983	-0.14456753
37	0x3ecab20f	0.39588973
38	0x3eee073b	0.4648989
39	0x3e701596	0.23445734
40	0x3e2cd6e4	0.1687885
41	0x3dfa6270	0.12225807
42	0xbe1b678d	-0.1517622
43	0xbf1fb5de	-0.6238688
44	0xbf02e372	-0.51128304
45	0xbcecfc89	-0.028929012
46	0x3ec23298	0.37929225
47	0x3eb68331	0.35646966
48	0x3d0b19f8	0.033960313
49	0x3ec31529	0.3810208
50	0x3ebf597a	0.37372953
51	0x3e8a1680	0.2697029
52	0x3eead667	0.458667
53	0x3e4b4e38	0.19854057
54	0x3e9afbd8	0.30270267
55	0x3e1915f2	0.14949778
56	0x3f06046a	0.52350485
57	0xbe956784	-0.2918054
58	0xbed2ee46	-0.41197413
59	0xbe11fe6b	-0.14257209
60	0x38320a51	4.2448115e-05
61	0xbd42c476	-0.04755064
62	0xbed20cde	-0.41025442
63	0x3e5e0541	0.21681692
64	0x3ebe9c27	0.3722851
65	0x3d72f350	0.059314072
66	0x3e7f5131	0.24933316
67	0x3f084509	0.5323034
68	0x3e86445b	0.26224026
69	0x3eb55485	0.35416046
70	0x3e07bfbc	0.13256735
71	0xbdb1d04c	-0.086823076

encoder_cnn.0.bias f4 [8]
0	0x3e7dd772	0.24789217
1	0x3eb03f66	0.3442337
2	0x3eab76f7	0.334892
3	0x3ee1012b	0.43946204
4	0x3d713741	0.058890585
5	0xbccf68f9	-0.02531861
6	0x3e08e2d8	0.13367784
7	0xbd7039f4	-0.05864902

encoder_cnn.2.weight f4 [16, 8, 3, 3]
0	0xbe99f010	-0.30065966
1	0x3d98900c	0.0744935
2	0x3e00ddf9	0.12584676
3	0xbeb0b586	-0.3451349
4	0x3dfba934	0.12288132
5	0x3d811bc3	0.06304123
6	0xbe233f4b	-0.15942113
7	0x3da11428	0.078651726
8	0x3dceb48c	0.1009303
9	0xbde34787	-0.11097627
10	0x3d817980	0.063220024
11	0x3dc1608e	0.094422445
12	0xbc914395	-0.017732421
13	0x3e02afc7	0.12762366
14	0xbd4fae7d	-0.050703514
15	0xbdff7d74	-0.124751
16	0x3e261557	0.16219078
17	0x3c870ca0	0.016485512
18	0x3e0f1c7c	0.1397571
19	0x3d302c81	0.043011192
20	0x3e634262	0.22193292
21	0x3e1ef74d	0.15524025
22	0xbd99ed96	-0.07516019
23	0xbaccdee8	-0.0015630396
24	0x3c5a44f6	0.013322106
25	0x3d6c982e	0.057762317
26	0xbd451b65	-0.04812183
27	0xbe869439	-0.2628496
28	0x3defd967	0.11711388
29	0x3e098872	0.13430956
30	0xbdfa975f	-0.12235903
31	0x3e663c4f	0.22483943
32	0xbc633efa	-0.013869995
33	0x3d0bca78	0.034128636
34	0x3e8649ce	0.26228184
35	0x3d95ac86	0.07308297
36	0x3e2f654b	0.17128484
37	0xbe2d0ae2	-0.16898683
38	0xbddb76e9	-0.1071604
39	0xbcd53bb4	-0.026029445
40	0x3d8634ac	0.06553015
41	0xbcd5df66	-0.026107501
42	0xbdb2bc93	-0.08727374
43	0x3d8cb6b4	0.06870785
44	0x3c701267	0.014652825
45	0x3ddc9c8e	0.10772048
46	0xbdde6581	-0.10859204
47	0xbeaeb3f0	-0.34121656
48	0x3dae5963	0.08513143
49	0xbec207c5	-0.37896553
50	0xbe0de2c8	-0.13856041
51	0x3ccd91fb	0.025094023
52	0xbe9aed4a	-0.30259162
53	0xbdd785eb	-0.1052359
54	0xbd4a9a57	-0.049463596
55	0x3d2e8ad6	0.042612873
56	0xbd950824	-0.07276943
57	0x3a9a027e	0.001175001
58	0x3d9a4479	0.075325914
59	0x3e347516	0.1762279
60	0x3e8c42b6	0.27394646
61	0x3d7c89eb	0.061654966
62	0x3e3f4ac6	0.18680868
63	0x3e8114e9	0.25211266
64	0xbde1e38c	-0.11029729
65	0xbe8c0571	-0.273479
66	0x3ecbd5ad	0.3981146
67	0xbe7afd63	-0.24510722
68	0xbe993bfc	-0.29928577
69	0x3e4f42d6	0.2024034
70	0xbec0e99a	-0.37678224
71	0xbd9cfad3	-0.076650284
72	0x3d3dd39d	0.04634439
73	0x3e2072ff	0.15668868
74	0x3e65934f	0.22419475
75	0xbd605a2d	-0.0547735
76	0x3e2c4549	0.16823305
77	0xbdbaabd4	-0.09114805
78	0x3d82ad73	0.06380739
79	0xbd1e18c9	-0.038597856
80	0xbe159bd5	-0.14610226
81	0x3d50897d	0.05091237
82	0xbc994aa4	-0.01871235
83	0x3d777811	0.06041724
84	0x3d8e605e	0.06951974
85	0x3dfaedc2	0.1225238
86	0x3d9787f0	0.07398975
87	0x3e003f02	0.12524036
88	0xbd0d70a3	-0.034531247
89	0x3cfe1915	0.03101782
90	0x3e15bf1f	0.14623688
91	0x3d850a6d	0.06496129
92	0x3e7f1b7d	0.2491283
93	0x3dd968ba	0.10615678
94	0xbcc39136	-0.023872953
95	0x3e8171e2	0.25282198
96	0x3b3611b4	0.0027781548
97	0x3d2c26f7	0.042029347
98	0x3e6e1266	0.23249206
99	0xbd362637	-0.04447004
100	0x3e36fd86	0.17870149
101	0x3e2e0d4c	0.1699726
102	0x3e286c0a	0.16447464
103	0x3e287e84	0.16454512
104	0x3db3e065	0.08783034
105	0x3e61c417	0.22047459
106	0x3d8438d5	0.06456152
107	0xbe05977d	-0.1304607
108	0x3d0cedb4	0.03440638
109	0x3d81f92c	0.06346354
110	0xbc207cee	-0.009795411
111	0x3d807164	0.062716275
112	0xbd9f159a	-0.07767792
113	0x3e3be539	0.1834916
114	0xbcafc74c	-0.021457337
115	0xbe6042a6	-0.21900424
116	0x3e26cd9d	0.16289373
117	0x3c5171b9	0.012783461
118	0xbe00dac6	-0.12583455
119	0xbee0ee5a	-0.43931848
120	0xbe1c9d5c	-0.15294403
121	0xbebf860d	-0.3740696
122	0xbd207ef0	-0.039183557
123	0xbf1035bd	-0.56332
124	0xbde902a1	-0.113774545
125	0x3e8ddfc6	0.27709788
126	0x3c8cf1cf	0.017205147
127	0x3a90eaa4	0.0011056256
128	0xbe947136	-0.28992623
129	0x3e5015fa	0.20320883
130	0x3e0489e3	0.12943225
131	0x3c53629a	0.012901926
132	0x3e41bb9d	0.18919225
133	0xbe0d1f55	-0.13781483
134	0x3c8f0094	0.01745633
135	0x3d2c50ad	0.042069126
136	0xbdf32a21	-0.1187327
137	0xbede7907	-0.43451712
138	0x3cff1cfb	0.031141749
139	0xbf4b1b1b	-0.79338235
140	0xbd84d84f	-0.0648657
141	0xbe3099a6	-0.17246112
142	0xbdbe2d07	-0.09285932
143	0x3e33dcaf	0.17564653
144	0xbae53aba	-0.0017488815
145	0x3ded285c	0.115799636
146	0xbda7bfdc	-0.08190891
147	0x3d3802b1	0.04492444
148	0xbc0ef5b4	-0.008725572
149	0x3daebe7d	0.085324265
150	0x3d5dc2cf	0.054140862
151	0x3df745a7	0.12073832
152	0x3e9564fe	0.29178613
153	0x3e5d9ba7	0.21641408
154	0x3dc53231	0.09628714
155	0xbcb1d9c7	-0.02171029
156	0x3e151b7e	0.14561269
157	0xbd1b70a5	-0.037949223
158	0xbc5f0d55	-0.013614018
159	0x3d839649	0.06425149
160	0x3da4398b	0.08018788
161	0x3e096f1a	0.13421288
162	0x3e135b15	0.14390214
163	0x3e0051e8	0.12531245
164	0x3e34419a	0.1760315
165	0xbd9764da	-0.07392283
166	0x3dc7483a	0.09730573
167	0xbe16d975	-0.14731391
168	0x3c8f722f	0.017510502
169	0x3d071a3e	0.03298401
170	0xbe8d0fa6	-0.27551
171	0x3e8933c6	0.26797312
172	0x3e9fb269	0.31190804
173	0x3e0056c4	0.12533098
174	0xbb32d49c	-0.002728737
175	0x3cd90f25	0.02649648
176	0xba9cb199	-0.0011954784
177	0x3e3b113c	0.18268293
178	0x3d3d1cab	0.046169918
179	0x3e3d81f3	0.18506603
180	0xbda9d734	-0.08293
181	0xbe3c7894	-0.18405372
182	0x3d9601a7	0.07324534
183	0xbbb69427	-0.0055718604
184	0x3b83eb18	0.004025828
185	0xbd1d008d	-0.038330603
186	0xbd539e4a	-0.051664628
187	0x3e0e1657	0.1387571
188	0x3e7788fc	0.24173349
189	0xbe42dda5	-0.19029863
190	0xbde9b208	-0.1141091
191	0xbc2fb845	-0.010725086
192	0xbefd1b48	-0.49434876
193	0xbdd3daeb	-0.1034449
194	0xbe28e772	-0.1649454
195	0xbee910f8	-0.4552076
196	0xbe12b1c6	-0.14325628
197	0xbf66822c	-0.90042377
198	0xbe1d64aa	-0.15370432
199	0xbe562636	-0.20913014
200	0xbd8b0892	-0.06788744
201	0x3d9330b5	0.071870245
202	0xbd935018	-0.07193011
203	0x3e5e31c5	0.21698673
204	0x3e1375bf	0.14400385
205	0x3e05c025	0.13061579
206	0x3e300cb2	0.17192343
207	0xbdfc425e	-0.12317346
208	0xbe268fea	-0.16265836
209	0x3cfca88d	0.03084209
210	0xbe13fac4	-0.14451128
211	0xbdf47e03	-0.11938097
212	0xbc703151	-0.014660195
213	0x3cccd4b0	0.025003761
214	0xbee1a34a	-0.44069892
215	0xbeccc941	-0.39997295
216	0x3e6bc8e5	0.23025854
217	0xbc7965ec	-0.015222054
218	0x3e57e92a	0.21085039
219	0x3d9f89ab	0.0778993
220	0xbd43117d	-0.0476241
221	0x3d9c0e44	0.076199085
222	0xbd182129	-0.037141
223	0x3c9e0e54	0.019293942
224	0x3bd8ddb8	0.006618228
225	0x3cbfe0cc	0.023422621
226	0x3db7a01f	0.089660875
227	0x3e287180	0.16449547
228	0x3e03a3bb	0.12855427
229	0x3d108517	0.035283174
230	0xbdb12fea	-0.08651717
231	0xbd55e887	-0.05222371
232	0x3da9dbfb	0.08293911
233	0xbda967e7	-0.08271771
234	0x3da21949	0.07914979
235	0x3dfd4147	0.12365966
236	0xbdda616a	-0.106631115
237	0x3d052b1a	0.032511808
238	0x3e363a6d	0.17795725
239	0xbce37452	-0.027765427
240	0xbd73d59f	-0.059529897
241	0x3cbebef7	0.023284419
242	0xbe5e44ce	-0.21705934
243	0x3e28ce62	0.16484979
244	0x3e368131	0.1782272
245	0x3e5f0fcc	0.2178337
246	0x3ddffeaa	0.10937245
247	0x3cdb3978	0.026760802
248	0x3da24294	0.07922855
249	0xbd472ed6	-0.04862865
250	0xbd353e9e	-0.04424917
251	0xbd405bae	-0.046962433
252	0x3e13a96e	0.14420101
253	0x3e91c5ad	0.28471127
254	0xbd74b3c3	-0.059741747
255	0x3d229204	0.039690033

encoder_cnn.2.bias f4 [16]
0	0x3c46af47	0.01212675
1	0x3d470c40	0.048595667
2	0x3dc8ddce	0.09807931
3	0xbd8e9cb6	-0.06963484
4	0x3dde9da2	0.1086991
5	0x3d90b28f	0.07065307
6	0x3e02447e	0.1272144
7	0xbc60424b	-0.0136876805
8	0xbdbbd323	-0.091711305
9	0x3d3e5ebf	0.046477076
10	0x3d60d5bd	0.054891337
11	0xbda1076f	-0.07862746
12	0xbad45349	-0.0016199137
13	0xbe054271	-0.13013627
14	0xbdbd4e99	-0.09243507
15	0x3dd69c03	0.104789756

encoder_cnn.4.weight f4 [32, 16, 3, 3]
0	0x3dd0693e	0.10176323
1	0x3dcdcdcf	0.100490205
2	0xbda392fc	-0.079870194
3	0xbccc5194	-0.024941243
4	0x3e7e09ce	0.24808428
5	0x3df6b4c2	0.120461956
6	0x3de7cdc1	0.11318541
7	0x3d902a56	0.07039325
8	0x3e9c0c8c	0.30478323
9	0x3d5032a0	0.05082953
10	0x3d8ef5f5	0.06980506
11	0x3e7365fd	0.23769374
12	0xbbb90855	-0.005646745
13	0x3e141523	0.14461188
14	0x3d5c1ff4	0.05374141
15	0xbe29aeb8	-0.16570556
16	0x3e0e19a7	0.13876973
17	0x3e25b83a	0.16183558
18	0xbde61b97	-0.11235731
19	0xbd0c950c	-0.03432183
20	0xbb959de1	-0.00456594
21	0xbd052c1c	-0.03251277
22	0xbe32d147	-0.17462645
23	0x3b60372d	0.0034212575
24	0xbdc1820b	-0.09448632
25	0xbd0546cc	-0.03253822
26	0x3ae511b1	0.0017476586
27	0x3e40d389	0.18830694
28	0x3dbb30b7	0.09140151
29	0x3dcc95fc	0.09989545
30	0xbce0d70e	-0.027446296
31	0xbc919300	-0.01777029
32	0x3d608078	0.054810017
33	0xbdb7fe19	-0.08984012
34	0xbdddb1d1	-0.108249314
35	0x3d66ae66	0.056318663
36	0x3d7034f4	0.05864425
37	0x3c61889b	0.013765479
38	0x3d904f5b	0.07046386
39	0x3d453b55	0.048152287
40	0x3c315ce2	0.010825368
41	0x3d154af4	0.036448434
42	0x3d2af1db	0.041734558
43	0x3db18cbc	0.08669421
44	0xbc9e85a6	-0.019350838
45	0xbced4007	-0.028961195
46	0xbd1e2fcd	-0.038619805
47	0xbd3fe18e	-0.046845965
48	0xbd25c44d	-0.04047041
49	0xbdb842c9	-0.08997113
50	0x3d8ae377	0.06781667
51	0xbd7f7fa2	-0.06237758
52	0x3c853b1e	0.01626354
53	0xbdcc49eb	-0.09975036
54	0x3e4c9450	0.19978452
55	0x3dd1d509	0.10245711
56	0x3e29699a	0.1654419
57	0x3d5c14bc	0.05373071
58	0x3d83d105	0.06436352
59	0xbb32ad9b	-0.0027264121
60	0xbd800b17	-0.06252115
61	0x3da359d1	0.079761155
62	0x3e051138	0.1299485
63	0x3dface74	0.12246409
64	0x3d813486	0.06308846
65	0xbe39a1f3	-0.18128185
66	0x3ddf38b4	0.10899487
67	0xbe002ec4	-0.1251784
68	0xbe56bd00	-0.20970535
69	0xbd5abe19	-0.053403948
70	0xbd1e1913	-0.03859813
71	0xbdade62c	-0.084911674
72	0x3e03d5af	0.12874483
73	0x3c81230d	0.015763784
74	0x3d257d4b	0.04040269
75	0xbdaad03b	-0.08340498
76	0xbcda0f95	-0.026618758
77	0x3d9ebde6	0.07751064
78	0x3d9600d6	0.07324378
79	0xbdb40a5f	-0.08791041
80	0xbdca56c0	-0.098798275
81	0xbd3dbe65	-0.046324152
82	0x3e0d547f	0.13801764
83	0x3b6c8fae	0.0036096382
84	0x3daed799	0.08537216
85	0x3da074d5	0.07834784
86	0x3e0aa88a	0.13540855
87	0x3a8e1b77	0.0010841925
88	0xbccbc050	-0.024871975
89	0x3c3ca0a7	0.011512912
90	0x3ccd409e	0.025055226
91	0x3d9dbce2	0.07702042
92	0x3da8c92f	0.08241498
93	0xbce03936	-0.02737103
94	0x3ce61304	0.02808524
95	0x3d532af0	0.05155462
96	0xbcc0eb69	-0.023549752
97	0x3c7d9ba5	0.015479003
98	0xbddc6adc	-0.10762569
99	0xbd166480	-0.036716938
100	0x3cbf4394	0.023347653
101	0x3e2d3acb	0.16916959
102	0xbd6f88f5	-0.05848022
103	0x3e1201ab	0.14258449
104	0x3dc462b3	0.09589138
105	0xbb8780a3	-0.0041352077
106	0xbd470b75	-0.04859491
107	0x3d8a8485	0.06763557
108	0xbb661851	-0.0035109709
109	0xbdd418bc	-0.1035628
110	0x3e03151e	0.12801024
111	0xbd4a9c8c	-0.0494657
112	0x3d182489	0.037144218
113	0x3d7933f3	0.06084056
114	0xbe1fa0e7	-0.15588723
115	0x3d0efc03	0.034908306
116	0x3de37019	0.11105365
117	0x3d8adc83	0.067803405
118	0xbcd16ce9	-0.025564628
119	0xbd0a35f1	-0.03374285
120	0xbdf88d7b	-0.1213636
121	0xbe4d9b2d	-0.20078726
122	0xbe60b9f6	-0.21945938
123	0xbda8c0bc	-0.08239886
124	0xbe3bbde9	-0.18334164
125	0xbdd452d2	-0.10367359
126	0x3a678980	0.000883244
127	0x3c6c3c20	0.014418632
128	0x3bdcb9b0	0.006736003
129	0x3cd6523f	0.026162265
130	0xbc23c0b1	-0.009994672
131	0x3ca692f1	0.020333739
132	0x3da8e399	0.08246536
133	0xbd5d4ea8	-0.05403009
134	0xbb9515f0	-0.0045497343
135	0x3d69132d	0.056903053
136	0x3d56c7ce	0.052436642
137	0x3e501000	0.20318604
138	0x3e0a337f	0.13496207
139	0x3e065af3	0.13120632
140	0xbdd471e2	-0.10373284
141	0x3cc90e14	0.024542846
142	0x3e0de2a1	0.13855983
143	0x3e3504c7	0.17677604
144	0xbccdd841	-0.025127532
145	0x3c18686f	0.009302243
146	0xbd7f542d	-0.062336136
147	0x3e3a117f	0.18170737
148	0x3da369a6	0.07979135
149	0xbd0bf041	-0.03416467
150	0x3d90a0da	0.0706193
151	0xbebf8f45	-0.37413993
152	0xbdf23c03	-0.118278526
153	0x3de493fd	0.11161039
154	0xbdec7dfc	-0.11547467
155	0x3cd58c05	0.026067743
156	0x3e1d5225	0.15363367
157	0x3e050200	0.12989044
158	0x3d65209b	0.055939298
159	0x3e2b2cbd	0.16716285
160	0x3de4618a	0.111514166
161	0xbe12e9fe	-0.14347073
162	0xbea44e87	-0.32091162
163	0x3d437e58	0.047727913
164	0x3ce24a4d	0.02762332
165	0x3e438ee5	0.19097479
166	0x3e4e2800	0.20132446
167	0x3e81bf68	0.25341344
168	0x3e732b2d	0.23746939
169	0xbe6f7c6a	-0.23387304
170	0xbdbb7729	-0.09153587
171	0xbd82caeb	-0.0638636
172	0x3d9b45f0	0.07581699
173	0x3c73a0a7	0.0148698455
174	0xbd48f275	-0.04905935
175	0xbc721db2	-0.014777588
176	0xbcdd2cca	-0.026998896
177	0x3e0df310	0.13862252
178	0x3cbf394e	0.023342755
179	0x3d8f8040	0.070068836
180	0xbe1d09ac	-0.15335721
181	0xbde49a32	-0.11162223
182	0xbccd7be9	-0.025083499
183	0x3d45449e	0.04816114
184	0x3dea0a74	0.11427775
185	0x3e183f87	0.14867984
186	0x3d69ff1f	0.057128068
187	0xbdc7844a	-0.09742029
188	0x3ce7ae32	0.028281305
189	0xbe14812f	-0.14502405
190	0xbd8deb56	-0.069296524
191	0x3db8a2f2	0.09015454
192	0x3e113356	0.1417974
193	0x3d9efc18	0.07762927
194	0x3c882f3d	0.016624087
195	0xbcb3ba8a	-0.021939535
196	0xbd62b6fc	-0.05535029
197	0x3d74b3a9	0.05974165
198	0x3ba7a2a7	0.005115825
199	0xba2dcca1	-0.00066299184
200	0x3d950e6e	0.07278143
201	0x3e20665d	0.15664048
202	0x3e5abe9c	0.21361774
203	0x3d12efd1	0.035873238
204	0x3e24e21d	0.1610188
205	0xbd314b30	-0.043284595
206	0xbdc40e56	-0.09573047
207	0xbc5c28aa	-0.013437429
208	0x3cb85111	0.022499593
209	0x3b888424	0.004166143
210	0x3e3faa5d	0.18717332
211	0xbe8e6a15	-0.2781531
212	0xbf151ea8	-0.582499
213	0xbf0e4092	-0.55567276
214	0xbef18071	-0.47168306
215	0xbf001283	-0.50028247
216	0xbe92e4ea	-0.28690273
217	0xbe37014c	-0.17871588
218	0x3bab7775	0.0052327462
219	0x3d9b01e5	0.07568721
220	0x3e2f905e	0.17144915
221	0xbc0a8c46	-0.008456295
222	0x3dd8fac0	0.10594702
223	0x3d78bf4d	0.060729314
224	0x3e84256a	0.25809795
225	0xbd261b89	-0.040553603
226	0xbc11805e	-0.008880703
227	0xbd55d98d	-0.052209426
228	0x3dbf429c	0.093388766
229	0x3db0bf84	0.08630279
230	0x3e145a84	0.14487654
231	0x3d0d2e44	0.03446795
232	0xbc97f78f	-0.018550662
233	0x3cbc6f0e	0.023002174
234	0xbdfd56d9	-0.123700805
235	0x3d3715ff	0.04469871
236	0x3dcf6ec1	0.101285465
237	0x3d54c43a	0.05194495
238	0x3d948753	0.072523735
239	0x3cb6c47c	0.022310488
240	0x3da34bc8	0.079734385
241	0x3b4ccbc0	0.0031249374
242	0x3dbc7d34	0.09203568
243	0x3cbb61b9	0.022873746
244	0x3ded4215	0.1158487
245	0xbde82d7b	-0.113368
246	0xbc4e51e7	-0.012592769
247	0x3e02616c	0.12732476
248	0x3be34781	0.006936014
249	0x3de06ad0	0.10957873
250	0x3e087879	0.13327207
251	0x3da96d17	0.0827276
252	0x3e0270f4	0.127384
253	0xbdc8c90d	-0.098039724
254	0x3d020948	0.031747133
255	0xbcf2affd	-0.029624933

encoder_cnn.4.bias f4 [32]
0	0x3d9ee3f8	0.07758325
1	0x3c3b6483	0.011437538
2	0x3d949e6b	0.07256778
3	0x3dd9213f	0.10602044
4	0x3d999221	0.07498575
5	0xbd43b1c1	-0.04777694
6	0xbbb3dfca	-0.005489324
7	0x3e1e3144	0.15448481
8	0x3e02dfbe	0.12780663
9	0x3e37d4be	0.17952248
10	0x3ccf67cd	0.02531805
11	0x3d1a82ce	0.0377224
12	0xbda8e90a	-0.08247574
13	0x3d5908fe	0.05298709
14	0x3e0f22f8	0.13978183
15	0xbda93700	-0.082624435
16	0x3cd1f9ee	0.025631871
17	0xbcea4d3b	-0.02860128
18	0xbdd4ef04	-0.10397151
19	0xbd55d71b	-0.052207094
20	0xbcb35c88	-0.021894708
21	0xbca41d0a	-0.020033378
22	0xbc93efdf	-0.018058715
23	0x3daff79d	0.0859215
24	0xbd8379ac	-0.064196914
25	0xbcb7faaa	-0.022458393
26	0x3ddd6bec	0.108116
27	0x3dd865a4	0.105662614
28	0xbc629f15	-0.013831873
29	0x3da236cb	0.07920607
30	0xbc6624f1	-0.014046893
31	0x3d132910	0.035927832

encoder_lin.0.weight f4 [128, 288]
0	0xbd4ff2e8	-0.050768763
1	0xbc6448ae	-0.013933344
2	0x3be4ad67	0.006978679
3	0xbcfc669f	-0.030810652
4	0xbced0518	-0.028933093
5	0x3d86669a	0.065625384
6	0xbd392357	-0.04519972
7	0xb9a9e6b7	-0.00032406088
8	0x3d0b41d2	0.033998318
9	0xbcfb7579	-0.030695664
10	0xbd343c28	-0.044002682
11	0x3cf879fd	0.030331606
12	0xbd13cdb7	-0.036084857
13	0xbd8a115f	-0.067415945
14	0x3d6227a7	0.055213597
15	0xbd0e39c5	-0.034723062
16	0xbdbfc490	-0.09363663
17	0x3c4c2135	0.012459089
18	0xbd637fdf	-0.05554187
19	0x3a89113b	0.0010457406
20	0x3cee9581	0.029124023
21	0xbd1c3957	-0.03814062
22	0xbdd781f2	-0.10522832
23	0xbd14fa09	-0.036371265
24	0xbd4b8adc	-0.049692973
25	0xbd0063b3	-0.03134508
26	0xbd33602e	-0.043792896
27	0xbdbd9604	-0.09257129
28	0xbd344c1c	-0.044017896
29	0x3ca073a1	0.019586386
30	0xbb4013f0	-0.0029308759
31	0x3cface19	0.030615853
32	0xbb5ed068	-0.0033998732
33	0x3aceae2a	0.0015768458
34	0x3d1d61a0	0.03842318
35	0xbcb24368	-0.021760657
36	0xbd5ac978	-0.05341479
37	0x3c74ddfa	0.014945501
38	0x3cc52db3	0.024069643
39	0x3c444f11	0.0119817415
40	0x3d2dfa56	0.042475067
41	0x3d152cad	0.03641956
42	0x3d54766a	0.05187074
43	0x3cbe1691	0.02320412
44	0xbd5f21e9	-0.0544757
45	0x3c2e988a	0.010656485
46	0x3c31c6a0	0.010850579
47	0xbd5d5afa	-0.05404184
48	0xbcdd0c26	-0.026983332
49	0xbd055c93	-0.03255899
50	0xbbabacfe	-0.005239128
51	0x3ccb8380	0.024842978
52	0x3cf8a192	0.03035048
53	0x3c627758	0.013822399
54	0x3d6de1c8	0.05807665
55	0xbcc3cd77	-0.023901684
56	0xbd10f80a	-0.0353928
57	0xbc4f0602	-0.01263571
58	0x3c925a38	0.017865285
59	0xbc242e49	-0.010020801
60	0x3d8cb1e4	0.068698674
61	0xbd052243	-0.032503378
62	0x3c0a3668	0.008435823
63	0xbd55db00	-0.052210808
64	0xba5de6ca	-0.0008464871
65	0xbd82d732	-0.063887015
66	0xbd7eb79f	-0.062186833
67	0x39636ac1	0.00021688176
68	0x3cf6a9ce	0.030110266
69	0xbcc731b6	-0.024315696
70	0xbc125eea	-0.008933762
71	0xbd77d721	-0.060507897
72	0x3af315f4	0.0018545971
73	0xbcd45eda	-0.025924135
74	0xbd08969c	-0.033346757
75	0x3c863ac6	0.016385447
76	0xbd4d9448	-0.05019024
77	0xbcce3d00	-0.025175571
78	0xbc76cd3f	-0.015063583
79	0x3d28d4c6	0.04121854
80	0x3d17dadd	0.03707396
81	0x3d392b7a	0.045207478
82	0x3d22dcc2	0.039761312
83	0xbc88042f	-0.016603557
84	0x3d04ca89	0.032419715
85	0x3cb05dda	0.021529127
86	0x3c27170d	0.010198367
87	0xbd02403f	-0.03179955
88	0xbb9205c3	-0.0044562533
89	0xbc081a00	-0.00830698
90	0xbc89f254	-0.016839184
91	0xbdc1a0df	-0.09454512
92	0xbd9d0856	-0.076676056
93	0x3d68f26f	0.056871828
94	0x3d1afbce	0.037837796
95	0xbc5559b7	-0.013021878
96	0xbbdf6fac	-0.0068187322
97	0x3d4ec25f	0.050478335
98	0xbd174958	-0.03693518
99	0xbca10dc4	-0.019659884
100	0xbba8a0f4	-0.00514614
101	0x3bd95cb0	0.0066333637
102	0xbd56720b	-0.052354854
103	0x3c9ed104	0.019386776
104	0x3d55d5e5	0.05220594
105	0x3d119ff5	0.035552938
106	0x3c6f4690	0.014604226
107	0xbccfd02e	-0.025367822
108	0xbd0a11a8	-0.033708245
109	0xbd172854	-0.036903694
110	0x3c23217b	0.009956713
111	0xbca59a0b	-0.020215055
112	0xbb8bf8cb	-0.004271602
113	0x3c3d7b7e	0.011565087
114	0xbd10ad0f	-0.03532129
115	0xbb432f8f	-0.0029782986
116	0xbce9a412	-0.028520618
117	0xbc93cfbe	-0.018043395
118	0x3cd234f4	0.025660016
119	0xbae862e6	-0.0017729669
120	0xbdd3f6f1	-0.10349835
121	0xbd4d1dec	-0.050077364
122	0x3b0c68d4	0.0021424787
123	0x3d85ccc6	0.06533198
124	0xbd90ba7e	-0.070668206
125	0x3d3d06f0	0.046149194
126	0xbda0f850	-0.07859862
127	0xbd4f24f7	-0.05057236
128	0xbb1da5a5	-0.002405503
129	0xbddd8df5	-0.10818092
130	0xbd3d8c2b	-0.046276253
131	0x3ce8d5f6	0.028422337
132	0xbca55be7	-0.020185424
133	0xbd5418cf	-0.05178147
134	0xbc1e788d	-0.009672296
135	0xbd44718c	-0.04795985
136	0x3d23befb	0.039977055
137	0x3c0b95ac	0.008519571
138	0x3d560f2b	0.05226056
139	0x3cccc732	0.024997327
140	0x3cac9aba	0.021069873
141	0x3ca2a7da	0.019855428
142	0x3d6030bd	0.05473398
143	0xbd16fd0b	-0.036862414
144	0xbd768733	-0.06018753
145	0xbc684268	-0.014175989
146	0x3c92c013	0.017913854
147	0x3d494b12	0.04914386
148	0xba0cc387	-0.0005369712
149	0x3d1460f9	0.036225293
150	0x3cabf8b6	0.020992618
151	0x3d2d51f3	0.04231448
152	0x3d07d0b3	0.033158015
153	0xbd94b057	-0.07260197
154	0x3cf550c3	0.029945737
155	0xbca9942f	-0.020700542
156	0xbc8cf732	-0.017207716
157	0xbd12d5c2	-0.035848387
158	0x3c500df2	0.012698637
159	0x3d9afdd7	0.07567947
160	0xbc6bfb5e	-0.014403192
161	0xbcac4599	-0.02102928
162	0xbd2c11c7	-0.04200914
163	0x3c7ffacd	0.01562376
164	0x3d83a3fd	0.06427763
165	0x3c6cd403	0.014454844
166	0x3d83ea89	0.064412184
167	0x3d2c8768	0.04212132
168	0xbc7ba92e	-0.01536016
169	0x3d62b26a	0.05534593
170	0x3ccf4f42	0.025306348
171	0x3d0542d3	0.03253443
172	0xbd120849	-0.035652433
173	0xbd3866ba	-0.045019843
174	0x3d1d28a8	0.03836885
175	0x3ca24530	0.019808382
176	0x3d282463	0.041050326
177	0xbd4ec290	-0.050478518
178	0xbce44483	-0.0278647
179	0xbb0fd6a3	-0.0021948002
180	0xbd0622eb	-0.032748144
181	0x3da61adf	0.08110594
182	0x3dbde3fa	0.09271999
183	0x3d2d9a8f	0.042383727
184	0x3d146264	0.036226645
185	0xbdb2a274	-0.08722392
186	0xbd2daf21	-0.042403344
187	0xbc23b05f	-0.009990781
188	0xbd30e70a	-0.043189086
189	0x3cd9a562	0.026568118
190	0xbcb910f8	-0.0225911
191	0x3dac6a2d	0.08418689
192	0x3d480df1	0.04884142
193	0x3db24392	0.08704294
194	0x3d2009fc	0.03907202
195	0xbd3a7442	-0.04552103
196	0x3c96f2d1	0.01842633
197	0xbc9deee9	-0.01927896
198	0x3ca15d8c	0.019697927
199	0xbbc20056	-0.00592045
200	0x3d00a172	0.031403966
201	0xbcc73cd5	-0.024321
202	0xbd6acc4a	-0.05732373
203	0xbc70f31f	-0.014706402
204	0x3c39b3d2	0.011334376
205	0xbac6eb0a	-0.0015176248
206	0xbd860ee4	-0.06545809
207	0xbcbfa35c	-0.023393326
208	0x3c127baf	0.008940621
209	0x3d76ccd0	0.06025392
210	0xbd926d76	-0.07149784
211	0xbcd00f6d	-0.02539798
212	0xbd03aa64	-0.03214492
213	0x3d32820d	0.043581057
214	0xbd4346ea	-0.04767505
215	0x3cf75082	0.030189756
216	0x3cc07eb5	0.023497919
217	0x3c63f50c	0.013913404
218	0x3d2b9cfd	0.041897763
219	0x3d637153	0.055527996
220	0xbdb9a074	-0.09063807
221	0x3c474173	0.0121616
222	0x3d63c672	0.055609174
223	0xbc5d6788	-0.013513453
224	0x3d5f091a	0.05445204
225	0x3d17a979	0.037026856
226	0xbd1efcf7	-0.038815465
227	0x3d0600d6	0.03271564
228	0xbd32cc8f	-0.043652114
229	0x3d90d8b5	0.070725836
230	0xbc631dcf	-0.013862087
231	0xbd6f148f	-0.058369216
232	0x3cb577da	0.022151876
233	0xbd809608	-0.06278616
234	0x3b5aed87	0.0033405737
235	0xbc6b2b07	-0.01435352
236	0x3cfd936f	0.03095409
237	0x3c1139c1	0.008863867
238	0xbd778d15	-0.06043728
239	0xbd03026a	-0.031984724
240	0xbbad8d73	-0.005296403
241	0x3c9463db	0.018114021
242	0xbcfdf91a	-0.03100257
243	0xbd176cfe	-0.036969177
244	0x3c88b016	0.016685527
245	0xbab2ea7a	-0.0013650202
246	0xbd008f25	-0.031386513
247	0xbd88c6ce	-0.06678544
248	0xbc250d7b	-0.010074015
249	0xbca18fe3	-0.01972193
250	0x3ccfd6c4	0.025370963
251	0x3d5a98a7	0.053368237
252	0x3c7544cd	0.014970017
253	0xbd9f0ff9	-0.077667184
254	0x3d808e02	0.06277086
255	0xbdfb46d4	-0.12269369

encoder_lin.0.bias f4 [128]
0	0x3cb39d6f	0.021925656
1	0xbc80f6ef	-0.015742747
2	0xbd989aa4	-0.0745137
3	0xbc6a1bf6	-0.014288893
4	0xbd184914	-0.037179068
5	0xbd8baca3	-0.06820037
6	0xbd9e57c7	-0.07731586
7	0x3ca7d050	0.020485073
8	0x3dc26cae	0.09493385
9	0xbc9bb1d8	-0.019005701
10	0xb8a3eea2	-7.8168945e-05
11	0xbc537dd3	-0.012908417
12	0x3c8c4f38	0.017127618
13	0xbc2596fb	-0.010106797
14	0x3c05fa46	0.008177346
15	0x3d0e84db	0.03479467
16	0xbb03236d	-0.002001013
17	0xbd628cce	-0.055310063
18	0xbd45d116	-0.048295103
19	0xbd589e82	-0.05288554
20	0xbd269592	-0.040669985
21	0x3c115c4f	0.008872106
22	0x3ce0bb27	0.027432991
23	0xbd8914c9	-0.066934176
24	0xbcd72066	-0.026260566
25	0xbc828bbb	-0.01593577
26	0x3d7fbb6a	0.06243459
27	0x3bc4cb1a	0.006005657
28	0x3c1f3cc2	0.009719076
29	0x3dba4d27	0.09096747
30	0xbce4dcc1	-0.027937295
31	0xbcf05673	-0.029338097
32	0x3cd8a0a9	0.026443796
33	0x3d5cb1c3	0.053880464
34	0xbd090a66	-0.033457182
35	0xbd25a5eb	-0.040441435
36	0x3d4fc5df	0.050725814
37	0x396751e6	0.00022060386
38	0x3b800dce	0.0039078956
39	0xbdaadbaf	-0.083426826
40	0x3d7a2e48	0.061079293
41	0xbb53e8a5	-0.0032334712
42	0x3d467785	0.048453826
43	0x3d54d833	0.051963996
44	0x3e08ed94	0.13371879
45	0xbc91f7d2	-0.017818365
46	0xbd3ccfa8	-0.046096474
47	0x3d586be6	0.052837275
48	0x3d00778d	0.031364013
49	0x3cfed0fa	0.031105507
50	0xbc96aa2c	-0.018391691
51	0xbc197694	-0.00936665
52	0xbc5b9000	-0.0134010315
53	0x3c2578f3	0.010099637
54	0xbd4e186f	-0.05031627
55	0x3c893c99	0.016752528
56	0x3d845c2a	0.064628914
57	0xbcd7a8a2	-0.026325528
58	0x3ccc9347	0.024972571
59	0xbcdebf36	-0.027190786
60	0xbd6ae323	-0.05734552
61	0x3e1713e8	0.14753687
62	0xbdbb1de7	-0.09136563
63	0xbdd11550	-0.10209143
64	0xbd7aa8e0	-0.061196208
65	0xbd442386	-0.04788544
66	0x3cd63d72	0.026152346
67	0x3e0ee03b	0.13952725
68	0x3c357836	0.011076024
69	0xbb79f6d2	-0.00381415
70	0x3d2d6922	0.04233659
71	0x3c4ee2d3	0.012627321
72	0x3d8ad55f	0.067789786
73	0xbd8ee672	-0.06977548
74	0xbd120db2	-0.035657592
75	0x3cbc1dce	0.02296343
76	0x3d6ece65	0.058302302
77	0xbcbfcf66	-0.023414325
78	0x3d8b0f16	0.06789987
79	0x3e0ebfbd	0.1394033
80	0xbdf64596	-0.12024991
81	0xbccd5258	-0.025063679
82	0x3cdf1616	0.027232211
83	0x3df672d3	0.1203362
84	0x3d89be0f	0.06725704
85	0x3ca987ee	0.0206947
86	0xbd2ad2c6	-0.041704915
87	0xbb674294	-0.0035287486
88	0xbd09f4d6	-0.03368076
89	0x3d5ab163	0.053391825
90	0xbcc0401b	-0.023468068
91	0x3d701cc2	0.058621176
92	0x3d1561c8	0.036470205
93	0xbda4c5d8	-0.08045548
94	0xbc8a1c89	-0.01685931
95	0x3d403305	0.046923656
96	0x3d3cfc72	0.046139188
97	0x3c64c084	0.013961915
98	0x3d0f2ab4	0.034952834
99	0x3ceacaac	0.028661095
100	0x3cf060dc	0.029343061
101	0x3c9d389d	0.019192034
102	0x3b9ecddf	0.004846319
103	0xbd9abc46	-0.075554416
104	0x3cfcd52e	0.03086337
105	0x3dae0978	0.084979
106	0xbd0d6a9c	-0.0345255
107	0xbc1583b0	-0.009125635
108	0x3d9522cb	0.07282027
109	0x3d0734b1	0.033009235
110	0x3d03f17c	0.03221272
111	0xbd271dda	-0.040799953
112	0x3d2c1d91	0.042020384
113	0x3b23ead9	0.0025011806
114	0x3bd2dd8a	0.006435101
115	0xbd0ee503	-0.03488637
116	0x3c3178e4	0.010832045
117	0xbd994e88	-0.07485682
118	0x3d808424	0.06275204
119	0xbb4305e4	-0.002975815
120	0xbd3e52b4	-0.04646559
121	0x3da0afc6	0.07846026
122	0xbd6ab3d4	-0.057300404
123	0x3c189c3a	0.009314591
124	0xbd15f13c	-0.036607012
125	0xbd72cd71	-0.059277955
126	0xbd852b33	-0.0650238
127	0xbd932087	-0.071839385

encoder_lin.2.weight f4 [4, 128]
0	0x3d069774	0.03285928
1	0x3b9fcc49	0.0048766476
2	0xbe1d1463	-0.15339808
3	0x3da8c09c	0.08239862
4	0x3e096192	0.13416126
5	0x3c3c76d7	0.011502943
6	0xbbca0521	-0.006165162
7	0x3c05a8c1	0.00815791
8	0x3e2c585f	0.16830586
9	0x3c14dd15	0.009085913
10	0xbd8f41cd	-0.069949724
11	0x3d949df6	0.07256691
12	0xbf2cb52b	-0.6746394
13	0xbd343d35	-0.044003684
14	0xbeb31779	-0.34978846
15	0x3d6bf4b7	0.057606425
16	0xbe1c59f5	-0.15268691
17	0xbbfe9d48	-0.007770214
18	0x3c29dc42	0.010367455
19	0xbd46aefc	-0.04850672
20	0xbded7bce	-0.115958795
21	0x3ceb3ccd	0.028715516
22	0x3cb1afd4	0.021690287
23	0x3c639f60	0.013892978
24	0x3dbf5fa5	0.093444146
25	0xbd725631	-0.05916423
26	0x3dad6217	0.08465975
27	0x3ce38efe	0.027778145
28	0xbe1c4986	-0.15262422
29	0x3e4584c3	0.19288926
30	0xbe9e113b	-0.3087252
31	0xbd578164	-0.05261363
32	0xbda9c589	-0.0828963
33	0xbce24a27	-0.02762325
34	0x3cae1f72	0.021255229
35	0x3d5b2028	0.053497463
36	0xbe41f7d6	-0.18942198
37	0x3e82cf00	0.25548553
38	0xbd158b78	-0.03650996
39	0xbe1b2170	-0.15149474
40	0x3eaf67b2	0.342588
41	0x3d8c3d08	0.06847578
42	0x3d9101fa	0.07080455
43	0x3dd548bc	0.104142636
44	0xbbbb4a7f	-0.0057156677
45	0xbd98eb31	-0.07466734
46	0xbd7fa9f0	-0.062417924
47	0x3e4dfcb9	0.20115937
48	0x3d3a23e2	0.045444377
49	0xbde38b2c	-0.11110529
50	0x3cab4da0	0.020911038
51	0x3d42289c	0.04740201
52	0x3d0daf4b	0.034591
53	0xbd6357ca	-0.055503644
54	0x3d8a53d7	0.067542724
55	0xbe3a6147	-0.18201171
56	0x3e2f1c86	0.17100725
57	0xbc590d6c	-0.013247829
58	0xbe896e6f	-0.26842067
59	0x3efd2c72	0.49447972
60	0xbd47a1da	-0.048738338
61	0x3e08d8d3	0.13363962
62	0xbe88203a	-0.26587087
63	0x3e870d9a	0.26377565
64	0x3cfd5a44	0.030926831
65	0xbd6b4fe2	-0.05744923
66	0xbd953b4b	-0.072867
67	0x3eaaba32	0.3334518
68	0x3eefc201	0.468277
69	0x3dfe7d34	0.12426224
70	0xbd710d50	-0.058850586
71	0xbebcd485	-0.3688089
72	0x3e76ba02	0.24094394
73	0xbd8c1dba	-0.068416074
74	0x3d80e88a	0.06294353
75	0x3cb2d690	0.021830827
76	0x3dead0df	0.1146562
77	0xbe3608b5	-0.17776759
78	0xbd326b90	-0.04355961
79	0xbe43a5fd	-0.19106288
80	0xbebe1af5	-0.37129942
81	0xbc23ffb2	-0.010009693
82	0xbe0f2b1f	-0.13981293
83	0x3bf62c63	0.0075126155
84	0x3e15af89	0.14617743
85	0x3c879f64	0.016555496
86	0x3d2202d9	0.039553497
87	0xbc20b5c5	-0.009808962
88	0xbda68ca7	-0.08132296
89	0x3e7c0002	0.24609378
90	0x3cffcec9	0.031226533
91	0x3d9646ae	0.073377
92	0x3da008e0	0.07814193
93	0x3d6b2247	0.057405736
94	0x3da839a5	0.0821412
95	0x3cf14365	0.029451082
96	0x3d2211cc	0.039567754
97	0x3b9c89ca	0.004777168
98	0x3d18165e	0.037130706
99	0x3ea4f553	0.32218418
100	0xbd9e0d02	-0.07717325
101	0x3d0db8ed	0.034600187
102	0xbbb6fce4	-0.005584346
103	0xbe80d332	-0.2516113
104	0x3e214280	0.15748024
105	0x3ddc47b8	0.10755867
106	0x3bfa79a5	0.0076438957
107	0x3bcfa14b	0.0063363663
108	0x3d9382e0	0.07202697
109	0x3cf41df2	0.029799435
110	0xbd153820	-0.036430478
111	0x3c81f924	0.01586587
112	0x3ee19231	0.44056848
113	0xbd4d4a6f	-0.050119814
114	0x3cb4dfd0	0.022079378
115	0xbe69d2b0	-0.22834277
116	0x3dafd4d2	0.08585514
117	0xbe7de29a	-0.24793473
118	0xbd8be7a8	-0.06831294
119	0xbd6de3a6	-0.05807843
120	0xbeef0f15	-0.46691194
121	0x3da84120	0.082155466
122	0x3caf5f32	0.021407697
123	0xbd1294af	-0.035786327
124	0x3a88b705	0.0010430521
125	0x3aab36e9	0.0013062629
126	0x3f0c6369	0.5483919
127	0xbd98defe	-0.074644074
128	0xbcdca456	-0.02693383
129	0xbd4da727	-0.050208237
130	0xbe124aa9	-0.14286293
131	0xbda18be5	-0.07888011
132	0xbe2fed9e	-0.17180488
133	0xbc114f22	-0.008868964
134	0xbeb09a83	-0.34492883
135	0x3ef22ae5	0.4729835
136	0xbde75934	-0.11296311
137	0xbd5681a5	-0.052369732
138	0xbe31e6d9	-0.17373218
139	0x3a4b8724	0.0007763973
140	0xbf34bb69	-0.70598465
141	0x3dd6d61c	0.10490057
142	0x3dff3605	0.12461475
143	0xbd774978	-0.0603728
144	0x3bebd526	0.00719704
145	0x3daa96a0	0.08329511
146	0x3e875b8e	0.26437038
147	0x3ce3d766	0.02781267
148	0x3dfae7b3	0.12251224
149	0xbd7f699f	-0.062356587
150	0xbcd9bace	-0.026578333
151	0x3d6194fe	0.05507373
152	0xbc9cb28d	-0.019128108
153	0xbd6fb13a	-0.058518626
154	0x3ecd9095	0.4014937
155	0xbe739ca6	-0.23790225
156	0xbc656bcc	-0.014002752
157	0x3e4739a2	0.19455579
158	0x3efb863c	0.4912585
159	0xbd20f4a9	-0.039295826
160	0xbda1b761	-0.07896305
161	0x3e125e83	0.14293866
162	0xbf131536	-0.5745424
163	0x3c2c40aa	0.010513464
164	0x3deffe4c	0.11718425
165	0x3eb0700c	0.34460485
166	0xbd9fd7db	-0.07804843
167	0x3e7496b8	0.2388562
168	0x3e8f9f26	0.28051108
169	0xbdc7b718	-0.09751719
170	0x3d9dca0b	0.07704552
171	0x3e5d1b43	0.21592431
172	0x3dc727c1	0.09724379
173	0xbca540f1	-0.020172568
174	0x3d942223	0.072330736
175	0x3e5aaedd	0.21355768
176	0xbd4cd226	-0.0500051
177	0x3eb32fde	0.34997457
178	0xbd5bfb81	-0.05370665
179	0xbd950c75	-0.072777666
180	0xbd95e815	-0.07319657
181	0xbd430808	-0.04761508
182	0xbd9239c4	-0.07139924
183	0x3e0d5f37	0.13805853
184	0xbd2440d7	-0.0401009
185	0x3ce9779d	0.028499419
186	0xbe2f317a	-0.17108718
187	0x3e4c3980	0.1994381
188	0x3ccfc78b	0.025363704
189	0x3d883dab	0.06652387
190	0xbe28c0cf	-0.164798
191	0xbe54d22e	-0.20783302
192	0xbc8e6d65	-0.017386148
193	0x3caed435	0.021341423
194	0x3cf68d57	0.030096693
195	0xbd1ffc04	-0.0390587
196	0x3d16c69d	0.036810506
197	0xba6dc94b	-0.00090708275
198	0xbca23251	-0.019799383
199	0x3e9d38fe	0.30707544
200	0xbe9e6fbf	-0.3094463
201	0x3cb0953c	0.021555535
202	0xbcfeefb0	-0.031120151
203	0x3d2c1254	0.042009667
204	0x3d699d22	0.05703462
205	0x3ed854a2	0.4225207
206	0x3dc0b66b	0.094097935
207	0xbe859c25	-0.2609569
208	0xbe6b2b4c	-0.22965735
209	0xbc903b34	-0.017606355
210	0xbe285940	-0.16440296
211	0x3e12afa1	0.1432481
212	0xbd43ddce	-0.04781895
213	0xbd3ea090	-0.046539843
214	0xbd4eebd3	-0.05051787
215	0xba07c08b	-0.00051785324
216	0xbe113393	-0.1417983
217	0x3dfcd37d	0.12345026
218	0x3cfc9ace	0.030835535
219	0x3ccac6e5	0.024753043
220	0xbd28f53f	-0.04124951
221	0xbd93f044	-0.072235614
222	0xbd98d76e	-0.07462965
223	0xbd6b3b1e	-0.057429425
224	0x3e9126e9	0.2835
225	0x3cce105e	0.025154289
226	0xbca5b257	-0.02022664
227	0x3eaf1a52	0.34199768
228	0xbe12827e	-0.14307591
229	0x3e63566e	0.22200939
230	0x3d027a17	0.031854715
231	0x3eb383f6	0.35061616
232	0xbe709371	-0.23493744
233	0x3d2df3b3	0.042468738
234	0xbca0a4f9	-0.019609915
235	0xbc29f6d4	-0.01037379
236	0x3e0cebc1	0.13761808
237	0xbca8f29e	-0.020623501
238	0xbd539df1	-0.051664297
239	0xbc819116	-0.015816253
240	0x3e8677a4	0.26263154
241	0xbc88d6b6	-0.016703945
242	0x3caa338e	0.020776536
243	0x3ead6550	0.33866358
244	0xbd9213aa	-0.07132657
245	0x3ede2040	0.4338398
246	0x3e2ba041	0.16760351
247	0x3de12a9b	0.109944545
248	0xbe329890	-0.1744101
249	0xbb582d93	-0.0032986149
250	0xbc7c8a63	-0.015413853
251	0xbd4767a9	-0.048682842
252	0xbb001306	-0.001954259
253	0xbce3bee2	-0.027800981
254	0x3e45a483	0.19301037
255	0xbd1e7d81	-0.03869391

encoder_lin.2.bias f4 [4]
0	0x3d538191	0.051637236
1	0xbd2a5ba1	-0.04159129
2	0xbce2ef88	-0.027702108
3	0xbda6076d	-0.08106885
