weights/encoder_weights_05302023a.pth (torch, 176647 bytes, 10 tensors)

encoder_cnn.0.weight f4 [8, 1, 3, 3]
-0.0033366426 -0.11684722 0.11848122 0.09239795 -0.21764381 -0.11598095 0.09077416 -0.04971293
0.098007336 0.11644345 -0.16885711 -0.3951857 -0.19561245 -0.052144118 -0.096767865 -0.08027209
0.07011797 0.20127548 -0.079279035 0.12023774 0.19383205 0.011598993 0.19332838 0.2530758
0.3667624 0.27578253 0.34548864 -0.06602914 -0.23425835 -0.5295588 0.30985165 0.23384754
0.10385125 -0.38399243 0.19115327 0.36265072 -0.34094378 -0.18396498 0.5178974 -0.44578317
-0.046960585 0.362147 -0.32484463 0.255705 0.06636256 -0.3673098 -0.0542009 -0.06527349
-0.011627631 0.13770702 -0.11514179 -0.2957751 0.18146063 -0.24715765 0.16544293 0.13469155
0.11111936 0.4867837 0.43838495 0.21737586 0.10919101 0.027392322 0.015417395 0.2897491
0.48666927 0.020037025 0.036696367 0.13780339 -0.050616983 -0.022919664 0.032484554 0.09135483
00000000: 93ab 5abb 984d efbd 48a6 f23d 233b bd3d
00000010: 05de 5ebe 6c87 edbd cee7 b93d c99f 4bbd
00000020: 12b8 c83d e779 ee3d e1e8 2cbe c855 cabe
00000030: a14e 48be 1295 55bd 3b2e c6bd b265 a4bd
00000040: 039a 8f3d 291b 4e3e 0c5d a2bd 343f f63d
00000050: e97b 463e b409 3e3c e0f7 453e 2793 813e
00000060: 48c8 bb3e 5e33 8d3e e3e3 b03e 493a 87bd
00000070: 6ce1 6fbe 2a91 07bf e0a4 9e3e bb75 6f3e
00000080: f7af d43d a89a c4be afbd 433e 5bad b93e
00000090: 2f90 aebe 5161 3cbe ed94 043f b13d e4be
000000a0: be59 40bd 556b b93e 0952 a6be c4eb 823e
000000b0: 18e9 873d 0810 bcbe c301 5ebd 1cae 85bd
000000c0: d281 3ebc 1203 0d3e 75cf ebbd d56f 97be
000000d0: d1d0 393e e516 7dbe df69 293e 95ec 093e
000000e0: 8c92 e33d b73b f93e fe73 e03e c797 5e3e
000000f0: 899f df3d dd65 e03c 3e99 7c3c fe59 943e
00000100: b72c f93e b024 a43c ee4e 163d 551c 0d3e
00000110: c153 4fbd 05c2 bbbc 860e 053d 3e18 bb3d

encoder_cnn.0.bias f4 [8]
0.2738462 0.38043687 -0.030196527 -0.002907492 2.8100567e-07 -0.09019577 -0.03540101 -0.003838391
00000000: 9235 8c3e 9fc8 c23e b55e f7bc 9f8b 3ebb
00000010: 20dd 9634 8fb8 b8bd a600 11bd 848d 7bbb

encoder_cnn.2.weight f4 [16, 8, 3, 3]
0.17455763 0.0044298265 0.11121088 0.21042891 0.073048174 0.010900897 0.07194111 -0.07067591
0.03348881 0.044871997 0.097285755 0.07676987 0.16816983 0.15969639 0.0717342 0.10050185
0.13117813 0.10507394 -0.1412987 -0.17352015 0.1412363 0.03895329 -0.16148071 -0.15464173
0.035839524 0.10620614 -0.043734167 -0.47694182 -0.7144584 -0.44474402 0.04512076 0.3992445
0.2032829 0.01597436 0.113533586 0.048574276 -0.116370864 0.13301753 0.19720197 0.12578902
-0.27807426 -0.48476258 0.26704383 -0.08818507 -0.15553431 0.0942346 -0.1355473 0.09004867
0.20538548 0.26325837 -0.059963044 0.29829726 0.08510902 0.1325356 -0.14100161 -0.22678743
0.17043422 -0.025613183 -0.34581107 -0.4244354 0.31182587 0.16288576 -0.030901942 -0.22154272
-0.20225643 0.27813742 -0.23259495 -0.74121386 -0.4165951 0.16926838 0.12614395 -0.049684033
0.08213572 0.09914482 -0.011077082 0.06501238 0.18129186 0.009141873 0.10841792 0.15259314
-0.071417935 0.2025644 0.22180495 0.17448837 0.16308875 -0.013464651 0.09628721 0.14574142
-0.020951934 0.16430521 -0.06667689 -0.050915845 -0.40171012 0.117508486 -0.11867492 -0.24233721
-0.36023113 -0.10469673 -0.30672204 0.15024316 0.38628563 0.31926066 0.21950833 0.272039
-0.56479 -0.0012714113 0.12069446 -0.2433898 0.22404505 0.056491986 -0.48942903 0.27948838
0.2539268 -0.4985103 0.07412649 0.040705275 -0.23265128 0.24240768 0.07872577 0.26647067
0.39168784 0.31965485 0.018691083 0.16140287 0.07751221 0.15906353 -0.14571422 -0.005336691
-0.21455896 -0.17250946 -0.2765999 -0.07986436 -0.09859008 -0.042925827 0.12379078 0.06359877
-0.21932994 -0.07861699 -0.085998446 -0.053524937 -0.32369825 -0.14764795 -0.20830521 -0.18148805
0.038660504 0.054633725 0.17328265 0.1561328 -0.015474265 0.13097478 0.17881489 -0.073362626
-0.032839935 0.019930057 0.046217654 0.20219435 -0.018491272 0.08035877 0.020066017 0.20301965
0.18921474 0.0052292566 0.04365632 -0.29591054 -0.28103235 -0.26379922 -0.16389717 0.07756137
0.14236806 0.15744774 0.1354737 0.10800679 0.041946407 0.11064743 -0.019473322 0.27249575
0.48568338 0.02124139 0.15141031 0.13702227 0.2251327 -0.23559795 -0.21298772 -0.10186829
-0.0020960912 -0.047340512 0.55837995 0.3024944 0.13280168 0.080932446 -0.037236344 -0.07489606
0.18883659 0.232297 -0.12597284 0.11794455 -0.05404187 -0.020743772 -0.04382404 -0.052623257
-0.27948886 -0.3123238 -0.32120067 -0.015883299 0.10213442 -0.055951774 0.021572521 0.066153154
0.025789112 -0.04199031 -0.1950648 -0.81804425 -0.16079864 -0.17988032 0.1374232 0.07099787
0.053924646 0.19739737 0.069727704 0.03634023 -0.03791479 0.16345388 0.04274516 0.17309733
0.17317721 0.14994855 0.0678501 -0.039156668 0.08396036 -0.015424339 0.1491158 0.1746639
0.06573972 0.14733957 -0.060985733 0.09560599 0.01827751 -0.13825592 -0.37735465 -0.41075468
-0.12974975 0.063728034 0.003962421 0.10043034 0.22944704 0.14166476 0.30118293 0.48451132
0.17507163 0.1330319 0.59189 0.32906812 0.2109443 0.3002346 0.5498228 0.26414537
00000000: 3cbf 323e 1428 913b 88c2 e33d ad7a 573e
00000010: 489a 953d ad99 323c dc55 933d 88be 90bd
00000020: 902b 093d b3cb 373d c13d c73d 8639 9d3d
00000030: b634 2c3e 7387 233e 61e9 923d ead3 cd3d
00000040: 8f53 063e 0131 d73d 9bb0 10be 44af 31be
00000050: 40a0 103e 7c8d 1f3d 335b 25be 675a 1ebe
00000060: 77cc 123d 9b82 d93d 9922 33bd b831 f4be
00000070: bfe6 36bf 7db5 e3be 8cd0 383d c669 cc3e
00000080: 6429 503e a9dc 823c 4c84 e83d d2f5 463d
00000090: d953 eebd bf35 083e 50ef 493e d6ce 003e
000000a0: c05f 8ebe cd32 f8be f8b9 883e 609a b4bd
000000b0: 6344 1fbe 12fe c03d e9cc 0abe 706b b83d
000000c0: 9250 523e cdc9 863e cf9b 75bd 6bba 983e
000000d0: a34d ae3d 6ab7 073e ba62 10be f73a 68be
000000e0: 4f86 2e3e bdd2 d1bc 260e b1be 994f d9be
000000f0: a4a7 9f3e 86cb 263e 1226 fdbc 18dc 62be
00000100: 4f1c 4fbe 0768 8e3e 5f2d 6ebe 31c0 3dbf
00000110: f44b d5be b154 2d3e e12b 013e 7c81 4bbd
00000120: c636 a83d 700c cb3d a67c 35bc 3625 853d
00000130: 93a4 393e cbc7 153c 370a de3d 6041 1c3e
00000140: 9143 92bd 0b6d 4f3e d620 633e 14ad 323e
00000150: bd00 273e d79a 5cbc 3b32 c53d 3d3d 153e
00000160: 64a3 abbc a03f 283e e58d 88bd 228d 50bd
00000170: f3ac cdbe 4aa8 f03d d60b f3bd 3f27 78be
00000180: 3770 b8be 3d6b d6bd ac0a 9dbe 58d9 193e
00000190: 3bc7 c53e 2276 a33e cbc6 603e b248 8b3e
000001a0: 1496 10bf 7ca5 a6ba a82e f73d 2d3b 79be
000001b0: 116c 653e 2464 673d 7196 fabe 1a19 8f3e
000001c0: b202 823e be3c ffbe a1cf 973d 93ba 263d
000001d0: 233c 6ebe b839 783e fa3a a13d d86e 883e
000001e0: 4f8b c83e cda9 a33e 0b1e 993c cb46 253e
000001f0: b9be 9e3d 8de1 223e 1c36 15be 69df aebb
00000200: 58b5 5bbe 52a6 30be 819e 8dbe ed8f a3bd
00000210: 99e9 c9bd fed2 2fbd 0586 fd3d 1240 823d
00000220: 0798 60be f201 a1bd f41f b0bd f73c 5bbd
00000230: c7bb a5be 0631 17be f64d 55be 01d8 39be
00000240: 7a5a 1e3d 9dc7 5f3d 0271 313e 47e1 1f3e
00000250: c687 7dbc 411e 063e 401b 373e 253f 96bd
00000260: 2b83 06bd 5c44 a33c b94e 3d3d 090c 4f3e
00000270: 027b 97bc 2493 a43d 7d61 a43c 62e4 4f3e
00000280: 82c1 413e 2f5a ab3b f8d0 323d 9681 97be
00000290: 79e3 8fbe b110 87be a9d4 27be 7fd8 9e3d
000002a0: efc8 113e fb39 213e 9eb9 0a3e aa32 dd3d
000002b0: ffcf 2b3d 1f9b e23d 8486 9fbc 9084 8b3e
000002c0: 7eab f83e 6c02 ae3c 4e0b 1b3e 914f 0c3e
000002d0: 3089 663e 9740 71be 7419 5abe 52a0 d0bd
000002e0: 935e 09bb 20e8 41bd fdf1 0e3f 8ce0 9a3e
000002f0: 2afd 073e e9bf a53d 2385 18bd 1b63 99bd
00000300: 615e 413e 44df 6d3e 06ff 00be ea8c f13d
00000310: 025b 5dbd d8ee a9bc d680 33bd 7c8b 57bd
00000320: 2a19 8fbe e8e8 9fbe 6a74 a4be b11d 82bc
00000330: da2b d13d b02d 65bd dbb8 b03c 4e7b 873d
00000340: b043 d33c 08fe 2bbd 11bf 47be 596b 51bf
00000350: 66a8 24be 8c32 38be abb8 0c3e 5567 913d
00000360: 17e0 5c3d 8922 4a3e 66cd 8e3d 7ed9 143d
00000370: 8a4c 1bbd 7460 273e 8d15 2f3d 6d40 313e
00000380: 5e55 313e 1d8c 193e fef4 8a3d be62 20bd
00000390: 69f3 ab3d 5eb6 7cbc d0b1 183e 18db 323e
000003a0: 8ca2 863d 2fe0 163e 2dcc 79bd 13cd c33d
000003b0: b7ba 953c f692 0dbe a134 c1be 704e d2be
000003c0: 1edd 04be d883 823d 32d7 813b 6cae cd3d
000003d0: 2af4 6a3e 9110 113e a634 9a3e de11 f83e
000003e0: fa45 333e 8439 083e 1a86 173f 9e7b a83e
000003f0: c801 583e 59b8 993e 30c1 0c3f 103e 873e

encoder_cnn.2.bias f4 [16]
0.10081914 0.14342391 0.14193724 0.13043723 -0.07314445 0.114134915 0.014737359 -0.039877802
0.13955607 0.118073486 -0.043098997 0.05173831 0.19582997 0.04522187 0.12601121 -0.08708762
00000000: 447a ce3d b8dd 123e ff57 113e 5691 053e
00000010: c2cc 95bd 91bf e93d f774 713c e856 23bd
00000020: c9e7 0e3e 83d0 f13d 9388 30bd 8deb 533d
00000030: a787 483e 913a 393d 1509 013e fe5a b2bd

encoder_cnn.4.weight f4 [32, 16, 3, 3]
0.1209476 -0.05327796 0.15743054 -0.031780165 -0.049274903 0.31550708 0.10792501 0.0061062863
0.25906762 -0.13262585 -0.1606621 0.08346099 0.19807938 -0.06001632 0.03539109 0.36119008
0.018696101 -0.15350346 0.17421834 -0.04916246 0.13191889 0.00071891584 -0.09378796 0.37232277
0.22723591 0.12250205 0.29844588 0.12389075 -0.099483006 0.058933515 0.26311997 0.35862625
0.44060743 0.20421314 -0.08987818 -0.06061578 -0.349564 0.16595164 0.1455321 0.008683648
0.012383015 0.049158804 -0.008736664 -0.1691533 -0.32576397 -0.113984205 -0.24589519 -0.28038162
0.0494951 0.11409554 0.20530891 -0.05803724 -0.03336193 -0.08690801 -0.04792879 0.11403647
-0.3463834 0.089393385 0.043489583 0.22409311 0.01167821 0.13274795 0.015281168 0.17565651
0.011122266 0.12068165 0.21232097 -0.052013624 0.14326377 -0.055848673 -0.252221 -0.2689538
-0.12204643 -0.18239458 -0.0763591 0.022153595 0.045715705 0.24070908 0.15013567 -0.094970025
0.07175989 0.06841163 -0.20232493 -0.18525961 -0.06193728 -0.13945475 -0.28373015 0.07351989
0.07219465 0.09672148 0.053241808 -0.013843575 0.050767623 -0.10259817 -0.53215975 -0.31749162
-0.5664217 -0.2267345 -0.09632678 -0.10731152 0.021476395 -0.14028335 0.1823952 -0.017319422
0.2003851 -0.19789116 -0.49867147 -0.14757593 0.11709256 0.0071925805 0.024221389 -0.0318149
0.060619257 0.26591647 0.17485519 0.047671627 0.018711833 0.03227158 -0.04392725 -0.084742226
0.24707234 0.11349778 -0.017482648 0.19835968 0.22156264 -0.18927693 -0.1177449 0.08647336
0.10969195 -0.23369257 -0.25376055 -0.1265851 -0.044674605 0.025637288 0.17212516 0.06042338
0.08678852 -0.115863875 -0.51197624 -0.12923732 -0.11960317 0.09887569 -0.047166567 0.15302272
0.018849555 -0.1477295 0.04847386 -0.064248644 0.08333453 0.15337229 0.19465159 -0.012768491
-0.064715885 -0.07544607 0.019345075 0.06343497 -0.23390184 -0.123917624 -0.029546607 0.13753021
-0.0224294 -0.10887857 -0.11946304 -0.17930491 -0.032747634 -0.23760922 0.054670114 0.116334975
-0.11590168 -0.20921543 0.023170518 -0.08742011 0.26000828 0.089540616 -0.0928005 -0.021641394
-0.0039164256 0.02553238 0.011630259 -0.035877332 0.032889634 0.08970301 0.0945407 0.06306764
-0.22001386 -0.2007602 -0.06067802 0.03870003 0.018983562 -0.054227475 0.024088977 0.09508764
0.1299673 0.116230935 -0.040392876 0.033997428 0.2363205 -0.017448016 0.13800824 -0.030020012
0.09446226 -0.2230466 0.13061582 -0.015113733 0.16830745 -0.13518418 0.1046123 -0.13293271
-0.121486 0.1714255 0.13434157 0.19083236 -0.14220364 0.06822197 0.113448 0.06271119
0.14003949 -0.022165785 0.106782794 -0.09833959 0.0712042 0.06914634 0.12765309 0.103031136
-0.14836217 -0.1640447 -0.036633696 0.06613605 0.0597301 0.26862836 0.1567794 0.09287501
-0.18941881 0.1419784 0.06869163 0.16059981 0.0040378477 0.14008583 -0.19394368 0.01151039
-0.049200498 -0.16269149 0.020913055 -0.18692157 -0.09559505 0.01726035 -0.1587606 -0.075908124
0.014618685 0.2010727 0.22221534 0.013404377 -0.06856743 -0.15300398 0.038357407 -0.16560838
00000000: 60b3 f73d fd39 5abd 7935 213e eb2b 02bd
00000010: 7bd4 49bd 258a a13e ca07 dd3d 3e17 c83b
00000020: 83a4 843e 12cf 07be 9b84 24be 98ed aa3d
00000030: 52d5 4a3e acd3 75bd 3ff6 103d e8ed b83e
00000040: 9128 993c 0330 1dbe 4b66 323e 935e 49bd
00000050: bf15 073e a075 3c3a e713 c0bd 17a1 be3e
00000060: 88b0 683e 5be2 fa3d e6cd 983e 6fba fd3d
00000070: bfbd cbbd 4564 713d a9b7 863e dc9d b73e
00000080: 4c97 e13e 401d 513e 0d12 b8bd 4148 78bd
00000090: 0dfa b2be 3aef 293e 5e06 153e dc45 0e3c
000000a0: 21e2 4a3c be5a 493d 3a24 0fbc 8636 2dbe
000000b0: 89ca a6be 8d70 e9bd f3cb 7bbe 2e8e 8fbe
000000c0: 60bb 4a3d ecaa e93d 803c 523e 75b8 6dbd
000000d0: 85a6 08bd d4fc b1bd fb50 44bd f48b e93d
000000e0: 2a59 b1be e113 b73d 2222 323d aa78 653e
000000f0: f755 3f3c 14ef 073e dd5d 7a3c 4ddf 333e
00000100: 2a3a 363c f127 f73d ab6a 593e 3d0c 55bd
00000110: bdb3 123e 94c1 64bd 1c23 81be 50b4 89be
00000120: 7bf3 f9bd a5c5 3abe 2962 9cbd 757b b53c
00000130: 6440 3b3d 717c 763e 2abd 193e a57f c2bd
00000140: d9f6 923d 661b 8c3d 442e 4fbe b2b4 3dbe
00000150: f2b1 7dbd 3acd 0ebe 1445 91be 9991 963d
00000160: cada 933d e915 c63d 1514 5a3d 29d0 62bc
00000170: b6f1 4f3d fd1e d2bd 9f3b 08bf 438e a2be
00000180: 0301 11bf 172d 68be fa46 c5bd 24c6 dbbd
00000190: 44ef af3c 70a6 0fbe cfc5 3a3e 76e1 8dbc
000001a0: c031 4d3e fba3 4abe de51 ffbe 251e 17be
000001b0: 39ce ef3d bdaf eb3b ef6b c63c 5750 02bd
000001c0: e64b 783d 3426 883e 3d0d 333e 5343 433d
000001d0: 8f49 993c 342f 043d 0fed 33bd 558d adbd
000001e0: 8800 7d3e 8671 e83d c537 8fbc cd1e 4b3e
000001f0: 51e1 623e d0d1 41be 3d24 f1bd f218 b13d
00000200: 2ca6 e03d 1b4d 6fbe e7ec 81be 869f 01be
00000210: b8fc 36bd 4a05 d23c 9441 303e 827e 773d
00000220: 2ebe b13d 0a4a edbd e010 03bf ca56 04be
00000230: 82f2 f4bd 567f ca3d bb31 41bd fdb1 1c3e
00000240: 626a 9a3c 6746 17be 878c 463d cb94 83bd
00000250: 4bab aa3d a00d 1d3e bf52 473e ef32 51bc
00000260: c389 84bd 7883 9abd 9079 9e3c 32ea 813d
00000270: f783 6fbe 86c8 fdbd ba0b f2bc b8d4 0c3e
00000280: dcbd b7bc bafb debd 0aa9 f4bd b59b 37be
00000290: 6222 06bd d54f 73be c5ed 5f3d 0841 ee3d
000002a0: dc5d edbd 923c 56be 19d0 bd3c 5109 b3bd
000002b0: ce1f 853e 1261 b73d 300e bebd 4b49 b1bc
000002c0: 5c55 80bb 4829 d13c d88c 3e3c 1cf4 12bd
000002d0: 48b7 063d 36b6 b73d 8e9e c13d 9b29 813d
000002e0: 504b 61be 1594 4dbe 8489 78bd ec83 1e3d
000002f0: 6a83 9b3c a11d 5ebd 3f56 c53c 4fbd c23d
00000300: 2616 053e 7c0a ee3d 0073 25bd e340 0b3d
00000310: 00fe 713e 24ef 8ebc 0852 0d3e 87ec f5bc
00000320: 6e75 c13d 5466 64be 27c0 053e 979f 77bc
00000330: ca58 2c3e b96d 0abe f93e d63d 831f 08be
00000340: a7cd f8bd 2b8a 2f3e d690 093e 8f69 433e
00000350: d59d 11be f6b7 8b3d 6d57 e83d b96e 803d
00000360: 8366 0f3e 0595 b5bc f0b0 da3d 4466 c9bd
00000370: 82d3 913d 999c 8d3d 7eb7 023e fd01 d33d
00000380: 41ec 17be 55fb 27be 370d 16bd 5672 873d
00000390: 8da7 743d a889 893e c78a 203e 4135 be3d
000003a0: 01f7 41be c962 113e 33ae 8c3d 4774 243e
000003b0: ec4f 843b a972 0f3e 2c99 46be 1396 3c3c
000003c0: 7686 49bd 9998 26be db51 ab3c 5e68 3fbe
000003d0: 56c7 c3bd 9465 8d3c 2492 22be b875 9bbd
000003e0: 3583 6f3c 00e6 4d3e 6b8c 633e 089e 5b3c
000003f0: 156d 8cbd 13ad 1cbe a81c 1d3d 3e95 29be

encoder_cnn.4.bias f4 [32]
-0.014931389 0.08730507 0.05261928 0.00043502034 0.05384394 0.05032766 0.09973343 -0.081109956
0.09221072 0.047129273 -0.089685194 0.11732259 0.04434054 0.0024534578 0.093564235 0.13983835
0.068964265 0.049572114 0.10724429 0.079983644 0.12815154 0.10394222 -0.052999478 0.044760216
0.12094403 -0.028185287 -0.026582608 0.0059713386 0.12988217 0.1719506 -0.061877057 0.13487667
00000000: c9a2 74bc 00cd b23d 5087 573d 7113 e439
00000010: 778b 5c3d 6024 4e3d 0a41 cc3d fa1c a6bd
00000020: f9d8 bc3d a00a 413d dfac b7bd d346 f03d
00000030: 6d9e 353d 31ca 203b 9b9e bf3d c931 0f3e
00000040: 233d 8d3d 210c 4b3d e5a2 db3d 77ce a33d
00000050: 283a 033e a9df d43d fb15 59bd 7d56 373d
00000060: 81b1 f73d d5e4 e6bc c5c3 d9bc 38ab c33b
00000070: d5ff 043e d113 303e cc72 7dbd 1c1d 0a3e

encoder_lin.0.weight f4 [128, 288]
0.088366665 -0.018458396 0.00018298537 0.0058198394 -0.25723335 -0.14979458 -0.06378056 -0.015347776
-0.06539122 0.061562072 0.046149634 0.15451191 -0.011119458 0.08034527 0.033098456 0.07229469
0.085503906 -0.017506894 0.09847085 -0.002280234 -0.26638815 0.044937 0.118592985 0.091161914
0.051603664 0.22514111 -0.111674786 0.049234297 0.13147452 -0.09041964 0.014377028 0.10215328
-0.24820277 -0.056032486 0.07709277 -0.02538738 0.08427371 0.04842996 -0.016315505 0.047090802
0.026686504 -0.16158073 0.06761083 -0.34687546 -0.034682225 0.020352876 -0.01158142 0.030473668
-0.018933378 -0.04342578 -0.0067185746 0.0090418765 -0.08535333 -0.05269026 0.07395299 0.041715093
0.019613223 0.08994135 -0.06698921 0.115495086 0.109182574 0.10599094 -0.1428681 -0.025882892
-0.015056387 0.035663377 0.028553685 -0.014209043 -0.032363728 -0.023332294 0.029662779 0.051947754
-0.046343073 0.010109843 -0.06449396 0.07054954 -0.04530349 -0.1644202 -0.051251926 0.13033912
0.012024176 0.018673701 0.0949684 -0.107849136 -0.14204884 -0.080756016 -0.4572353 -0.049650446
-0.122939914 0.073757574 0.002353087 -0.041564323 -0.044318378 -0.021993715 -0.032204993 -0.053177506
-0.04653626 -0.007743864 0.044431847 0.09258814 0.00026646603 -0.021277634 0.047375035 0.0002192116
0.112696335 0.047908965 -0.38799867 0.016438823 0.06309268 0.32615906 0.0010087099 -0.045673363
0.03728258 -0.7737751 0.05717908 -0.13402309 -0.004889018 0.15170299 0.029595908 0.13838308
0.053992346 -0.056081254 0.01988626 0.0015076685 -0.17259996 -0.059067536 0.03809926 0.08052911
0.05954029 -0.06576569 -0.015452753 -0.0033687414 0.01937296 0.072885975 -0.026940236 0.09671532
-0.02599235 0.069601916 0.07791698 -0.12884343 0.11055183 -0.06724784 -0.18429393 -0.09491684
0.029911451 0.021338122 -0.0051528425 0.071142346 -0.17082606 -0.051888168 -0.026967756 -0.087169304
0.01987599 0.026568625 0.22074533 -0.24720687 -0.08345405 0.021512855 -0.17583749 -0.028015895
-0.06260106 -0.112888925 0.14814393 0.09259875 -0.025558116 -0.008654361 -0.10897016 0.18888256
-0.065506764 -0.013934897 -0.049115084 -0.0074568926 0.11560243 0.05232855 -0.03559974 0.1713796
0.21553907 0.09810961 0.27264962 -0.09615027 0.05278215 0.16111788 0.012969465 -0.0234923
0.20374833 -0.10909846 -0.034967806 0.0046621193 -0.04960855 0.06188962 0.20816952 -0.029397791
0.02386067 0.01687477 -0.028469164 -0.054619063 0.1654706 -0.008933048 0.083828524 -0.043734178
0.07762438 -0.108941704 -0.01753202 0.12825122 0.03600811 0.022026941 -0.05136693 0.060881
-0.03575921 0.0034241027 -0.0024635154 -0.033729997 -0.10228113 -0.047027834 -0.04627802 0.0173785
0.059459116 0.00092115946 0.054524485 -0.00047292095 0.13635798 -0.067464165 0.016781954 0.016331822
-0.006079357 -0.08416939 0.042716503 0.006273093 0.04410242 0.116103314 0.035969302 0.104963556
-0.038514115 0.17694692 0.01757366 0.050719935 -0.02703644 0.05705916 0.04689812 0.027850827
-0.0025267294 -0.042320363 -0.015075714 0.07521066 0.09793737 0.024110125 -0.037640695 -0.16079065
-0.064347304 -0.063244246 -0.1302259 -0.021018198 0.07664242 0.056030672 0.09192229 0.021450318
00000000: 95f9 b43d 1036 97bc c3df 3f39 5ab4 be3b
00000010: 17b4 83be c063 19be 629f 82bd 3d75 7bbc
00000020: d5eb 85bd 8328 7c3d 6607 3d3d 5f38 1e3e
00000030: 632e 36bc 108c a43d 3f92 073d 3d0f 943d
00000040: ac1c af3d 9e6a 8fbc 16ab c93d fa6f 15bb
00000050: 0764 88be dc0f 383d e1e0 f23d 19b3 ba3d
00000060: 5d5e 533d 648b 663e c0b5 e4bd e7a9 493d
00000070: 42a1 063e ef2d b9bd a08d 6b3c bd35 d13d
00000080: de28 7ebe 5282 65bd d0e2 9d3d 32f9 cfbc
00000090: b297 ac3d 7e5e 463d 18a8 85bc 49e2 403d
000000a0: a89d da3c 6b75 25be 8c77 8a3d a999 b1be
000000b0: f30e 0ebd 13bb a63c ffbf 3dbc eaa3 f93c
000000c0: 2c1a 9bbc 3bdf 31bd 7d27 dcbb 6124 143c
000000d0: bacd aebd bed1 57bd aa74 973d 72dd 2a3d
000000e0: e9ab a03c 2c33 b83d a431 89bd b088 ec3d
000000f0: 1d9b df3d c711 d93d 044c 12be 5c08 d4bc
00000100: 10af 76bc c313 123d 6be9 e93c 0ccd 68bc
00000110: d48f 04bd 5e23 bfbc 5bff f23c 2bc7 543d
00000120: 3cd2 3dbd c1a3 253c 6915 84bd 477c 903d
00000130: 2790 39bd c55d 28be 8aed 51bd 9e77 053e
00000140: 0d01 453c 97f9 983c cb7e c23d 02e0 dcbd
00000150: 4075 11be 6963 a5bd bf1a eabe 445e 4bbd
00000160: ecc7 fbbd 360e 973d 4036 1a3b 5a3f 2abd
00000170: 3087 35bd 2a2c b4bc 62e9 03bd a8d0 59bd
00000180: ce9c 3ebd 3dc0 fdbb 2bfe 353d da9e bd3d
00000190: 77b4 8b39 6f4e aebc 530c 423d 2adc 6539
000001a0: 56cd e63d 313c 443d c3a7 c6be b6aa 863c
000001b0: bc36 813d 52fe a63e b036 843a fe13 3bbd
000001c0: 9eb5 183d 2016 46bf 9c34 6a3d 593d 09be
000001d0: 0e34 a0bb 0758 1b3e 1e73 f23c 4bb4 0d3e
000001e0: 1427 5d3d 75b5 65bd 83e8 a23c f69c c53a
000001f0: 0bbe 30be cdf0 71bd f80d 1c3d 72ec a43d
00000200: 85e0 733d 29b0 86bd 8b2d 7dbc 1ac6 5cbb
00000210: 0bb4 9e3c 3e45 953d c5b1 dcbc af12 c63d
00000220: e9ed d4bc 738b 8e3d f092 9f3d 88ef 03be
00000230: ff68 e23d 3cb9 89bd 8cb7 3cbe c363 c2bd
00000240: dc08 f53c 49cd ae3c 2dd9 a8bb 14b3 913d
00000250: 07ed 2ebe b088 54bd 7ceb dcbc d285 b2bd
00000260: f9d2 a23c 72a6 d93c 100b 623e cc23 7dbe
00000270: f5e9 aabd ba3b b03c be0e 34be 9781 e5bc
00000280: fc34 80bd 4f32 e7bd 0bb3 173e 6aa4 bd3d
00000290: 415f d1bc 05cb 0dbc bf2b dfbd 6e6a 413e
000002a0: 6928 86bd 324f 64bc e62c 49bd f358 f4bb
000002b0: f8c0 ec3d 7656 563d 08d1 11bd 227e 2f3e
000002c0: 46b6 5c3e b1ed c83d bb98 8b3e 6fea c4bd
000002d0: 1932 583d 16fc 243e e17d 543c ed72 c0bc
000002e0: 67a3 503e 036f dfbd 673a 0fbd b1c4 983b
000002f0: 5632 4bbd f87f 7d3d 642a 553e a3d3 f0bc
00000300: 7477 c33c f53c 8a3c 2a38 e9bc 3db8 5fbd
00000310: 2071 293e eb5b 12bc 4aae ab3d 9c22 33bd
00000320: 88f9 9e3d d41c dfbd 509f 8fbc 4a54 033e
00000330: 3d7d 133d d871 b43c 2166 52bd 5b5e 793d
00000340: 4078 12bd e966 603b ee72 21bb 7728 0abd
00000350: c578 d1bd 42a0 40bd 058e 3dbd 5b5d 8e3c
00000360: 678b 733d f779 713a 1155 5f3d 60f2 f7b9
00000370: 6da1 0b3e a72a 8abd 4f7a 893c 50ca 853c
00000380: 5835 c7bb 0061 acbd 80f7 2e3d 858e cd3b
00000390: bda4 343d 93c7 ed3d 8c54 133d 22f7 d63d
000003a0: fac0 1dbd 9331 353e a3f6 8f3c b5bf 4f3d
000003b0: 867b ddbc deb6 693d 3e18 403d 6b27 e43c
000003c0: 7c97 25bb 1e58 2dbd 2100 77bc 0c08 9a3d
000003d0: 6393 c83d 9982 c53c 212d 1abd 4ea6 24be
000003e0: 85c8 83bd 3386 81bd f059 05be 5b2e acbc
000003f0: b3f6 9c3d 6b80 653d c141 bc3d 94b8 af3c

encoder_lin.0.bias f4 [128]
0.061457623 -0.05034485 -0.022056023 -0.007813028 -0.03628238 0.007810324 0.0425054 0.021538721
0.052486166 0.08256829 0.07617925 0.04152329 -0.059845418 0.034586985 -0.009151983 0.029653596
0.02647074 0.060990274 0.014148748 0.05126659 0.04482749 0.010102667 -0.05462941 -0.05717777
-0.047406778 0.07896038 0.07384532 -0.056106575 0.013570607 0.027389023 0.013164956 -0.035830565
-0.02591979 0.08680758 0.054364946 0.043474782 -0.024801917 0.02621654 -0.018048478 0.052225694
0.08906603 0.07737767 -0.048887584 0.09598182 -0.009186394 0.07601024 0.047707487 0.044148754
0.061873645 -0.045051754 0.12926723 0.012661987 0.08302796 0.09128121 0.13697286 0.05760377
-0.0344335 -0.02381237 -0.06643667 -0.01156598 0.06821504 -0.0537835 -0.018251223 -0.0021800078
-0.09175399 0.08082116 -0.04583353 0.032317817 0.105156496 -0.051198926 -0.035170227 -0.06932691
-0.022904765 -0.068646066 0.041337978 -0.017454647 0.0019626587 0.045454793 0.05207637 0.024193916
0.02597366 0.020066813 0.08373867 -0.054827068 0.0043733316 0.08342715 0.109303534 -0.007991586
-0.04438055 -0.07011461 -0.030729303 0.085901365 -0.11115106 0.07147414 0.08983499 0.042110756
-0.033034656 0.049632985 -0.0121916495 0.06721095 0.040087387 0.06821071 0.038285058 0.024371391
0.053936113 0.06637764 -0.048671216 0.06734926 0.055381633 -0.003398829 0.114795476 0.04182822
0.034512687 0.028839804 0.07422777 -0.0106552625 0.016935974 -0.06496098 0.016846845 -0.05211669
0.006391431 -0.004726364 -0.050409418 -0.07064293 -0.07645655 0.016545845 0.023171857 -0.000996296
00000000: fdba 7b3d 6736 4ebd d5ae b4bc 3702 00bc
00000010: d59c 14bd bfed ff3b 241a 2e3d f971 b03c
00000020: bcfb 563d 9019 a93d de03 9c3d 5314 2a3d
00000030: 7820 75bd 15ab 0d3d 33f2 15bc 19ec f23c
00000040: 2ad9 d83c f0d0 793d 26d0 673c eafc 513d
00000050: 089d 373d a885 253c 17c3 5fbd 3d33 6abd
00000060: 9c2d 42bd fbb5 a13d 373c 973d 02d0 65bd
00000070: 4057 5e3c f25e e03c d4b1 573c 12c3 12bd
00000080: bd55 d4bc 2cc8 b13d c7ad 5e3d 9d12 323d
00000090: 642d cbbc 12c4 d63c 67da 93bc 9cea 553d
000000a0: 4068 b63d 2f78 9e3d 593e 48bd 1e92 c43d
000000b0: 8782 16bc 42ab 9b3d ed68 433d 53d5 343d
000000c0: 386f 7d3d 3088 38bd a15e 043e 3974 4f3c
000000d0: 900a aa3d a5f1 ba3d 9d42 0c3e eef1 6b3d
000000e0: 240a 0dbd 2912 c3bc f30f 88bd 3c7f 3dbc
000000f0: 54b4 8b3d 164c 5cbd 9783 95bc 76de 0ebb
00000100: 84e9 bbbd 9085 a53d f1bb 3bbd b05f 043d
00000110: 4a5c d73d f7b5 51bd a80e 10bd 44fb 8dbd
00000120: c6a2 bbbc 4f96 8cbd 0352 293d 0cfd 8ebc
00000130: f39f 003b ce2e 3a3d 084e 553d 5232 c63c
00000140: b7c6 d43c 2863 a43c 2e7f ab3d 5992 60bd
00000150: 2a4e 8f3b dbdb aa3d 88da df3d 24ef 02bc
00000160: 61c8 35bd 4098 8fbd 05bc fbbc 0eed af3d
00000170: 2ba3 e3bd 0961 923d 68fb b73d 547c 2c3d
00000180: 594f 07bd f54b 4b3d 7cbf 47bc e5a5 893d
00000190: ac32 243d 0fb2 8b3d cbd0 1c3d 83a6 c73c
000001a0: 1dec 5c3d 00f1 873d 785b 47bd 69ee 893d
000001b0: dad7 623d e3be 5ebb e419 eb3d 1154 2b3d
000001c0: 2d5d 0d3d 7441 ec3c bb04 983d 6993 2ebc
000001d0: 50bd 8a3c 430a 85bd 6502 8a3c 4f78 55bd
000001e0: 366f d13b 9ddf 9abb 1b7a 4ebd 3ead 90bd
000001f0: 4095 9cbd 278b 873c e8d2 bd3c 2596 82ba

encoder_lin.2.weight f4 [4, 128]
-0.07685206 -0.036335144 0.24010494 0.0010771104 0.0016583254 -0.06544302 -0.076663226 -0.032457538
0.0464781 0.17769162 -0.20671256 0.3689804 -0.034963284 -0.05599054 0.25050357 -0.061158836
0.14901823 0.17425756 0.0112344 0.11619343 -0.110343546 -0.09571104 -0.016010484 0.042558786
-0.013627006 0.077611886 -0.058880407 0.04576193 0.045804475 -0.045531347 -0.038091715 -0.05652738
0.027123408 -0.22072981 0.212249 0.08962037 0.20486599 -0.04628244 -0.073297545 0.08158285
-0.26871407 0.2775914 0.002581925 -0.07819601 0.0654861 -0.010568602 -0.14262143 -0.13689038
0.15352546 -0.03966719 -0.18825805 0.0774061 0.057404835 0.20628317 -0.13771391 0.20176247
0.25628808 0.16485539 -0.0706273 0.018304514 0.27009696 -0.0022347993 0.1862103 0.004086562
0.4462333 -0.17821513 -0.02835731 0.005836863 -0.55029386 -0.16906294 0.22500443 0.10896949
0.0633023 0.088012 -0.007536029 -0.07345291 0.13245168 -0.037435025 0.0867654 -0.03740305
0.009779504 -0.001696858 -0.114110194 0.08311884 0.039290164 0.37255597 -0.025955752 0.08657792
0.34454674 -0.073757745 -0.016269162 0.020076666 0.34744206 0.022053285 0.2295154 -0.06956488
-0.03611587 0.14539325 0.051354356 -0.04154286 0.09478215 -0.3285003 0.074268244 0.016986338
0.065013856 0.0059878193 0.051047083 0.068759054 0.12094374 -0.07268744 -0.16501231 -0.032908324
0.22554094 0.0038274555 -0.037923735 -0.14839625 0.032870747 0.02880523 0.5648589 0.046155017
0.27064845 0.04859654 0.0014219744 0.04001845 -0.055467322 0.09448672 0.14886063 0.0144726215
-0.06584189 0.050501466 0.05561312 -0.07283669 0.042209163 0.07888907 0.36291423 0.083173975
0.19401462 -0.1468565 0.024864135 0.07293465 -0.013026705 -0.03557952 0.33379608 0.0012662284
0.13424037 0.22449411 -0.022574322 -0.014403386 -0.01563473 0.25297937 0.014633984 -0.03215506
-0.02999636 0.06696698 0.5794772 0.053618975 0.0880045 -0.05585583 -0.05480276 0.096046
0.03669659 0.37475345 0.35039473 0.07331564 -0.23500083 0.08294136 -0.014028308 0.46523398
-0.14314185 0.046719186 -0.037292946 0.17503329 0.06459298 -0.07850344 -0.060477864 -0.035599366
0.12630722 -0.057880703 0.2702243 0.16756862 0.028764296 0.39608678 -0.03621959 0.25594354
-0.11869534 -0.15877709 0.007508345 0.085711546 0.45869473 -0.056302853 0.2679525 -0.008832002
0.033303402 0.09466153 -0.031070076 0.05536314 0.0542283 -0.3039669 0.47987896 0.07626406
-0.021154553 -0.02709363 0.11072959 0.08033015 -0.27841684 -0.018755525 -0.05325606 0.03798403
-0.0104204435 -0.009973106 0.088690564 0.017964544 -0.028678443 0.28936237 0.014546251 -0.12867579
-0.41498905 -0.014860952 0.07865341 0.024163509 0.19180866 0.06781833 0.28716695 -0.07684034
-0.007631645 0.32501584 0.057935238 -0.27174383 -0.23277682 -0.3624295 0.01257926 -0.074886605
-0.01767985 0.004821307 -0.074004106 -0.00451318 0.04740497 -0.068114035 0.26465997 -0.04577083
0.06602883 0.03411249 -0.129602 -0.31674168 0.031236427 -0.15506917 0.25113073 -0.041290715
-0.392592 -0.039627552 0.019844977 -0.06621878 0.020571796 -0.1455439 -0.083088376 0.03207653
00000000: 9d64 9dbd 29d4 14bd 12de 753e d42d 8d3a
00000010: 2b5c d93a fd06 86bd 9c01 9dbd 32f2 04bd
00000020: d25f 3e3d cbf4 353e 75ac 53be 00eb bc3e
00000030: a935 0fbd 5656 65bd 0142 803e b081 7abd
00000040: 3c98 183e 9370 323e 7d10 383c d2f6 ed3d
00000050: ccfb e1bd 2604 c4bd 6b28 83bc 1f52 2e3d
00000060: ce43 5fbc fbf2 9e3d 952c 71bd dd70 3b3d
00000070: 799d 3b3d 147f 3abd 0f06 1cbd 4189 67bd
00000080: e931 de3c ff06 62be cd57 593e e28a b73d
00000090: 64c8 513e a892 3dbd 061d 96bd e914 a73d
000000a0: e494 89be 7620 8e3e 8335 293b 3b25 a0bd
000000b0: 941d 863d ee27 2dbc 5a0b 12be fe2c 0cbe
000000c0: c735 1d3e 107a 22bd b8c6 40be 1787 9e3d
000000d0: 5521 6b3d e53b 533e e004 0dbe d29a 4e3e
000000e0: 3138 833e dacf 283e 0ca5 90bd 59f3 953c
000000f0: 264a 8a3e b675 12bb eaad 3e3e 91e8 853b
00000100: b178 e43e 077e 36be 974d e8bc 2843 bf3b
00000110: 0fe0 0cbf d61e 2dbe 9067 663e 652b df3d
00000120: a3a4 813d a33f b43d cbf0 f6bb 7b6e 96bd
00000130: 6aa1 073e 7855 19bd 0fb2 b13d f133 19bd
00000140: 363a 203c 1b69 deba 9bb2 e9bd 363a aa3d
00000150: b9ee 203d a8bf be3e 28a1 d4bc c44f b13d
00000160: 6e68 b03e 4d0e 97bd e846 85bc d277 a43c
00000170: ede3 b13e 17a9 b43c 1606 6b3e 0878 8ebd
00000180: 3cee 13bd f8e1 143e f258 523d d928 2abd
00000190: 251d c23d 3131 a8be f319 983d ef26 8b3c
000001a0: fc25 853d 7835 c43b bf16 513d 8cd1 8c3d
000001b0: 5ab1 f73d 27dd 94bd fdf8 28be e1ca 06bd
000001c0: 34f4 663e 0cd6 7a3b eb55 1bbd 30f5 17be
000001d0: 7aa3 063d f2f8 eb3c 989a 103f 0b0d 3d3d
000001e0: 6f92 8a3e 2a0d 473d 8b61 ba3a 63ea 233d
000001f0: b431 63bd 4182 c13d ec6e 183e 931e 6d3c
00000200: 1dd8 86bd a0da 4e3d 95ca 633d 672b 95bd
00000210: 84e3 2c3d 9890 a13d e5cf b93e 1e57 aa3d
00000220: c5ab 463e 8d61 16be dfaf cb3c c35e 953d
00000230: f66d 55bc d5bb 11bd 52e7 aa3e 93f7 a53a
00000240: 4f76 093e c9e1 653e c9ed b8bc 2efc 6bbc
00000250: 6814 80bc 8386 813e 61c3 6f3c 06b5 03bd
00000260: edba f5bc fc25 893d 9e58 143f 929f 5b3d
00000270: b43b b43d 15c9 64bd dc78 60bd c4b3 c43d
00000280: 2a4f 163d afdf bf3e f066 b33e 8326 963d
00000290: 0fa4 70be 29dd a93d fdd6 65bc 2633 ee3e
000002a0: c793 12be 9e5c 3f3d 7dc0 18bd ed3b 333e
000002b0: 5349 843d 69c6 a0bd a3b7 77bd a4d0 11bd
000002c0: ae56 013e 5114 6dbd d75a 8a3e 1c97 2b3e
000002d0: 1aa3 eb3c e3cb ca3e fe5a 14bd 080b 833e
000002e0: 8b16 f3bd 7696 22be 9008 f63b 8989 af3d
000002f0: 09da ea3e d29d 66bd 1231 893e 1ab4 10bc
00000300: 2669 083d e7dd c13d ac86 febc 76c4 623d
00000310: 7e1e 5e3d 8da1 9bbe b2b2 f53e 5530 9c3d
00000320: 504c adbc 76f3 ddbc 32c6 e23d 2284 a43d
00000330: a78c 8ebe 30a5 99bc 0723 5abd 2495 1b3d
00000340: 82ba 2abc 3d66 23bc 66a3 b53d 612a 933c
00000350: 0eef eabc 4e27 943e 6653 6e3c 96c3 03be
00000360: 7279 d4be 5a7b 73bc 0a15 a13d 8df2 c53c
00000370: 7d69 443e 56e4 8a3d 8c07 933e 785e 9dbd
00000380: e112 fabb 7a68 a63e 804d 6d3d 0222 8bbe
00000390: 0c5d 6ebe 5c90 b9be 3e19 4e3c 265e 99bd
000003a0: 55d5 90bc 0efc 9d3b 778f 97bd 4ce3 93bb
000003b0: b72b 423d 5f7f 8bbd 8381 873e 327a 3bbd
000003c0: 203a 873d 8ab9 0b3d 63b6 04be f72b a2be
000003d0: 89e3 ff3c 74ca 1ebe 3594 803e 7420 29bd
000003e0: d201 c9be 8050 22bd ef91 a23c b69d 87bd
000003f0: 2f86 a83c 7609 15be 3d2a aabd ae62 033d

encoder_lin.2.bias f4 [4]
-0.03314221 0.042816713 -0.16943975 0.023007968
00000000: 20c0 07bd 9460 2f3d 9d81 2dbe 357b bc3c
